src/app/epic7/assert/hero_avatar.pt (torch, 63878 bytes, 22 tensors)

cls_w f4 [214, 32]
00000000: 978f b8bd de3a 3b3f 3d6a 0d3f 2777 7f3e
00000010: f790 933f e7c4 43be 0f76 55bf beda 68be
00000020: 1ae6 5c3d ca29 e5bc 82d8 35bf 5345 34bf
00000030: bd72 223f f008 4d3e 6443 9dbe 1e7d 9f3f
00000040: 2e80 a3be b1d2 c3bd d7d7 69bf 6318 1dbf
00000050: 6686 bfbe 3995 04bf cc2f 623f 982e 98bd
00000060: d5ee 5a3f 7491 e7be 4bd0 b83d e7ed 6cbf
00000070: 5945 ea3c e47d 473f e9bb 163f c7a9 a73e
00000080: b7d1 463e 015f dfbe a61f 88be 4fbc d5be
00000090: 59b8 69be 1b8e 293f 9e1d 9b3e 6380 d23e
000000a0: f809 1e3f 2b88 71bb 675b 85be 2071 38bf
000000b0: 7c22 383e 33eb ed3f 656a d03f 6284 56bf
000000c0: 7d1d 033f 8298 563f 1682 653f fc93 8d3e
000000d0: f7d1 babe 80f4 a33e 198d ad3e 33ee 0dbe
000000e0: ae06 5a3f c8a1 193f a87c 5a3d 59a5 563e
000000f0: 3b47 6abe f57b cdbd 2879 05bf f6a3 d7be
00000100: e5d5 493f d31a d1bf 29a4 283f a13b 44bf
00000110: ff73 87bc 5851 2dbe f6fb e33e 8b4d debd
00000120: 0f20 593f 0da4 573f 6de8 84bf f511 a73f
00000130: 3006 0cbd f30d e83e dce6 2ebe b5e9 433d
00000140: c62a 41bf 3cba 7bbf ae97 fabc ef31 babe
00000150: b8ac e43e 37f4 1fbd 539a 4bbf 9926 2cbf
00000160: 2c54 02bf d5f5 31bf af96 f13e b5a7 a43f
00000170: dc71 cfbc e29d b2be 51fe 603f 91ff 82bf
00000180: af91 8dbc e339 533f 6dc9 84be 6ec8 25bf
00000190: dca6 6dbf 55ea d63d e79e 8ebe 8c4a 813f
000001a0: 8da2 a6bd d648 13bf 1775 fc3e 5b83 f9be
000001b0: 7ca8 7ebf 72d3 513e a1a1 09bf 4dd0 a2bd
000001c0: 4d4a 22bd bf6e d53f fefa 70bf 27e0 513d
000001d0: f35b 22bf 9ba8 f03e 37d1 ae3e 1c82 ef3e
000001e0: 96a5 f5be b8f9 55be 30d6 1a3e da43 4ebf
000001f0: f0ac f2bd 23e1 2d3f 3a03 c83c c907 c33c
00000200: c993 893e e049 923e 2e12 333f e00d 88be
00000210: eede 683f 2a65 cabe a015 2fbe 8210 d93e
00000220: 0f6f 183e b293 ce3e 942a 18bf 5674 24bf
00000230: ef27 0bbf eee7 c33f 1310 c13d 700f dbbe
00000240: 1d8c 06bf 95bc c5bd 7a9a 19bf 6528 ab3d
00000250: a98d 693f a0a6 d73e 709a 65be 4282 903e
00000260: baac 31bf 4685 c7be 9544 f9be b348 b23e
00000270: f374 33bf 8d60 7bbf fed6 69be 99e6 9f3e
00000280: 7368 1a3c 0c55 ef3c bcea 4cbf 28d6 ab3f
00000290: 67e0 5e3f 081d 613c 119b eebe ff64 b2be
000002a0: f952 32be 6e67 103f 4a63 7fbf 4e3b ecbe
000002b0: 6a1c 1bbf 4d3f 313f cca4 3dbf 2987 89be
000002c0: 5a11 6a3e 361e 6abf 0498 c53e 008c c8be
000002d0: 04e7 833f 4102 debe b5ea 91bd 81b2 a7be
000002e0: 9c8d 50bf 83a0 68bf 5456 f3be cf8d b83e
000002f0: f08d 3cbc 3dd8 e2bd 1402 2b3f 48d1 23bd
00000300: 79e4 33bf 8179 903e 650e e0be 0032 e33e
00000310: 46fe 6ebf ae11 26bf a594 6abf 0785 d53f
00000320: 1d18 893f 46ab e73e aedc 333f 8d02 9d3f
00000330: b440 0fbe 21d3 f63e 7121 6f3e 61df e0bd
00000340: e657 aabe af4d 3bbd e302 2bbd 9cc4 9bbd
00000350: d5b2 adbe 4561 e23d e6d2 85be 79fe f1be
00000360: 30a0 debe a59e 1f3e 3100 243d f81f d8be
00000370: b1db 5d3f 1183 6ebd 2ff1 273e 2b52 26bd
00000380: da0d 233f f535 53bf 20c8 ffbe 0305 4bbf
00000390: 8b75 aabf 0464 36be 8775 4dbf d615 e33e
000003a0: 9809 ca3e dd5e ba3d ec7e 8b3f 1df7 19be
000003b0: f3d2 dbbb 3037 4a3f 4250 29bf 5639 733e
000003c0: 057d 83bf d9e3 213c 753b 09be 8408 f53e
000003d0: 9379 02be a2e5 13bf 293d 82be 7aa0 1ebf
000003e0: 3044 1d3e 1797 8b3f e0fa 9a3f 927a bd3d
000003f0: 6ce2 1cbe b6d9 a53f f24b 1dbf 7287 4cbf
-0.090117626 0.731367 0.5524023 0.24947797 1.1528615 -0.19118081 -0.8338327 -0.22739694
0.05393038 -0.027974028 -0.7103349 -0.7041828 0.63456327 0.2002294 -0.30715477 1.2460058
-0.3193373 -0.095616706 -0.9134497 -0.61365336 -0.37407225 -0.51790196 0.8835418 -0.07430762
0.8552068 -0.4522816 0.09024104 -0.9255051 0.02859752 0.7792647 0.5888048 0.32746717
0.19415937 -0.4362717 -0.26586646 -0.4174523 -0.2282423 0.6623246 0.30296034 0.41113576
0.6173396 -0.0036854844 -0.26046297 -0.72047615 0.17981905 1.8587402 1.6282469 -0.8379575
0.5121687 0.8382646 0.8965162 0.27651966 -0.36488315 0.32022476 0.3389671 -0.13860397
0.8516644 0.60012484 0.053341538 0.20961513 -0.22878735 -0.100334086 -0.52137995 -0.4211728
0.78842 -1.6336311 0.6587549 -0.76653486 -0.016534803 -0.16925561 0.44528168 -0.10854634
0.8481454 0.84234697 -1.0383431 1.3052355 -0.03418559 0.45323142 -0.17080253 0.047830302
-0.7545589 -0.98331046 -0.030589905 -0.3636622 0.44663024 -0.03905126 -0.79532355 -0.67246395
-0.50909686 -0.69515735 0.47185275 1.286368 -0.025322847 -0.3488608 0.87888056 -1.0234243
-0.017281381 0.82510203 -0.25934926 -0.64758956 -0.9283273 0.10493914 -0.27855608 1.0100875
-0.08136473 -0.57533014 0.49308082 -0.4873303 -0.99475837 0.20490816 -0.5376225 -0.079498865
-0.03962164 1.6674422 -0.94132984 0.05123916 -0.63421553 0.47003636 0.34143993 0.46778953
-0.47977895 -0.20896041 0.15120769 -0.80572283 -0.118493915 0.67921656 0.024415601 0.023807423
0.26870564 0.28571987 0.69949615 -0.26573086 0.90965164 -0.39530307 -0.17098093 0.42395407
0.14886115 0.40347058 -0.5943997 -0.64240015 -0.5435781 1.5305154 0.09426894 -0.42785215
-0.52557546 -0.0965511 -0.6000134 0.08357314 0.9123178 0.42119312 -0.22422194 0.2822438
-0.69404185 -0.38968867 -0.48685136 0.3482109 -0.70100325 -0.981942 -0.2283592 0.3123062
0.009424317 0.029215358 -0.80045676 1.342473 0.8706116 0.013739832 -0.4660268 -0.3484268
-0.17414464 0.5640782 -0.9976088 -0.46138996 -0.6059023 0.69237214 -0.74079585 -0.26860932
0.22858182 -0.9145235 0.3859254 -0.39169312 1.0304875 -0.43361095 -0.07124845 -0.32753375
-0.8146608 -0.9086992 -0.475268 0.3604569 -0.01150845 -0.110764004 0.66800046 -0.039994508
-0.70270497 0.282177 -0.43760982 0.44374084 -0.9335674 -0.6487073 -0.91633064 1.6681222
1.0710484 0.4524786 0.70258605 1.2266403 -0.13989526 0.48207954 0.233526 -0.10980106
-0.33270186 -0.04572838 -0.0417508 -0.0760586 -0.339255 0.11053709 -0.26137465 -0.4726446
-0.43481588 0.15587862 0.040039245 -0.4221189 0.8666335 -0.058230463 0.16400598 -0.040605705
0.6369301 -0.82504207 -0.4995737 -0.7930452 -1.3317121 -0.1781159 -0.8025746 0.44352597
0.39460444 0.09100125 1.0898108 -0.15035672 -0.0067084967 0.7899046 -0.6613809 0.2375234
-1.0272528 0.009880983 -0.13401587 0.4785806 -0.1274169 -0.57772267 -0.25437286 -0.6196362
0.15358043 1.0905484 1.2107811 0.09251894 -0.15320748 1.2957065 -0.6144401 -0.79894173

weight f4 [8, 3, 3, 3]
00000000: 0b03 4c3e 5408 763e b2c4 873e 68a2 123e
00000010: e23b 3b3d 2177 753b c5c5 aa3e f613 d73e
00000020: 42d5 a33e b3ca 9e3c 5375 dc3c 9a6f 1c3c
00000030: cfbc 3b3c 4e22 92bd 4e7a 2c3d 6606 cbbd
00000040: aec5 0a3d daee 163e 552c d4bd f36c 2cbe
00000050: d64a d1bd 6a2a d4bd 4484 59bc b931 d8bd
00000060: 72f1 88bd 8ed8 6bbe c4de 3cbe 410f 17be
00000070: 715a c9bd 6a9c 93bd 4426 4dbd c88a 17be
00000080: 1284 f63d a2b1 55bd dca0 dc3d 45e5 3b3e
00000090: 5066 a33d 6d67 24be dd72 493e e173 11be
000000a0: 80f0 1cbb 358a 6c3e f032 3abe c4c6 65be
000000b0: 332d 693e c7ef d93d 72e9 8ebd a1bb 803e
000000c0: a99e 71be 5596 08bd 384f 2e3e 3d94 89be
000000d0: 1785 38be c7ff 2f3e 8a01 c9be 30db 89be
000000e0: 9079 28be df36 fabd 0540 973d 8813 c43d
000000f0: 4a83 a2be aeb6 fabd bcaf c1bc d5aa 89be
00000100: 186a e7bd e6c4 37be d84b 5cbd 891c 6fbd
00000110: 8d51 71be f29f eebe 9a67 f5bd 3354 73be
00000120: f0e4 253d ba46 5e3e d35b 013e 8f06 163e
00000130: 7ddd 463d d483 283e ebd4 49bd bb0f c03d
00000140: e870 b03d 948e a23d e906 9cbd e264 6dbe
00000150: 083d 5b3e 7ceb 4f3e 761b e43b cea8 dd3e
00000160: cab0 a73e 32fd 153d 1db9 68be 6e80 74bd
00000170: 75b7 f3bd 65da 45be 7cd0 3bbd cea0 833d
00000180: bcc7 ee3d ea5a 8a3e 3762 983d 16e0 5b3e
00000190: 7408 f93d 15ce 383d ce70 d43d e52d 77bd
000001a0: 74d0 25bd 0ad0 813e e3ff 46bd ffc9 7bbc
000001b0: 8d78 b03d e8c3 103e 78a9 1d3e 281d 663e
000001c0: a966 103e 4691 f23d f1f0 533e b756 1a3e
000001d0: 32c4 033e 2cf0 6bbe 2141 82be bbe9 d7bd
000001e0: ba4a 3abe 65f9 3cbe 8a1f a1be 7b72 78be
000001f0: 6bc7 f1bd fdfa 95be 8ce9 d9bc 5339 813d
00000200: 51dd e13c 6672 9d3d 0614 f43d 6d7f 1ebd
00000210: 7697 c73d 84bd 6d3b 6042 9dbd c46b 31be
00000220: 65d2 47be b11a e1bb cc75 51be 6c39 1abe
00000230: 6174 e53d 6852 8cbd f0fd ff3c 2c2c ec3d
00000240: 6afe e4bd 6b73 06bd c81f b73d 10e7 b83d
00000250: 8c30 b0bd 8ce5 ed3d 354f 053e 2f26 403e
00000260: 9968 b43e f7c1 c23e e46f 473e d87f 883e
00000270: 13f6 863d 4a33 993d 4c81 bbbc 3e53 d33e
00000280: 9c87 223d d335 9a3d 7747 763e 87be 073e
00000290: 962d 9cbe 8725 25bd 03e7 b93b 883f 36be
000002a0: 2e39 183d 541b 01be 4728 78bd cbcf e93d
000002b0: 4c18 3fbe 1cea fcbe 02d2 753d f4a0 52bd
000002c0: 7a1e f33d 9255 1d3e 0a6b c2bb 867c 2e3e
000002d0: 4141 e1bd 9fdf 78be 1ad0 81be b9de 8d3b
000002e0: a0fa a3bd 554f 043e 6d08 43bd 8b2a dc3c
000002f0: 5461 a03e 1a51 ea3c 7f70 d9bc cfd7 e3bd
00000300: da28 143d 8299 71bd 79b4 27be f140 7a3d
00000310: 2677 e9bd 735d 653d 35e1 11be 3c90 bcba
00000320: 9a25 6ebe f386 80bd 4f4d 02bd 86c4 f7bd
00000330: 5524 ddbd 4714 3cbc 063c 41be 8259 d13e
00000340: f078 003f e545 913e 0834 f13d 91a2 3b3e
00000350: 5ca1 c83d 36c6 313d 1ff8 9b3d 37fe 123e
0.19923036 0.24026614 0.26517254 0.14319766 0.045711406 0.003745504 0.3335401 0.42007416
0.3199864 0.019383764 0.026911413 0.009548092 0.01145859 -0.07135449 0.042108826 -0.0991333
0.03387993 0.14739552 -0.10360018 -0.16838436 -0.10219352 -0.10359652 -0.0132761635 -0.10556359
-0.06686677 -0.23031828 -0.18444353 -0.14751913 -0.098317035 -0.07207568 -0.05008532 -0.14799035
0.12036909 -0.052171357 0.10772869 0.18349178 0.07978499 -0.16055079 0.19672723 -0.1420436
-0.002394706 0.23099597 -0.18183494 -0.22439104 0.22771148 0.10641437 -0.0697812 0.2514315
-0.2359568 -0.033346493 0.17022407 -0.2687091 -0.1801952 0.17187415 -0.39258987 -0.2692504
-0.16452622 -0.12217497 0.07385258 0.09574038 -0.3174079 -0.12241875 -0.023643367 -0.26888147
-0.11299533 -0.17946205 -0.053783268 -0.058376823 -0.23566265 -0.46606404 -0.11982651 -0.23762588
0.040501535 0.21706668 0.12632684 0.1465094 0.04855107 0.16456538 -0.04927532 0.09378
0.08615285 0.07937351 -0.076185055 -0.23183015 0.2141 0.20304674 0.0069612814 0.4329285
0.32752067 0.03661842 -0.22726865 -0.059692793 -0.11900226 -0.19321592 -0.045853123 0.064271554
0.1165919 0.27022487 0.07440608 0.21472201 0.121598154 0.04511841 0.10373078 -0.060346503
-0.040482 0.25354034 -0.048583876 -0.015367984 0.08616743 0.14137232 0.15396678 0.2247206
0.14101662 0.11844115 0.2069738 0.15072142 0.12867811 -0.23040837 -0.25440314 -0.105426274
-0.18192568 -0.18454511 -0.31469375 -0.24262421 -0.11805614 -0.2929305 -0.026600622 0.06309762
0.027571352 0.076878354 0.11917882 -0.03869574 0.09745686 0.003627629 -0.07678676 -0.17326266
-0.19513853 -0.006869637 -0.20455092 -0.15060967 0.11203838 -0.06851655 0.031249017 0.115318626
-0.11181338 -0.032824915 0.08941609 0.09028447 -0.086030096 0.11616048 0.13018496 0.18764566
0.35236052 0.38038608 0.19476277 0.26660037 0.06589904 0.07480486 -0.022888802 0.41274446
0.03968011 0.075297974 0.24050699 0.13256274 -0.3050353 -0.040318992 0.0056732907 -0.17797673
0.037163906 -0.12608081 -0.060585286 0.114165865 -0.18661612 -0.4939736 0.060014732 -0.051423028
0.11871047 0.15364674 -0.00593317 0.1703969 -0.10998774 -0.24304055 -0.2535408 0.004329529
-0.08006787 0.12920888 -0.047615457 0.026875755 0.31324255 0.028603125 -0.0265429 -0.111251466
0.03617177 -0.058984287 -0.16377439 0.06109709 -0.11399679 0.055997323 -0.14246066 -0.0014386247
-0.23256531 -0.062757395 -0.03181201 -0.12098031 -0.107979454 -0.011479444 -0.18870553 0.40888602
0.50184536 0.28373638 0.11777502 0.18323733 0.09796402 0.04340192 0.07615685 0.14354788

bias f4 [8]
00000000: 0722 6dbd 06b0 733c fd6c 0dbd e890 bb3b
00000010: f7de 243e bc7c 823d abbc 3fbe d8fa 0c3d
-0.05789378 0.01487351 -0.034527767 0.0057240613 0.1610068 0.063714474 -0.18724315 0.03441891

weight f4 [8]
00000000: 35e2 543f 42f3 ae3e a569 0c3f 8586 673f
00000010: af9b 073f bc53 523f 9adb e13e dc32 053f
0.83157665 0.34169966 0.548487 0.90439636 0.5297193 0.8215902 0.44112855 0.5203073

bias f4 [8]
00000000: d2d5 b23d 6ccd fd3c 5b29 783e 2f24 8abd
00000010: a061 2e3e 27d8 9abe 578a bb3c 2a6a a33e
0.08732189 0.030981742 0.24234526 -0.06745183 0.17029428 -0.30243036 0.022893114 0.31916934

running_mean f4 [8]
00000000: 49ba bc3e 57a5 c7bd 0259 6dbf 0b46 363f
00000010: 4432 553d f71b 673f b344 02bf 9b75 d93e
0.36860874 -0.09748333 -0.9271394 0.7120063 0.05204989 0.90277046 -0.50886077 0.42472538

running_var f4 [8]
00000000: 215c 203e 43fb 2e3d 70a6 a03e 1825 313e
00000010: 074f 413d 6329 a43e d18d 743d aafd 053e
0.15660144 0.04272009 0.31376982 0.17299306 0.047194507 0.32062826 0.05970556 0.13085046

weight f4 [8]
00000000: adb5 bbbe b0eb 5abe b2b1 7cbe 0b46 03be
00000010: 94dc 3ebd eba0 ebbd 26a0 2fbe 0775 153d
-0.36662045 -0.2137897 -0.2467716 -0.12819688 -0.04659708 -0.11505302 -0.17150936 0.03648856

weight f4 [16, 8, 3, 3]
00000000: 5ecf 8ebe f054 3bbe 160f 7fbd 240b 06bf
00000010: 7707 6ebe 4c5e 793d f841 a0be 40a1 c83a
00000020: 1382 6c3e 384f 1c3e 232a 1a3e fba7 3b3e
00000030: 5e1f 453e bca0 15bd 10c2 2e3e 9759 4a3d
00000040: ff37 013e e4a0 8e3d 1b77 393c c07c aabc
00000050: 5df9 553e c36e 03be 3ef5 17be 90fc 343d
00000060: 0912 e0bd dd9f d6bd cb15 5d3d a9ab 74bc
00000070: d046 073d 4d8e e43c cd07 c83d efb9 cfbc
00000080: 007b 393d 9341 3f3e c2ab 91bc 75dd 253c
00000090: a54c db3d 0bcc a43d 3aa4 383d 39f1 56b9
000000a0: 68cd b93c 5add a7bd 9f79 2dbd 3b09 04be
000000b0: 6dd2 0dbd a832 6f3e 9795 cebc d37e 97be
000000c0: bc4d 9c3e d5bd 5b3d cee2 32be 84b2 c03e
000000d0: 94dd fa3d 0b8d cbbc 6536 e13c 42d3 813d
000000e0: 17c8 0a3e 6933 0f3d ccc1 c73d cd6b 753e
000000f0: 893f 8a3d 0f76 cf3c c4cc 963e a05c 233e
00000100: ae99 253d 9e00 6a3c f3a5 453e 606b 163e
00000110: f6f4 d4bc a45e 4e3e 58bc 193e 0fff 833c
00000120: 230e 413e 5d26 13bd b41b 16bb 75bb f63d
00000130: 37b9 a1bd 34b8 2ebd eca0 363e 4eb7 3e3e
00000140: 2920 073e 867c 74bd 47a4 673d 9881 963c
00000150: 222b 13bd 5d3e ea3b f83a 30bc 0434 24be
00000160: a5e5 98be aa0f 79be 4e16 acbc 18ee 303e
00000170: 5755 6e3e fb91 c13c a0d1 6a3e d75f 2d3e
00000180: c3f9 50be c625 20be 77f2 efbd 139a 6dbc
00000190: 11bd c23c 2aa5 d83d 4695 15be e151 ccbc
000001a0: 3dc7 d63d 5c0a 3dbd f586 06bd 913f 2f3e
000001b0: a1a8 55bd 68e2 693d 1e2b a13d 166d 42bd
000001c0: 33ce 943c a522 de3a 6b13 59be 0b99 febd
000001d0: dc47 34be e3a1 753d 0272 fb3d 5233 8a3e
000001e0: 184c 2e3e 7aa9 123e 56a5 743e 25e5 f73d
000001f0: 8c5d 3d3e 9c6a 953e 41dc d53d d501 223e
00000200: a933 8e3d de3f d6bd 1078 373d c487 833d
00000210: 6f16 c2bd ef4b 24bc a33c a4bd 35cb 1e3e
00000220: b0ba 9b3e abca dd3e 2f95 f2bd 1f93 e43d
00000230: 186a 943e d3d5 15be f0d5 acbd e4d4 093e
00000240: 73fa 9b3d 3491 ab3d 0ced 263d eda4 713d
00000250: 916c c5bd 72e4 89bd aa4e 483d e474 de3c
00000260: 0ef5 adbc d53d b9be 6114 54bd b92d 1dbe
00000270: 1830 69be 45cf 88bd 3f91 20be f95f bbbd
00000280: b910 f23c b6f2 03be 1069 423e bb49 d43e
00000290: 787e 8b3d f360 54bd c627 8b3e 94fc 2cbd
000002a0: 8e07 b8bb 7c2e 863e 2f56 3bbe 35cc 7c3c
000002b0: 377d 7bbc d286 15be 7dbc 1d3d 6b34 bcbd
000002c0: b2b0 0bbe a2a4 223e 688d 683d 5844 b83c
000002d0: 25f7 e9bd 6d48 1bbe cab5 a3be 44c9 84be
000002e0: 0bf7 3cbe 9079 9fbe bfb9 d7bb a088 0c3e
000002f0: bb94 903c c73b 5e3e a681 e63d b12a 413e
00000300: 436f 173e fa36 4c3e 85e8 4b3e cf03 423e
00000310: 2778 7b3e 8879 033e 8a72 0ebb 0144 afbd
00000320: 0475 acbc dd5b a1be 8a06 3abe 24cd bebe
00000330: 2757 38be d084 39be 182f b0be 41bc 07be
00000340: 4a98 5ebd 9c36 20be 4eed 3e3c 1f4c 5e3d
00000350: b3fa a3ba 8ac3 a7be 9c2f 8fbe 9abe 28be
00000360: 8a99 a8bd 5993 133e 749b 003e e18b a03b
00000370: 1b2f 203e 1672 573e bee3 74bd c48e 633e
00000380: 2798 423e fac4 833d 840a 8c3d 67e5 543d
00000390: 90d7 133d b509 453d 85fc b83d d41f c4bd
000003a0: 2fe9 8e3c 56e5 ca3d d0c1 d13c 681d 37bd
000003b0: 70d6 d63d 6d82 933d 71d3 013d 6d03 133c
000003c0: 4fb9 75be 0670 77be 9a1e d2be 7a46 b9bc
000003d0: a5fa edbc 38f7 2d3e 1683 10be 80a3 70bd
000003e0: 8d1f cc3d 4d72 e7bb 037d c93c 2e20 103e
000003f0: 7d7e 9a3c cf61 9d3d 7052 d23d 49b7 b93d
-0.27892584 -0.1829412 -0.062270246 -0.5236075 -0.23245035 0.060880944 -0.3130033 0.0015306845
0.23096494 0.15264595 0.15055136 0.18325798 0.19250247 -0.03653024 0.17066216 0.049401846
0.12619017 0.06964281 0.011319901 -0.020811439 0.20895906 -0.12835221 -0.14839646 0.044186175
-0.1094094 -0.1047971 0.05397586 -0.014933505 0.033026516 0.027899886 0.09767113 -0.025357215
0.045283318 0.18677358 -0.017782096 0.0101236 0.10707978 0.080467306 0.045078494 -0.00020498493
0.022680953 -0.08196516 -0.042352315 -0.12894146 -0.034624506 0.23359168 -0.025217814 -0.29588947
0.30528057 0.053647835 -0.17469332 0.37636197 0.12249294 -0.024847528 0.027491758 0.06339122
0.1355289 0.034961138 0.09753761 0.23966904 0.067503996 0.02532485 0.294531 0.15953302
0.040429763 0.014282374 0.19301586 0.14689398 -0.025995713 0.2015329 0.15013254 0.016112832
0.18853049 -0.035925258 -0.0022904696 0.12047473 -0.07896655 -0.04265614 0.17834824 0.18624613
0.13195862 -0.059689067 0.05655315 0.018372342 -0.035929807 0.0071485476 -0.010756247 -0.16035467
-0.29862705 -0.24322382 -0.02100673 0.17278326 0.23274742 0.02362918 0.22931528 0.16931091
-0.20407777 -0.1563941 -0.117161684 -0.014502066 0.023771795 0.105783775 -0.14607725 -0.024941387
0.104872204 -0.046152458 -0.03284355 0.17114092 -0.05216277 0.057100683 0.07869552 -0.047467314
0.01816473 0.0016947581 -0.21198814 -0.124315344 -0.17605537 0.05996884 0.12277605 0.2699228
0.17021215 0.14322463 0.23891196 0.12104253 0.18492717 0.291829 0.10442401 0.15821011
0.06943447 -0.104614004 0.044792235 0.064223796 -0.09476935 -0.01002787 -0.08019378 0.15507205
0.3041587 0.43318686 -0.11844861 0.111608736 0.28987193 -0.14632349 -0.08439243 0.13460118
0.07616129 0.08377305 0.04075341 0.058995176 -0.09639848 -0.067330256 0.048903145 0.027155347
-0.021235015 -0.36179987 -0.051777247 -0.15349473 -0.22772253 -0.066801585 -0.15680407 -0.09149165
0.02954899 -0.12885556 0.1898539 0.41462502 0.068112314 -0.05185027 0.27178782 -0.042233065
-0.005616135 0.2620734 -0.18294595 0.015429546 -0.015349678 -0.14602211 0.038509835 -0.091896854
-0.13641623 0.15883115 0.05677548 0.022493526 -0.11424092 -0.15164347 -0.31974632 -0.25934803
-0.18453614 -0.31147432 -0.006583422 0.13723993 0.017649045 0.21702491 0.11255197 0.18863942
0.14788537 0.19942847 0.19912918 0.18946765 0.24557553 0.12839329 -0.002173575 -0.085578926
-0.021051891 -0.315154 -0.18166557 -0.37265885 -0.18001996 -0.1811707 -0.3441093 -0.13255407
-0.054344453 -0.15645832 0.0116532575 0.054271813 -0.0012510627 -0.32766372 -0.2796601 -0.16478959
-0.0823241 0.14411677 0.125593 0.0048994874 0.1564297 0.21039614 -0.059787504 0.2222243
0.19003354 0.06434055 0.06837943 0.051976588 0.03609425 0.04810496 0.09032539 -0.09576383
0.017445175 0.099070236 0.025605112 -0.04470578 0.104901195 0.07202611 0.031695787 0.008972985
-0.23996471 -0.24163827 -0.41038972 -0.022616614 -0.02905018 0.16988838 -0.14112505 -0.058749676
0.09966955 -0.0070631863 0.024595743 0.14074776 0.018859142 0.07684671 0.1026963 0.09068162

bias f4 [16]
00000000: 0b5f 05bb 43e4 18be 2b4b e73d 3047 a53d
00000010: 2327 28be 918c 99bd 33db 6cbe 0142 c03d
00000020: 8f36 9bbd c040 f1bd 08cc e0bb 7374 55be
00000030: 6199 13bd 5b5c d6bd fba4 a83d ee68 30be
-0.002035084 -0.14930825 0.11293634 0.080702186 -0.1642118 -0.07497514 -0.23130493 0.09387589
-0.075787656 -0.11779928 -0.00686026 -0.20845203 -0.036034945 -0.10466834 0.082345925 -0.17227527

weight f4 [16]
00000000: ecf2 263f 6fcb 0b3f 8ebf 223f 53df 113f
00000010: 33f5 3b3f d5c5 153f eb44 453f 569d 373f
00000020: 6340 463f 117e 123f 4f4c 423f 2011 4c3f
00000030: 8c4e 353f 73f3 0e3f 793d 2c3f 0565 303f
0.6521442 0.5460729 0.6357354 0.5698139 0.7342102 0.5850499 0.77058285 0.7172445
0.77441996 0.5722361 0.7589769 0.7971363 0.7082298 0.55840224 0.672813 0.68904144

bias f4 [16]
00000000: 7aa0 b7bd 6d8f 663e d142 bdbe 3699 593d
00000010: 00d8 61be 671d f3bd 6457 87be bfae a0be
00000020: 9eee acbe 6eed 22be 6534 1ebe 3d5a 86be
00000030: e715 0bbe 8207 413d d086 20be c657 85be
-0.08966155 0.2251565 -0.3696504 0.05312463 -0.22055054 -0.118708424 -0.2643386 -0.3138332
-0.337758 -0.15910885 -0.15449674 -0.2624072 -0.13582574 0.0471263 -0.15676427 -0.26043528

running_mean f4 [16]
00000000: 6a4a 973e 28fd 823f 4ae8 c5be d5e6 283c
00000010: f5ee 8dbf 1495 603f d84b 92bf f748 633d
00000020: 56d3 0dbf 958a 85be f7e2 acbf 402c 11c0
00000030: 68b8 c6bf 7b49 cdbf b4eb af3c 39b3 a6be
0.2954896 1.0233507 -0.38653785 0.010308941 -1.1088549 0.87727475 -1.1429396 0.055489507
-0.554006 -0.26082292 -1.3506764 -2.2683258 -1.5525026 -1.603805 0.021474697 -0.3255861

running_var f4 [16]
00000000: 7709 fb3e b48a 553f dd49 8d3e bfe2 ca3e
00000010: 45d0 fd3e 44c3 1c3f 2fd0 ba3e 73dc 213e
00000020: 18a6 873e 9233 163e 798f 2a3f eea9 483f
00000030: 0c45 2b3f 5105 e43e 9f8f d93e 9cfd 823e
0.4903066 0.8341477 0.27595416 0.3962612 0.4957296 0.6123545 0.36486956 0.15806751
0.26493907 0.1466811 0.6662517 0.7838429 0.6690223 0.44535306 0.42492387 0.25584114

weight f4 [16]
00000000: e610 61be 121f f63d ce5d 2dbe b711 42be
00000010: 1c97 86be b5bd 7bbe 2b70 00be 2139 dabc
00000020: d8e9 44be 40cf 11bf eeee 91be 9960 1cbe
00000030: cb1c b2be 53c3 72be c91c 7a3d d0cb eebe
-0.21979102 0.12017645 -0.16930315 -0.1895207 -0.26287162 -0.24584086 -0.12542789 -0.02663857
-0.1922983 -0.56956863 -0.285026 -0.15271224 -0.34787592 -0.23707323 0.061062608 -0.46639872

weight f4 [32, 16, 3, 3]
00000000: 063f c4bc eb17 07be 679c 62be 91dd 4d3e
00000010: 9f3f ca3d e008 34be a3e6 8c3e ebb6 113e
00000020: 3662 21be 02e3 3d3e c751 0b3e 3ae0 3839
00000030: 73c3 313e 6637 ae3d 20a2 fc3c 2d9c 993d
00000040: 10dc 24bb cef0 a23b 4970 233c e1c0 47bd
00000050: a5c1 05be d84f 88bb 965e d7bd 9bbf 2bbe
00000060: 645d be3d 5de4 0ebe 9813 04be 3d09 123e
00000070: 46d6 0c3e 9201 a63d e71a b33c 7a59 3c3d
00000080: fe1e 1cbd 0177 803c ac2e 243d d38d 60be
00000090: 1db6 373d 0570 07bd 05d9 d0bd d778 82bc
000000a0: 0f5a b7be 08f9 dfbe 5a35 a23c b680 bdbe
000000b0: 0a08 fdbe a89e 02bd 0740 e4bb 4977 023e
000000c0: 80fa 893d 63f7 01bd cd3b 06bc 6006 0dbd
000000d0: ef39 6b3b 3213 debd 90bf 893c 6cd4 0cbe
000000e0: 88ad 35be ddf1 68bd 9ab4 f1bd ac73 c9bd
000000f0: 53cd a03d 8022 79bc fef1 3fbd be31 693e
00000100: 8af8 243e 8520 fa3c ce62 4f3e d0c0 c53d
00000110: f909 05be 7177 0f3d 5a46 b9bd f684 c9be
00000120: 7322 3fbe e05c 3bbe 7750 50be 9b57 78bd
00000130: 678c a139 2d38 f13c fa49 ef3d 56c1 383e
00000140: 4acd 793e 61f5 013d 010b ba3d c346 743d
00000150: 4f8d 193d 2b0a c6ba df48 dfbd 910b 1d3e
00000160: b563 c5bd b82e 7ebe c6be 953c d38f 73bd
00000170: 684b a9be 7c55 113e 6dd7 cdbc 908d 6dbe
00000180: 64f3 a93e 3d24 283e 9a92 65bc 1154 8cbe
00000190: fea0 35be 1a39 4dbe 084b c5bc c228 943d
000001a0: 2c5a 4e3d d387 653e 7a67 823e fde9 2d3e
000001b0: 9a3b 93bc 794f 03be 7a4c 983d d3b6 0bbe
000001c0: 2592 93be 324d 41bc ad69 b3bd 437c 9fbd
000001d0: b4a1 393e 67c2 91bd 91de f43d c106 223e
000001e0: f674 aabd 59ac cd3d 06e8 073e 497f 25be
000001f0: 174b 87bd 2cd3 173e f01a 10be 4f4c babd
00000200: 4ac6 33be 83d3 babc aa06 043d adfc cbbd
00000210: e135 073e 36aa c13c d095 af3d 9a7d 323c
00000220: 3523 26bc 2da5 41bd 6f73 c33c d2b6 24be
00000230: 3285 afbe 7684 3e3e ff5d 16be aa85 d5be
00000240: 86b4 2d3d 4809 e83d ae66 393e ff8c f83d
00000250: 5b77 1ebc e616 023d 7bb7 12bd 354a 28be
00000260: 6763 54be ee6f 11be f133 813c bd2f 953e
00000270: 4e01 1ebe 9b6c 00bd 7f02 423e 9762 e73d
00000280: f009 37bd 8b98 88bd bcd6 dfbd ba29 bdbe
00000290: 2c49 7ebe 9a25 083c e7d8 4bbe 2056 d53c
000002a0: d506 573e 28ce c13d 4785 c13d bae2 03be
000002b0: 0433 43be accb aabd 6827 0dbe 26f0 54be
000002c0: dffb 99bd b668 5fbe 678b 41be b832 62bd
000002d0: 80cd f1bd 8eb3 48be 6a88 16be 0923 ffbd
000002e0: 8e68 e8bd 11a9 54be 0e97 fc3c 9b97 993d
000002f0: 345b 62bd e344 5f3e eaac 0d3e a9cb 4a3e
00000300: 112f 793d 2b40 73bd cb55 99ba 625e f7bd
00000310: d159 a3bd 0bc9 d4bd abd6 afbd 77c9 afbe
00000320: b19f 69be 5e1c be3d 1487 1abc 2164 ea3d
00000330: fad1 ee3d 8fd8 b83d 181b 143e f2ea 21bd
00000340: 6c12 533e 3442 6d3e 2280 373d 71cc 963d
00000350: a20c d23d 2fd1 6c3c d4eb e0bc d55e 09be
00000360: 62ec 5a3e 74b0 1d3e 835e 223c 164d 5a3e
00000370: c750 813e 48d1 c43d c327 1e3e 9fbe 823e
00000380: ce24 ce3c f218 af3d 046b 7fbd 39e3 a7bd
00000390: 5322 f93d 1db0 cc3d 761e 423d 9389 38bd
000003a0: 1b7e 3a3d 21ff d33d 28fa 1abe 368b 89bc
000003b0: 13a3 2ebe c69c 1dbe 42a1 d23d 8218 c33d
000003c0: a6de 223d 34b2 4a3e 2848 333e e3bf 4ebe
000003d0: 7e22 88be 2985 a7be 6580 203d d6c8 ba3d
000003e0: 4d06 433b ff72 7e3e 84c9 8b3e 4ce3 cc3d
000003f0: 6537 853d 3da6 eabd 8e91 ccbd a958 21bc
-0.023955833 -0.13192718 -0.22129975 0.20104052 0.09875416 -0.1758151 0.27519712 0.14229934
-0.15760121 0.18543628 0.13605414 0.00017631138 0.17359714 0.0850666 0.030839026 0.07500491
-0.0025155582 0.004972554 0.009975501 -0.048767928 -0.13062151 -0.0041599087 -0.10516088 -0.1677231
0.092951566 -0.13954301 -0.128981 0.14261337 0.13753614 0.08105768 0.021863414 0.04598377
-0.038115494 0.015681745 0.040083572 -0.21929102 0.04485141 -0.033065815 -0.10197643 -0.015926762
-0.35810897 -0.43744683 0.01980083 -0.3701226 -0.49420196 -0.031889588 -0.0069656405 0.12740816
0.06737232 -0.031730067 -0.008192969 -0.034429908 0.0035892685 -0.10843505 0.016814977 -0.13752908
-0.17741978 -0.056871284 -0.11802025 -0.09836516 0.078516625 -0.015205979 -0.04686164 0.22772881
0.16110435 0.030533085 0.20252535 0.09655917 -0.12992086 0.035026018 -0.090466216 -0.39359254
-0.18665485 -0.18297148 -0.20343195 -0.060630422 0.0003081292 0.029445732 0.11684032 0.18042502
0.24394718 0.031728152 0.0908413 0.059637796 0.037488278 -0.0015109231 -0.10902571 0.15336443
-0.09638158 -0.2482251 0.018279444 -0.059463333 -0.33065343 0.14192766 -0.025127137 -0.23198533
0.33193505 0.16420074 -0.014012003 -0.27407888 -0.17737195 -0.20041314 -0.02408363 0.072343364
0.050378963 0.22415094 0.2546957 0.1698379 -0.017972756 -0.12823285 0.07436462 -0.1364396
-0.28822437 -0.01179819 -0.087603904 -0.07787373 0.18128091 -0.071171574 0.11956514 0.15822889
-0.0832309 0.10042638 0.13272104 -0.16161837 -0.06606119 0.1482665 -0.14072776 -0.09096586
-0.1755611 -0.022805935 0.032232918 -0.099603035 0.13204147 0.023640733 0.08573496 0.010894204
-0.01014023 -0.047276665 0.023858754 -0.16085365 -0.34281307 0.18605217 -0.14684294 -0.4170354
0.04240849 0.11329895 0.18105575 0.12136268 -0.009672011 0.03176012 -0.03581951 -0.16434558
-0.20741044 -0.14202854 0.015771838 0.29137984 -0.15430185 -0.031353574 0.18946265 0.112981014
-0.04468721 -0.0666972 -0.10929629 -0.36945897 -0.248326 0.008309746 -0.1990696 0.026042044
0.209987 0.09463149 0.09449249 -0.12879458 -0.1906243 -0.083396286 -0.13784564 -0.20794734
-0.07518744 -0.21817288 -0.18900834 -0.05522415 -0.11806774 -0.19599745 -0.14700475 -0.12457854
-0.11348067 -0.20767619 0.030833747 0.074996196 -0.05526276 0.21803622 0.13835493 0.19804253
0.0608359 -0.059387367 -0.0011698542 -0.12078549 -0.079761155 -0.103899084 -0.085858665 -0.34333393
-0.22814824 0.09282754 -0.009431619 0.11444879 0.116611436 0.0902568 0.1446346 -0.039530702
0.20612496 0.23169786 0.04479993 0.07363213 0.10256316 0.01445417 -0.027456202 -0.13415082
0.21379235 0.15399343 0.009910229 0.21318468 0.2525694 0.0961023 0.15444855 0.25536057
0.025164034 0.0854968 -0.062357917 -0.08197636 0.1216475 0.099945284 0.04739233 -0.045053076
0.04553042 0.10351396 -0.1513449 -0.016790014 -0.17054395 -0.15391836 0.10284664 0.09526159
0.039763115 0.19794542 0.17507994 -0.20190386 -0.26588815 -0.3271878 0.039184947 0.09120338
0.0029758394 0.24848555 0.27302182 0.10004291 0.06504706 -0.11457489 -0.099887 -0.009847798

bias f4 [32]
00000000: 7019 ee3d 8898 cabd e08f 8a3d 4041 d4bd
00000010: 6f9d 8bbb 365a 9f3d 3e9a 513e 0a76 153e
00000020: 441f 1cbe dac5 2d3e ad91 1e3e 5282 613e
00000030: 4dd1 183c 0920 7a3e b96c a13d 7029 fb3d
00000040: bf63 973d 0e3a 023d 5406 dbbd 53d8 e33d
00000050: 04fd 4e3c b2f0 213e b2e1 623e 3ef9 0f3e
00000060: df8b 843c 70f7 cd3d e934 d13c 5f98 2f3e
00000070: 912e acbd adb9 8a3d a32a af3e 51e9 5c3e
0.116259456 -0.09892374 0.06765723 -0.10364008 -0.004260711 0.07780878 0.20468995 0.1459581
-0.15246302 0.16970006 0.15485258 0.2202237 0.009327245 0.24426283 0.07882065 0.12263763
0.07392072 0.031793647 -0.10694566 0.11125245 0.012633566 0.15814474 0.22156408 0.14059922
0.016179977 0.100569606 0.025537925 0.17147969 -0.08407319 0.06773696 0.34212217 0.21573378

weight f4 [32]
00000000: a9f3 0c3f 0bbb d93e d3df e43e d2b5 c93e
00000010: 6fe1 ef3e 4b0c 2c3f 6b8a 193f cd39 ec3e
00000020: 7893 263f eee8 fe3e 9c9d f73e efe1 d13e
00000030: 4f2b 033f 2208 283f 5d65 393f ecf9 d63e
00000040: 99c3 e53e 053c 053f 8738 e73e d5f3 e43e
00000050: 8001 023f 6ca3 e73e a021 0b3f 7650 e83e
00000060: c9f5 093f dea7 0b3f a936 013f d6d1 2a3f
00000070: f487 053f 1a49 f83e 12c5 033f 3ba7 013f
0.55059296 0.42525515 0.44702014 0.3939653 0.4685168 0.6720626 0.59976834 0.46137848
0.6506877 0.49787086 0.48362434 0.40992686 0.5123796 0.6563741 0.72420293 0.4198755
0.44875792 0.5204471 0.45160314 0.4471728 0.5078354 0.45241868 0.5434818 0.45373887
0.53890663 0.5455302 0.5047403 0.66726434 0.52160573 0.48493272 0.5147258 0.506458

bias f4 [32]
00000000: 3c44 89be 519a abbe 6086 b8be b106 78be
00000010: d2ec 78be cb5a c9be 9820 acbe cf73 9fbe
00000020: dbc6 96be b843 bdbe 02bb 95be 12d0 86be
00000030: 529d 8ebe cf3c ccbe 7ec0 dabe 4254 80be
00000040: 21e2 8cbe c1ad 8fbe 0f8f 8cbe 5f7a 74be
00000050: 3af6 dabe e7ae 96be 19a4 d2be c847 84be
00000060: 6e9b 96be 9174 a2be d9a8 aabe 8137 cebe
00000070: 06a2 adbe 1c7f 98be 7b2c b6be 0c8d b1be
-0.2680987 -0.33516172 -0.3604002 -0.24221303 -0.2430909 -0.39327082 -0.33618617 -0.31143042
-0.2944859 -0.36965728 -0.29244238 -0.2633062 -0.278544 -0.39890143 -0.42724985 -0.25064284
-0.27516273 -0.2806225 -0.27452895 -0.23874806 -0.4276598 -0.29430315 -0.41140822 -0.25836015
-0.29415458 -0.31729558 -0.33331946 -0.4027672 -0.33912677 -0.29784477 -0.3558081 -0.34677923

running_mean f4 [32]
00000000: 6a44 36bf 90e6 88be 528d 37be 6d0c 1fbd
00000010: 61ed 12bf 6a20 70bd a5a9 bbbd 5f10 17bf
00000020: ff3e c7bd b51d 33bf 3fab e2be fbb3 8c3e
00000030: ac56 dcbe 39ac 323d cf19 2a3c 03cf 8bbf
00000040: 7ba3 debd 20db b0be ea11 49bf 64a8 2dbf
00000050: f374 26bf ae30 64bf 2267 613e 06b2 793f
00000060: 97fa 55bf c8fd 0cbf a0ea 83be a5c7 48be
00000070: 155e b1be 2033 8b3c c793 b2be c899 9abe
-0.7119814 -0.26738405 -0.17925003 -0.03883021 -0.5739346 -0.058624662 -0.091632165 -0.59009355
-0.097288124 -0.69967204 -0.44271275 0.27481064 -0.43034875 0.043621276 0.01038213 -1.092255
-0.10871025 -0.3454218 -0.7854296 -0.6783507 -0.650222 -0.8913678 0.22011998 0.9753727
-0.83585495 -0.5507474 -0.25764942 -0.19607408 -0.3464209 0.016992152 -0.3487837 -0.3019545

running_var f4 [32]
00000000: 344f e33e ec0a 833e e32a 953e 560b c43e
00000010: 6813 183f 9522 d53e 3352 d83e 2ae3 ab3e
00000020: dc4f c63e ff7b 623e e81c 983e 3143 d93e
00000030: af8b b63e 32e8 8b3e ec88 b73e da16 d43e
00000040: de3f 523e ba38 a73e 12f4 ce3e 567e c53e
00000050: 2907 a53e 14fe f13e 8acd ca3e f8f8 243f
00000060: 3d83 de3e 5fed cd3e 8699 be3e f1c5 883e
00000070: 777a a13e cb97 c23e 70c2 b63e 8b21 993e
0.44396365 0.2559427 0.29134282 0.382899 0.5940461 0.41627946 0.42250213 0.3357175
0.38732803 0.22117613 0.29709554 0.42434075 0.35653445 0.27325588 0.3584665 0.41423684
0.20532176 0.32660466 0.40420586 0.3857295 0.32232025 0.4726416 0.3960994 0.64442396
0.43459502 0.40220162 0.37226504 0.26713517 0.31538746 0.38006434 0.3569522 0.29908404

weight f4 [32]
00000000: 1138 883e fe19 f83d ca60 e93d 658d 3c3e
00000010: 5519 8a3e 151d 493e 1223 5c3e 15f7 0b3e
00000020: 0bf7 943e 2d14 f03d 018d 423e 9671 403e
00000030: dcae 6e3e 8b00 473e c966 483e 2f5c 433e
00000040: 8667 363e f67b 6b3e d580 343e 3fdd 653e
00000050: d9dd bd3d 9e08 353e 8617 e13d 131f 3a3e
00000060: 7c05 673e 4b35 343e 1797 283e e225 373e
00000070: a0ae 2c3e 75b8 473e ee67 0c3e 6024 143e
0.26605275 0.121143326 0.11395414 0.18413313 0.26972452 0.1964 0.21497753 0.13668473
0.2909473 0.11722598 0.18999101 0.1879333 0.23308891 0.19433801 0.1957046 0.19078134
0.17812929 0.22996506 0.1762727 0.2244768 0.0927083 0.17679068 0.10990815 0.18175916
0.22560686 0.17598455 0.16463886 0.17885545 0.16863489 0.19503959 0.13711521 0.14467001
