src/app/epic7/assert/hero_avatar.pt (torch, 153207 bytes, 9 tensors)

cls_w f4 [196, 64]
0	0x3e116f45	0.14202602
1	0xbe90452c	-0.28177774
2	0x3fa7c451	1.3106786
3	0xbd6b4250	-0.057436287
4	0xbe297a8c	-0.16550654
5	0xbf6c3a18	-0.92276144
6	0xbea86e79	-0.32896784
7	0x3f7ac746	0.9796032
8	0x3e5899a9	0.21152367
9	0xbf692ba1	-0.910822
10	0x3df54d41	0.11977626
11	0x3cc5f108	0.024162784
12	0xbe4d34c9	-0.20039667
13	0xbf602eb6	-0.87571275
14	0xbff95e1c	-1.9481845
15	0xbd551ca4	-0.052029267
16	0x3f312daf	0.6921033
17	0xbf40f4e2	-0.7537366
18	0xbeedc7b2	-0.46441418
19	0xbeedf804	-0.46478283
20	0x3e0c20fb	0.13684456
21	0xbed67fd0	-0.41894388
22	0xbfa8147f	-1.3131255
23	0xbed61cd9	-0.41818884
24	0xbfb347a7	-1.4006242
25	0x3f9d7fbb	1.2304605
26	0x3fc854bc	1.5650859
27	0x3f4165f6	0.75546205
28	0xbf22010d	-0.63282853
29	0x3ffd357c	1.9781947
30	0x3f197dc8	0.5995755
31	0x3f1e8581	0.6192246
32	0xbf08eb47	-0.53484005
33	0xbe76e25f	-0.24109791
34	0xbf86c4ea	-1.0528843
35	0x4014f028	2.327158
36	0x3d745af0	0.059657037
37	0x4005dbda	2.0915437
38	0xbe5012f9	-0.20319737
39	0x3ee80bbf	0.45321462
40	0xbfb13869	-1.384534
41	0xbeeedb6d	-0.46651784
42	0xbc15b9eb	-0.009138565
43	0xbd8923be	-0.066962704
44	0x3fc2c1e7	1.5215424
45	0x3fcbe7f4	1.5930161
46	0xbe9ecf19	-0.31017378
47	0xbe368a6b	-0.1782624
48	0x3e671985	0.22568329
49	0xbeb87728	-0.3602841
50	0x3fc79feb	1.5595678
51	0xbf5c9c54	-0.8617604
52	0xbeb505e9	-0.35356072
53	0x3e5bffbe	0.21484277
54	0x3f0c04ae	0.5469464
55	0xbe1dc483	-0.15406995
56	0xbe4288e9	-0.1899754
57	0xbe225607	-0.1585313
58	0x3fb2c96e	1.3967721
59	0x3f84c5a0	1.037281
60	0xbf9ac215	-1.2090479
61	0xbf07e46f	-0.53082937
62	0xbfb002e0	-1.3750877
63	0x3f4df81f	0.8045673
64	0x3f69142f	0.9104642
65	0x3f740fe4	0.9533675
66	0xbf08035a	-0.53130114
67	0xbf45ee92	-0.77317154
68	0x3fc8ae83	1.5678257
69	0x3f041741	0.5159798
70	0x3f5f8100	0.87306213
71	0xbe5e2f58	-0.21697748
72	0xbf8ec7f2	-1.1154768
73	0xbf02d61b	-0.5110795
74	0x3f7918c4	0.97303414
75	0xbe907508	-0.28214288
76	0x3f0f6897	0.56018966
77	0xbf05f9ab	-0.5233409
78	0xbf13801a	-0.5761734
79	0x3f6adb4c	0.9174087
80	0x3b8ad1ee	0.0042364514
81	0x3f03291e	0.51234615
82	0x3edbfd16	0.42966527
83	0xbf23a857	-0.6392874
84	0x3dc005de	0.09376119
85	0x3f9d31eb	1.2280859
86	0x3d3d2697	0.04617938
87	0xbec37c05	-0.38180557
88	0x3f27bffb	0.65527314
89	0x3f72586c	0.9466617
90	0xbf83d84a	-1.0300381
91	0x3eb1e025	0.3474132
92	0xbe7c23fc	-0.24623102
93	0xc00a5b8d	-2.1618378
94	0xbe6063ee	-0.2191312
95	0xbf7949ae	-0.9737805
96	0x3f831738	1.0241461
97	0xbeb6922e	-0.356584
98	0xbf756799	-0.958612
99	0xbfa1c9dc	-1.2639728
100	0xbf7745c4	-0.9659083
101	0x3ed22ae5	0.4104835
102	0xbfa5cad8	-1.2952528
103	0xbf42ce13	-0.76095694
104	0xbf17f3cf	-0.593564
105	0xbe311399	-0.17292632
106	0x3ef39a05	0.47578445
107	0x3ec581ad	0.38575497
108	0xbe799014	-0.24371368
109	0xbfd35904	-1.651154
110	0xbf1de45f	-0.6167659
111	0xbef91360	-0.48647594
112	0xbed2857e	-0.4111747
113	0xbf820923	-1.0159038
114	0xbe7bd6b7	-0.24593626
115	0x3ded7094	0.11593738
116	0xbe0f34ee	-0.13985035
117	0xbf05bd51	-0.52242
118	0x3e2873e8	0.16450465
119	0x3e9104bd	0.28323928
120	0xbe8168bc	-0.25275218
121	0xbe52aeb5	-0.20574458
122	0xbef7af68	-0.48376012
123	0x3f8efabe	1.117027
124	0x3f0ba914	0.5455487
125	0x3e6b4276	0.22974572
126	0x3f4901d3	0.7851841
127	0x3fdb569a	1.7135804
128	0x3cdf901e	0.0272904
129	0x3f1bd8c4	0.60877633
130	0xbf841d66	-1.0321472
131	0x3f50e117	0.8159346
132	0xbeec5c2b	-0.4616407
133	0x3f9aa7a9	1.2082416
134	0xbfcf40c6	-1.6191642
135	0xbe734ed9	-0.23760547
136	0xbecd8358	-0.4013927
137	0x3f58a35a	0.84624255
138	0x3fd6c666	1.6779296
139	0x3f1bea1b	0.6090409
140	0x3fb52a37	1.4153508
141	0xbe2955c9	-0.1653663
142	0xbf3f6673	-0.747657
143	0x3f4fcae2	0.8116895
144	0x3dab4b78	0.08364004
145	0x3e99627a	0.29957944
146	0xbf2cfb4d	-0.67570955
147	0xbfa28109	-1.2695628
148	0x3f97a004	1.1845708
149	0x3f00c3f1	0.5029898
150	0xbf7338b3	-0.9500839
151	0xbf888a11	-1.0667135
152	0xbf45903a	-0.771732
153	0xc009cfe0	-2.1533127
154	0xbf185875	-0.59509975
155	0x3f9bbbfa	1.2166741
156	0x3fabbda4	1.3417249
157	0xbf2cbd76	-0.67476594
158	0xbf27adea	-0.65499747
159	0x400da0fb	2.2129505
160	0xbe7ea6b9	-0.24868287
161	0x3f993587	1.196946
162	0x3eeadb5c	0.45870483
163	0xbe9d4490	-0.30716372
164	0x3fb7d749	1.4362575
165	0x3e6a9056	0.22906622
166	0xbf060d85	-0.5236438
167	0xbf85afa6	-1.0444229
168	0x3fb61d99	1.4227782
169	0x3f797d62	0.97456944
170	0x3f223a57	0.6337027
171	0x3e4f1b44	0.20225245
172	0xbe9d8ccf	-0.3077149
173	0x3fa2750f	1.2691973
174	0x3fbc518c	1.4712386
175	0xbf855cb0	-1.0418911
176	0x3d6aa977	0.05729052
177	0xbeeeeaf6	-0.46663636
178	0xbfe355e8	-1.7760592
179	0x3f97c80f	1.1857928
180	0x3f955786	1.1667335
181	0xbff21d07	-1.8915108
182	0x3f503f03	0.8134615
183	0xbd926c7a	-0.071495965
184	0x3ea8c05d	0.32959262
185	0x4001f45b	2.0305393
186	0xbcfa91cc	-0.0305871
187	0x3f9a577c	1.2057948
188	0x3ed504a5	0.41605106
189	0x3f9af8f4	1.2107224
190	0xbed7760b	-0.42082247
191	0x3f175b71	0.59123904
192	0x3ebac739	0.3648012
193	0xbf3486fe	-0.7051848
194	0xbf3d6cbe	-0.7399405
195	0xbf886e78	-1.0658712
196	0x3ff87d91	1.941332
197	0x3f90d71a	1.1315644
198	0x3f2f31a4	0.6843512
199	0x3f2fcef9	0.6867519
200	0x3f26ffc0	0.65233994
201	0xbed223b0	-0.41042852
202	0x3ea032f5	0.31288877
203	0xbe92f8d7	-0.28705475
204	0x3f16f3c4	0.58965707
205	0xbee2ed2c	-0.44321573
206	0x3ed134ca	0.40860587
207	0xbf721e67	-0.9457764
208	0x3f96c3a3	1.1778454
209	0x3f709932	0.9398376
210	0x3e874d00	0.26425934
211	0xbf2bfa58	-0.6717887
212	0xbf602374	-0.875541
213	0x3f222975	0.6334451
214	0xbdc41e43	-0.095760845
215	0x3f3ac618	0.7295852
216	0x3f7daa9e	0.99088466
217	0x3e72b36e	0.2370126
218	0xbf2a7655	-0.6658681
219	0x3f13d0c2	0.57740414
220	0x3e8f137f	0.27944562
221	0xbf641cc9	-0.8910642
222	0x3f93b537	1.1539677
223	0xbfeb655e	-1.839031
224	0xbf4775b9	-0.77914006
225	0xbf912a01	-1.1340944
226	0x3e276f43	0.16351037
227	0xbfb4ad91	-1.4115468
228	0x3f3cfd38	0.7382388
229	0xbeefa256	-0.4680354
230	0xbf60e992	-0.878564
231	0x3e6eec44	0.23332316
232	0x3fe234b0	1.7672329
233	0x3e5e2a08	0.21695721
234	0x3fc2566e	1.5182626
235	0x3f1243f1	0.5713492
236	0xbde2be04	-0.11071399
237	0xbfb65abf	-1.4246444
238	0xc0153378	-2.3312664
239	0x3e96bec9	0.29442433
240	0x3f363286	0.7117084
241	0xbf891806	-1.0710456
242	0x3e57eeaf	0.21087144
243	0x3f9fd6ba	1.2487404
244	0x3ee925a1	0.4553652
245	0xbe86b660	-0.26311016
246	0xbf84fa7c	-1.0388942
247	0xbfbab9c3	-1.458794
248	0x3f543926	0.828997
249	0xbfdcbb02	-1.724457
250	0x3f2063ad	0.62652093
251	0xbd88b35c	-0.06674835
252	0x3ed2c8e7	0.411689
253	0x3efd1480	0.49429703
254	0xbe3772c3	-0.17914872
255	0xbf5ac344	-0.854542

weight f4 [8, 3, 3, 3]
0	0x3e578a00	0.21048737
1	0x3e6777a2	0.2260423
2	0xbb3973f3	-0.002829787
3	0x3e52069d	0.20510335
4	0x3e5c6055	0.21521123
5	0xbce2b953	-0.02767626
6	0x3d5c4a5c	0.053781852
7	0x3e341b08	0.17588437
8	0x3db4bca6	0.08825044
9	0xbe2f8d17	-0.17143665
10	0xbe64a18c	-0.2232725
11	0xbc608815	-0.0137043195
12	0xbe2d92b2	-0.16950491
13	0xbdaf7525	-0.085672654
14	0xbe38a51b	-0.18031733
15	0xbdf21442	-0.1182027
16	0xbe1f5a66	-0.15561828
17	0xbe22a0f5	-0.15881713
18	0xbdd245f4	-0.10267249
19	0xbde525c2	-0.11188842
20	0xbd92ec78	-0.07174009
21	0xbcafed61	-0.021475496
22	0xbcb8f87a	-0.02257942
23	0x3d61f6c7	0.055166986
24	0x3e1661ec	0.14685792
25	0xbc80ff77	-0.015746815
26	0x3c8807fa	0.016605366
27	0xbbb26927	-0.005444664
28	0xbd8e4241	-0.06946231
29	0xbe23232d	-0.15931387
30	0xbdc5e1fa	-0.09662242
31	0xbe20bb40	-0.1569643
32	0x3d706bd0	0.058696568
33	0xbdbb3c74	-0.0914239
34	0xbdd1e5c0	-0.102488995
35	0xbd90e64b	-0.07075175
36	0x3d780bf6	0.06055828
37	0x3d510384	0.051028743
38	0x3d9ead1b	0.07747861
39	0x3e278972	0.16361025
40	0x3e01fb4d	0.1269352
41	0x3d6079fc	0.054803833
42	0x3d992978	0.07478613
43	0xbb3e77d1	-0.0029063115
44	0x3e85e773	0.26153144
45	0x3d98fa2e	0.07469593
46	0xbe7bbbcf	-0.24583362
47	0x3daa7106	0.08322339
48	0xbe13ed0c	-0.14445895
49	0xbe221dbc	-0.15831655
50	0x3e1a7033	0.15081863
51	0xbe2fd1ae	-0.1716983
52	0xbe0199cc	-0.12656325
53	0xbd557dd0	-0.052121937
54	0x3dc9e00d	0.098571874
55	0xbdd2585d	-0.1027076
56	0xbdbe7f28	-0.09301597
57	0xbdee46ee	-0.116346225
58	0xbdc8a557	-0.09797161
59	0xbd81cdd5	-0.063380875
60	0x3e138f45	0.14410122
61	0xbe1770e7	-0.14789163
62	0xbe015e95	-0.12633736
63	0xbe1a19e1	-0.15048935
64	0xbd1614a2	-0.03664077
65	0x3dae84c0	0.08521414
66	0xbcf1f24d	-0.029534483
67	0x3d856713	0.065138005
68	0xbddbb98c	-0.1072875
69	0xbd394d19	-0.04523954
70	0x3e4df713	0.20113783
71	0xbdd405ed	-0.10352693
72	0xbcfbaa21	-0.030720772
73	0xbd8b929f	-0.06815075
74	0xbc396158	-0.011314712
75	0x3e5ec5e9	0.21755184
76	0xbd692513	-0.056920122
77	0xbdf92867	-0.12165909
78	0x3e8c3cb8	0.27390075
79	0xbdc1b4ad	-0.09458289
80	0xbda375e6	-0.07981472
81	0xbe02b580	-0.1276455
82	0x3c61982d	0.013769192
83	0xbe9be242	-0.3044606
84	0xbd8dff48	-0.06933457
85	0x3e9cab7f	0.3059959
86	0xbea73e55	-0.32664743
87	0xbdd7a198	-0.105288684
88	0x3e3764d5	0.17909558
89	0xbe386cad	-0.18010207
90	0x3e478261	0.1948333
91	0x3e988ac5	0.29793373
92	0xbcd963cb	-0.026536843
93	0x3dc3676c	0.095412105
94	0x3e4ee1ac	0.20203274
95	0x3ccf900b	0.02533724
96	0x3d230864	0.039802924
97	0x3e6d5279	0.23175992
98	0xbe110784	-0.14163023
99	0xbe1fd5a2	-0.15608838
100	0x3da08486	0.07837777
101	0x3cde23e6	0.027116727
102	0xbdb532a4	-0.088475496
103	0x3dea4b78	0.11440176
104	0xbdcb7868	-0.09935075
105	0xbdc25df7	-0.094905786
106	0xbc89f6e5	-0.016841361
107	0xbdac1793	-0.08402934
108	0xbd7acc63	-0.061230075
109	0x3de1c712	0.11024298
110	0x3d65fbc3	0.0561483
111	0xbdc20ae3	-0.09474733
112	0xbd91550c	-0.070962995
113	0xbc511b72	-0.012762891
114	0xbe3e4826	-0.1858221
115	0xbda26a49	-0.079304285
116	0x3e0fbd71	0.1403711
117	0x3c857ea0	0.016295731
118	0xbdb90ad9	-0.09035272
119	0xbe5b815c	-0.21436065
120	0xbe37a357	-0.17933403
121	0xbe5c38e6	-0.2150608
122	0xbc8904e1	-0.01672596
123	0xbe23148d	-0.15925808
124	0xbe3d93aa	-0.1851336
125	0xbe3307e4	-0.17483479
126	0x3d69dd7a	0.057095982
127	0x3d24262b	0.040075462
128	0x3c2b1cdc	0.010443892
129	0x3e490108	0.196293
130	0x3e1504e5	0.14552648
131	0x3e509ab7	0.20371519
132	0x3e4577df	0.19284008
133	0x3e817223	0.25282392
134	0x3d3ed64c	0.04659109
135	0xbe80eb6a	-0.25179607
136	0xbd291e85	-0.04128887
137	0x3de8c41c	0.1136553
138	0xbe134b82	-0.14384273
139	0x3cd0a167	0.025467588
140	0x3de5a76a	0.11213572
141	0xbe18b6ad	-0.14913435
142	0xbe009bcb	-0.1255943
143	0x3e19802b	0.14990298
144	0x3e9550fc	0.2916335
145	0x3ea4533b	0.3209475
146	0x3e1f94ee	0.15584156
147	0x3df01733	0.11723175
148	0x3e0efa3a	0.13962641
149	0xbc95b2cb	-0.018273732
150	0x3d82d995	0.06389157
151	0x3d65ce86	0.05610516
152	0x3d097a81	0.033564094
153	0xbcbddf95	-0.023177901
154	0xbe5f4111	-0.21802165
155	0xbe71365e	-0.23555896
156	0x3d353448	0.044239312
157	0xbe4662e7	-0.19373666
158	0xbe25b3a1	-0.16181804
159	0x3dea34ca	0.1143585
160	0x3c15f816	0.009153387
161	0xbe575d8a	-0.21031776
162	0xbe363850	-0.17794919
163	0xbeac4a06	-0.33650225
164	0x3d6b5b90	0.057460368
165	0xbd75497f	-0.059884544
166	0xbda6bcdf	-0.08141493
167	0xbd5f7a19	-0.0545598
168	0xbe11e554	-0.14247638
169	0xbd9267a2	-0.07148673
170	0x3d5396f1	0.05165762
171	0x3e529660	0.20565176
172	0xbe4b5f48	-0.19860566
173	0xbe233a44	-0.15940195
174	0x3dd4c319	0.103887744
175	0xbddcb508	-0.107767165
176	0xbe504b8a	-0.20341316
177	0x3e5affea	0.21386686
178	0xbe161269	-0.1465546
179	0xbe16efbc	-0.14739889
180	0xbca47d77	-0.020079358
181	0x3e9e0907	0.30866262
182	0xb9f3d144	-0.00046504487
183	0x3e2208e6	0.15823707
184	0x3e687735	0.22701724
185	0x3dd6e2bc	0.10492465
186	0x3e6bb097	0.23016582
187	0x3d865b48	0.06560379
188	0x3d7e829f	0.06213629
189	0xbe6c330f	-0.23066352
190	0x3c853eee	0.016265359
191	0x3c276590	0.0102170855
192	0xbd9985e3	-0.0749624
193	0x3db25789	0.08708102
194	0x3d61ae83	0.055098068
195	0xbdd9b830	-0.10630834
196	0xbbc10087	-0.0058899554
197	0x3cec9e25	0.028884003
198	0xbe07672f	-0.13222955
199	0x3b140968	0.0022588614
200	0x3e056fec	0.13030976
201	0xbe861200	-0.26185608
202	0x3e0d1c5d	0.13780351
203	0xbe0d646f	-0.13807844
204	0xbe4c3f3b	-0.19945996
205	0x3e2a3073	0.16620044
206	0x3df7a6fa	0.12092395
207	0xbe111adf	-0.14170407
208	0xbcb12174	-0.021622397
209	0xbc40ea77	-0.011774651
210	0xbe386898	-0.1800865
211	0x3e4cb11f	0.19989441
212	0x3c86a403	0.016435629
213	0x3e0f860c	0.14015979
214	0x3e942b86	0.28939456
215	0xbd691786	-0.0569072

bias f4 [8]
0	0x3de3e1ce	0.11127053
1	0x3e5ae6ff	0.2137718
2	0x3e8b664e	0.2722649
3	0x3cd7758c	0.026301168
4	0x3d569883	0.05239154
5	0x3d58f870	0.052971303
6	0x3c877807	0.016536726
7	0x3d067ea6	0.032835625

weight f4 [16, 8, 3, 3]
0	0x3af847b9	0.0018942273
1	0x3e35aa3b	0.17740719
2	0x3c95ab62	0.018270198
3	0x3e239586	0.15975007
4	0x3d2acd22	0.041699536
5	0xbe4e28e6	-0.20132789
6	0x3cb83393	0.02248553
7	0x3e77499b	0.24149172
8	0x3c2d01ba	0.010559494
9	0xbd06e395	-0.032931883
10	0xbe21a571	-0.15785767
11	0xbe095468	-0.13411105
12	0xbd861012	-0.06546034
13	0xbdbf7793	-0.09348979
14	0x3bf7f9dc	0.0075676274
15	0xbdd18332	-0.10230102
16	0xbd8ab7b4	-0.0677332
17	0xbde063ee	-0.1095656
18	0xbe03243d	-0.12806793
19	0xbcb6d9c1	-0.02232063
20	0x3c71985a	0.014745796
21	0xbcd1c6cb	-0.025607487
22	0xbc893a09	-0.016751306
23	0x3cd5c091	0.0260928
24	0x3b98bd14	0.0046612117
25	0xbcef7409	-0.029230135
26	0xbd2e3176	-0.04252764
27	0x3df745cb	0.12073859
28	0xbd94ad1e	-0.07259582
29	0x3e6d844c	0.23194999
30	0x3e2ff946	0.17184934
31	0xbeb32fc2	-0.34997374
32	0x3ee97183	0.45594415
33	0x3e2cc12b	0.16870563
34	0xbeafbd90	-0.34324312
35	0x3e616aec	0.22013444
36	0x3db02da2	0.08602454
37	0xbdc6af3e	-0.097013935
38	0xbd3c20db	-0.04592977
39	0xbca9b34c	-0.020715378
40	0xbbc3402e	-0.0059585785
41	0xbe8117f6	-0.25213593
42	0x3e0acc74	0.13554555
43	0xbc5fe69d	-0.013665822
44	0xbe5844cd	-0.21119995
45	0xbdeea370	-0.11652267
46	0xbe2a999f	-0.16660164
47	0x3e281c76	0.16417107
48	0xbba8f647	-0.0051563117
49	0xbb73d12a	-0.003720353
50	0x3e40903b	0.1880502
51	0xbd8aeea7	-0.067838006
52	0xbdfdfdc1	-0.12401915
53	0x3cc92510	0.024553806
54	0x3e21213c	0.15735334
55	0x3d7fdc50	0.062465966
56	0xbe1d8b88	-0.15385258
57	0x3dc2797c	0.094958276
58	0xbd84b7ec	-0.06480393
59	0x3cba0fc5	0.022712598
60	0x3bd58ab8	0.0065167807
61	0xbd8b7144	-0.06808713
62	0xbdd9324f	-0.10605299
63	0xbdb378c0	-0.087632656
64	0x3e1f4d39	0.15556802
65	0xbd0c4348	-0.034243852
66	0x3b0f474f	0.0021862572
67	0x3d1d786d	0.038444925
68	0xbe007da3	-0.12547927
69	0x3bf46153	0.007457891
70	0xbc15294c	-0.009104084
71	0x3db3e343	0.08783581
72	0xbe48ded1	-0.19616248
73	0x3e9204b1	0.28519204
74	0x3d90b605	0.070659675
75	0xbe8c2dd8	-0.27378726
76	0xbcbdf947	-0.023190154
77	0x3e262352	0.16224411
78	0xbe428e2d	-0.18999548
79	0xbdd6c81f	-0.10487389
80	0xbdd0a1db	-0.101871215
81	0xbcad9da0	-0.021193326
82	0x3e63bbc2	0.22239593
83	0xbe801d35	-0.25022283
84	0x3dad07b7	0.08448737
85	0xbc82b595	-0.015955726
86	0xbe07c897	-0.13260113
87	0x3e850acc	0.259848
88	0x3e9e32f5	0.30898252
89	0xbca7fc7d	-0.020506138
90	0x3b5dd384	0.0033847997
91	0x3d1889e2	0.03724087
92	0xbdca7922	-0.098863855
93	0x3d9643f7	0.07337182
94	0xbdd7d9ba	-0.10539575
95	0xbd361eec	-0.044463083
96	0x3d7e8e50	0.06214744
97	0xbd8d7d13	-0.06908622
98	0xbe4156d4	-0.18880779
99	0x3ddb11ef	0.1069678
100	0xbdf54bfa	-0.11977382
101	0xbdbfa4ae	-0.09357582
102	0x3e4e5eba	0.20153323
103	0xbe30e7a9	-0.17275871
104	0xbd4324fa	-0.047642685
105	0x3dbf02b1	0.09326685
106	0xbe44d934	-0.19223481
107	0x3d2874db	0.041127067
108	0x3d2a5dbd	0.041593302
109	0xbd9cc6ac	-0.07655081
110	0x3e5d647e	0.21620366
111	0x3dc1e2d2	0.09467091
112	0xbd853dec	-0.06505951
113	0x3e15040c	0.14552325
114	0x3d7d5b40	0.0618546
115	0xbe816a2f	-0.25276324
116	0x3cc8a9ac	0.024494968
117	0x39c7ee4d	0.00038133786
118	0x3c3ff516	0.011716148
119	0xbe06c117	-0.13159595
120	0xbdf239e7	-0.1182745
121	0x3e12dc33	0.14341812
122	0xbe2e5666	-0.17025146
123	0x3db7e96d	0.08980069
124	0x3e88881e	0.2666635
125	0xbe5e75cc	-0.21724623
126	0xbd8f7106	-0.070039794
127	0xbadae9ad	-0.0016701721
128	0x3d5e6c17	0.0543023
129	0xbcce8f5a	-0.02521484
130	0xbd41aaab	-0.047281902
131	0x3e1978ee	0.14987537
132	0xbe160c76	-0.14653191
133	0xbe1f5c00	-0.15562439
134	0x3d07ad6a	0.033124365
135	0x3e32687e	0.17422673
136	0xbe161c62	-0.14659265
137	0x3d889d98	0.066706836
138	0x3e8a3b87	0.2699854
139	0xbe21dcfa	-0.15806952
140	0x3c1189d2	0.008882957
141	0x3e3bb5ea	0.18331113
142	0xbe3a7890	-0.18210053
143	0x3e13650c	0.14394015
144	0x3ea14731	0.31499627
145	0xbe9f262c	-0.3108381
146	0x3dd6b553	0.104838036
147	0x3e53ebf4	0.20695478
148	0xbe0e7ec2	-0.13915542
149	0x3d4e3363	0.050341975
150	0x3e1b32c0	0.15156078
151	0xbe3e78bb	-0.18600743
152	0xbbbcfe91	-0.0057676514
153	0xbd0b6316	-0.034030043
154	0x3e1f4bc5	0.15556248
155	0xbd73aecf	-0.059492882
156	0xbd217ebc	-0.039427504
157	0x3d8a3b0c	0.067495435
158	0xbdca1353	-0.09866967
159	0xbc3b07c4	-0.011415426
160	0xbdb070ef	-0.086152904
161	0xbdb3b1fc	-0.08774182
162	0xbd52cf82	-0.051467426
163	0x3e17aa6c	0.14811105
164	0x3cf06d3d	0.029348964
165	0xbdf559d6	-0.119800255
166	0x3d68eed9	0.056868408
167	0x3d642026	0.05569472
168	0xbd23e914	-0.040017202
169	0xbdf2187d	-0.11821077
170	0xbc25bd83	-0.010115984
171	0x3e8eead5	0.27913538
172	0xbec37e52	-0.38182312
173	0xbdf97aeb	-0.12181648
174	0x3dfc7c0c	0.123283476
175	0xbe03b0b8	-0.12860382
176	0xbdc99f31	-0.098448165
177	0x3de98e9d	0.114041544
178	0xbd72f959	-0.059319828
179	0xbe27ff56	-0.16405997
180	0xbe319d3f	-0.17345141
181	0x3e7f42b0	0.24927783
182	0xbc61c98b	-0.013780962
183	0xbdbdee1d	-0.09273932
184	0x3dd636af	0.10459649
185	0xbcd9c4b0	-0.026583046
186	0xbdd3263b	-0.10310026
187	0x3e1d020c	0.15332812
188	0xbcdf3595	-0.02724723
189	0x3d88e83a	0.06684919
190	0xbdc8649d	-0.097848155
191	0x3dddbb53	0.10826745
192	0x3d8715a7	0.06595927
193	0xbc395ad8	-0.011313163
194	0x3d32cc8b	0.0436521
195	0xbe4fc3e6	-0.20289573
196	0x3c775959	0.015096986
197	0x3e29137b	0.16511337
198	0xbe6ee1ec	-0.2332837
199	0x3de3ecd3	0.11129155
200	0xbc884d58	-0.016638443
201	0x3de2fc23	0.110832475
202	0x3e72fabe	0.23728463
203	0xbd997500	-0.07493019
204	0xbe3d772e	-0.18502495
205	0x3e118d06	0.14213952
206	0x3dd3bd42	0.103388324
207	0xbe974e75	-0.29552045
208	0x3d2a9833	0.041649055
209	0x3c1d9c4c	0.009619784
210	0xbe5ee68b	-0.21767633
211	0x3e20360f	0.15645622
212	0xbe1849f9	-0.14871968
213	0xbd7ab5e7	-0.06120863
214	0x3e38842a	0.18019167
215	0xbdd14c16	-0.1021959
216	0x3ab08159	0.0013466283
217	0xbe6e3afc	-0.23264688
218	0xbe58ff25	-0.2119108
219	0x3d43498b	0.047677558
220	0xbd88eeb7	-0.06686156
221	0xbd4136a1	-0.04717124
222	0xbd4874bd	-0.048939455
223	0xbe7f63d6	-0.24940428
224	0xbe13ffcf	-0.14453052
225	0x3cbcd57c	0.023051016
226	0x3d57d065	0.052688975
227	0xbde475ec	-0.11155304
228	0x3d14be40	0.03631425
229	0xbdcefabd	-0.10106418
230	0x3e104975	0.14090522
231	0xbe45d671	-0.19320084
232	0xbb664564	-0.0035136575
233	0xbdd74421	-0.105110414
234	0xba849ffb	-0.0010118479
235	0x3d6d7d07	0.057980563
236	0xbdd2a24d	-0.10284863
237	0xbd4b85d7	-0.049688186
238	0x3b735af7	0.0037133077
239	0xbcc719c5	-0.02430428
240	0xba92be17	-0.0011195567
241	0x3d1ebca8	0.038754135
242	0xbd14e92c	-0.036355183
243	0x3db9709d	0.090546824
244	0xbd7657dc	-0.060142383
245	0x3deeac0f	0.11653911
246	0x3e377b6a	0.17918172
247	0xbe096dac	-0.13420743
248	0xbdfced17	-0.12349909
249	0x3e2bda31	0.16782452
250	0xbe83a802	-0.25714117
251	0x3cd12695	0.025531093
252	0xbe0a6f4f	-0.13519023
253	0xbd7b0e8e	-0.061293177
254	0x3c818c4d	0.015813971
255	0xbbef33f9	-0.007299897

bias f4 [16]
0	0xbca2cd98	-0.019873425
1	0x3c20cfc2	0.009815158
2	0xba3bb096	-0.0007159797
3	0x3c0b6e1f	0.008510142
4	0x3c9fd798	0.019511983
5	0x390a2eb8	0.0001317811
6	0x3c1d0fc1	0.009586276
7	0xbc552c81	-0.013011099
8	0xbaac07d3	-0.001312489
9	0x3af6808b	0.0018806619
10	0xbbfc4040	-0.007698089
11	0xbb0c7f0c	-0.002143803
12	0xb985e01b	-0.00025534708
13	0x3c88d998	0.01670532
14	0xbb7031b0	-0.003665071
15	0xbca1338b	-0.019677898

weight f4 [32, 16, 3, 3]
0	0x3cac33c7	0.021020783
1	0xbe0766a9	-0.13222755
2	0xbe071a7c	-0.13193697
3	0x3dde6615	0.10859314
4	0xbdcebb5c	-0.1009433
5	0xbcb6c48f	-0.022310523
6	0x3d444ed2	0.04792673
7	0xbdbdf098	-0.09274405
8	0xbde17fc4	-0.110106975
9	0xbded9b85	-0.116019286
10	0xbde9b590	-0.114115834
11	0x3e79d151	0.24396254
12	0xbc16a3d9	-0.009194338
13	0xbd5762fe	-0.05258464
14	0xbbdc1738	-0.006716635
15	0xbca05027	-0.01956947
16	0xbcd2aa16	-0.025715869
17	0x3e0fc461	0.14039756
18	0x3c72be3c	0.014815863
19	0xbde973b5	-0.113990225
20	0x3d05b88b	0.032646697
21	0x3da5ba38	0.08092159
22	0x3d6cac57	0.057781544
23	0x3dcb595e	0.09929155
24	0xbe034c78	-0.1282214
25	0xbd05a622	-0.03262914
26	0x3cc0bdda	0.023528028
27	0xbdeb0761	-0.11476017
28	0x3ce51b79	0.027967202
29	0xbda41098	-0.080109775
30	0x3d75f330	0.060046375
31	0xbd92846e	-0.07154165
32	0xbe09e8e3	-0.13467745
33	0xbda47ff2	-0.08032216
34	0xbe24f5b3	-0.16109352
35	0xbd8dd4ce	-0.06925355
36	0x3df91a77	0.12163251
37	0xbe228888	-0.15872395
38	0xbd8d96a2	-0.069134966
39	0x3e396da0	0.18108225
40	0xbe2472d4	-0.16059428
41	0xbda6f975	-0.08153049
42	0x3e6059d8	0.21909273
43	0xbd6b621d	-0.057466615
44	0xbc32b061	-0.01090631
45	0xbcf40399	-0.029786872
46	0xbd834823	-0.06410243
47	0x3e19fecb	0.15038602
48	0x3c28383f	0.010267316
49	0xbe18a0ff	-0.14905165
50	0x3d69256e	0.05692046
51	0xbd52ac28	-0.051433712
52	0xbe53d0be	-0.20685098
53	0xbd01c8b0	-0.03168553
54	0xbdb1c32f	-0.086798064
55	0x3e4a6caf	0.19768022
56	0x3d56d7f1	0.05245203
57	0xbdd5a55b	-0.1043193
58	0x3df2830c	0.118414015
59	0x3e34059c	0.17580265
60	0xbd8024a1	-0.062569864
61	0xbe149fce	-0.14514086
62	0xbdd8afe8	-0.105804265
63	0x3d659acd	0.056055833
64	0xbe32778f	-0.1742842
65	0x3e5a6ebc	0.21331304
66	0x3e360b56	0.17777762
67	0xbb09a274	-0.002100137
68	0x3c48f1e2	0.012264701
69	0x3d258c5c	0.04041706
70	0xbe019950	-0.1265614
71	0xbddf349b	-0.108987056
72	0xbd631cfa	-0.055447556
73	0x3e04c7e3	0.12966876
74	0xbda7398b	-0.08165272
75	0xbdb1692e	-0.086626396
76	0x3dfa0169	0.122073
77	0xbd92125d	-0.07132409
78	0xbdac016f	-0.08398711
79	0x3e52abd2	0.20573357
80	0x3d1a50ea	0.037674822
81	0x3bef35fa	0.0073001357
82	0x3e62fcb9	0.22166719
83	0xbe7ec666	-0.2488037
84	0x3c8bb5a2	0.017054383
85	0x3e16e885	0.14737137
86	0xbd59246d	-0.053013254
87	0x3c94e8de	0.018177446
88	0x3e2eacea	0.17058149
89	0xbda6c2cc	-0.08142623
90	0xbd958ab1	-0.07301844
91	0xbe986747	-0.29766294
92	0x3dba4b5e	0.090964064
93	0xbdcaf5ab	-0.09910139
94	0xbdf8d598	-0.12150115
95	0x3c0120d9	0.007881367
96	0xbc7bd042	-0.015369477
97	0xbe4bd3bc	-0.19904989
98	0x3bb57276	0.0055373264
99	0xbdca553e	-0.0987954
100	0xbe6a3ba0	-0.22874308
101	0x3e15703c	0.14593595
102	0xbe54c3aa	-0.20777765
103	0xbe0bd47e	-0.13655278
104	0x3e2c54c6	0.16829214
105	0xbd7b5e17	-0.061369028
106	0x3dbfd40c	0.093666166
107	0x3e43bc7a	0.19114867
108	0xbca98374	-0.020692565
109	0x3dae43d6	0.085090324
110	0xbdd9f477	-0.10642331
111	0xbe8adc8e	-0.27121395
112	0x3d153ea7	0.036436703
113	0xbe2a06b5	-0.16604121
114	0xbded80b8	-0.11596817
115	0xbc0fea78	-0.008783929
116	0xbd98c0a6	-0.0745862
117	0xbba454c5	-0.005014988
118	0x3e054134	0.13013154
119	0xbcc7cf5d	-0.02439087
120	0xbc7cc579	-0.0154279405
121	0x3df4d76a	0.119551495
122	0xbd3edca2	-0.04659713
123	0x3dc3d158	0.095614135
124	0xbd39ff8b	-0.04540972
125	0xbd459f42	-0.048247583
126	0x3d9815d7	0.074260406
127	0xbd82143c	-0.06351516
128	0xbe15ceb0	-0.14629626
129	0xbc81b334	-0.015832521
130	0xbe3d64e9	-0.18495525
131	0xbdbd045a	-0.092293456
132	0x3c368834	0.011140872
133	0x3cdec053	0.027191317
134	0xbe301ca3	-0.17198424
135	0xbb4a6e1b	-0.0030888382
136	0x3d87780c	0.06614694
137	0x3d490d4c	0.049084947
138	0x3c6a7f0d	0.014312518
139	0x3d14edc5	0.036359567
140	0xbd9d15b6	-0.07670157
141	0xbda75028	-0.081695855
142	0x3d4da492	0.050205775
143	0xbddc98d1	-0.10771335
144	0x3dbffb2e	0.093740806
145	0x3d743c5c	0.059627876
146	0xbe399293	-0.1812232
147	0x3e14a29a	0.14515153
148	0x3ccd8e8a	0.025092382
149	0xbd99eb48	-0.075155795
150	0x3e50d73d	0.20394607
151	0x3e52075c	0.2051062
152	0xbe3b27fb	-0.1827697
153	0x3e3a497d	0.18192096
154	0x3d876e86	0.066128775
155	0xbbfba0c4	-0.007679077
156	0xba196031	-0.00058508205
157	0xbda2e741	-0.079542644
158	0xbc2717dd	-0.010198561
159	0x3e872ab2	0.2639976
160	0xbe6ad513	-0.22932844
161	0xbdab2649	-0.08356912
162	0xbc5d2397	-0.013497255
163	0xbdd7255b	-0.10505172
164	0x3e0c9690	0.1372931
165	0x3d0848e0	0.033272624
166	0xbbb9b965	-0.0056678527
167	0xbc9575ab	-0.018244585
168	0xbd50b1dc	-0.05095087
169	0xba57bafb	-0.00082294614
170	0xbb1514a5	-0.00227479
171	0x3da19ccd	0.078912355
172	0x3b583f01	0.0032996538
173	0x3d19957b	0.03749607
174	0x3e0dacd4	0.1383546
175	0x3ce3b4f8	0.027796254
176	0xbc88718f	-0.016655711
177	0xbd19b688	-0.03752759
178	0xbd5fb4bb	-0.054615717
179	0xbe39190d	-0.18075962
180	0xbe906223	-0.28199872
181	0xbe378dda	-0.17925206
182	0xbe036513	-0.12831526
183	0xbdad0704	-0.08448604
184	0xbc1b2d4d	-0.00947125
185	0x3e12e7c5	0.14346226
186	0xbdd62a4f	-0.104572885
187	0xbce056ac	-0.027385078
188	0x3d3a6c77	0.045513596
189	0xbe098191	-0.13428332
190	0xbd3c3a17	-0.045953836
191	0x3da44598	0.080210865
192	0x3d1caf5f	0.038253184
193	0x3dcb84f0	0.09937465
194	0x3cddbc0a	0.027067203
195	0xbca33087	-0.0199206
196	0xbc36f9fe	-0.011168001
197	0x3e1dcb24	0.15409523
198	0x3ab46ff4	0.0013766275
199	0xbd5704fc	-0.052494988
200	0xbb46a5e3	-0.0030311279
201	0xbe572529	-0.21010269
202	0xbe07e4f9	-0.1327094
203	0xbdc141a0	-0.09436345
204	0x3d14d2c4	0.036333814
205	0xbdb4544b	-0.0880514
206	0x3d0a05dd	0.033696998
207	0xbd30cc55	-0.043163616
208	0xbe0d3111	-0.13788249
209	0xbe0c10e3	-0.13678317
210	0xbde58f85	-0.11209015
211	0x3d98bf07	0.074583106
212	0x3e1c4efd	0.15264507
213	0x3c1b3fa8	0.009475626
214	0x3e009221	0.12555744
215	0xbcf47721	-0.029841961
216	0x3c69e3dd	0.014275518
217	0xbba33ba5	-0.0049814754
218	0xbd6d4c24	-0.05793394
219	0x3d72deae	0.059294395
220	0x3c5a915b	0.0133403195
221	0xbd361db1	-0.04446191
222	0x3c9aeba4	0.01891119
223	0x3d0bb621	0.03410924
224	0xbe26d7d9	-0.16293277
225	0xbdc6c266	-0.09705047
226	0x3d73ab04	0.059489265
227	0xbd6697cd	-0.056297112
228	0x3c5d493c	0.01350623
229	0x3c8d1051	0.017219694
230	0x3d0b32e9	0.0339841
231	0xbbbe477c	-0.0058068614
232	0xbdaacc60	-0.08339763
233	0x3d59bed1	0.053160492
234	0x3e8a5fce	0.27026218
235	0x3e34c858	0.1765455
236	0xbe3d3fc3	-0.18481354
237	0x3df4f23e	0.119602665
238	0xbc962f12	-0.018332992
239	0xbe0f0a97	-0.13968883
240	0x3dd377de	0.10325597
241	0x3e056871	0.13028122
242	0xbc8747a5	-0.016513655
243	0xbe0428fb	-0.12906258
244	0xbc07dca7	-0.008292354
245	0xbe3a3017	-0.18182407
246	0x3dbafbe7	0.09130078
247	0xbe0afe23	-0.13573508
248	0xbcc13da1	-0.023588957
249	0xbd506d86	-0.0508857
250	0xbca78702	-0.020450119
251	0xbdc17039	-0.09445233
252	0xbe019635	-0.12654956
253	0xbddd3fb2	-0.108031645
254	0xbe316fc7	-0.17327796
255	0x3e1602d4	0.14649516

bias f4 [32]
0	0xbcd17409	-0.025568025
1	0x399d8197	0.00030041925
2	0xbc3e8d10	-0.011630312
3	0x3cc3e2ea	0.023911912
4	0x3bfe638a	0.007763331
5	0x3c2cc3cc	0.0105447285
6	0xbc9962d5	-0.018723885
7	0x3b4b857e	0.003105491
8	0xbcc95604	-0.024577148
9	0xbd44cc69	-0.048046503
10	0x3c2a594f	0.010397269
11	0x3c13869b	0.00900426
12	0xbd1ae5e9	-0.037816916
13	0x3a80cb70	0.0009826254
14	0xbce7dded	-0.028304065
15	0xbc1219ec	-0.008917313
16	0x3d0be5b8	0.034154624
17	0xbd42f2f9	-0.047594998
18	0xbcaa7643	-0.020808345
19	0x3cb59de5	0.022170017
20	0xbc7cab09	-0.015421637
21	0x3beafd29	0.0071712923
22	0xbc993164	-0.01870031
23	0x3c47407a	0.0121613685
24	0xbc490921	-0.012270243
25	0x3bdca73c	0.006733803
26	0xbc0b93ef	-0.008519157
27	0x3cb44399	0.02200489
28	0x3bff90a2	0.007799224
29	0x3d51a37f	0.051181313
30	0x3c87580a	0.016521472
31	0x3c6ba007	0.014381415

weight f4 [64, 32, 3, 3]
0	0xbde4e408	-0.11176306
1	0x3cb6e0b4	0.022323944
2	0x3e196cf3	0.14982967
3	0xbe4d6ebb	-0.20061772
4	0x3e2ece79	0.1707095
5	0x3dcb663a	0.099316075
6	0xbe4966ba	-0.19668093
7	0x3d88651e	0.066599116
8	0x3d535b73	0.051600885
9	0x3e27ccdc	0.16386741
10	0xbdb0800d	-0.08618174
11	0xbe13c0f8	-0.1442908
12	0x3e8be337	0.2732179
13	0x3d36890c	0.04456429
14	0xbdc37bcb	-0.09545096
15	0x3e799b1b	0.24375574
16	0xbdd5e686	-0.104443595
17	0xbe042b16	-0.12907061
18	0x3ddf5bac	0.10906157
19	0xbd8af74f	-0.067854516
20	0x3ad1ed77	0.0016016205
21	0x3e0497da	0.12948552
22	0x3d473731	0.04863662
23	0xbdab15c6	-0.08353762
24	0x3d656465	0.056003947
25	0x3dd069f9	0.10176463
26	0xbd97f299	-0.07419319
27	0xbde38d6f	-0.11110961
28	0x3e04ef66	0.12981948
29	0x3d8c9f38	0.06866306
30	0xbccf6f65	-0.025321672
31	0xbd8ae8d6	-0.06782691
32	0x3dc27f05	0.09496883
33	0x3c93965c	0.018016033
34	0xbe956a2b	-0.29182562
35	0x3e2956c9	0.16537012
36	0x3e1bb381	0.15205194
37	0xbcd4465e	-0.02591246
38	0xbe08c27c	-0.1335544
39	0x3cddd5cc	0.027079485
40	0x3d3bdb62	0.045863517
41	0x3c652e35	0.013988067
42	0xbcc1b610	-0.023646384
43	0x3e0c125d	0.1367888
44	0x3dbf2bbd	0.09334514
45	0xbdb3e221	-0.08783365
46	0xbe3e4e38	-0.18584526
47	0xbc97cbc0	-0.018529773
48	0xbd9a9a89	-0.075490065
49	0xbde1d42d	-0.110267974
50	0x3dc1b664	0.094586164
51	0xbc81a5f9	-0.015826212
52	0xbc49539a	-0.012287999
53	0x3e92507e	0.28577036
54	0xbe4c4889	-0.19949545
55	0xbbd79b7f	-0.006579816
56	0xbdc53bbc	-0.09630534
57	0xbd90bb93	-0.07067027
58	0xbd87d455	-0.06632296
59	0x3d82f5a4	0.063945085
60	0x3d986b82	0.074423805
61	0xbc511549	-0.012761422
62	0x3dc2fdf4	0.09521094
63	0xbe21415f	-0.15747593
64	0x3e01d8f6	0.1268042
65	0x3e0a2496	0.13490519
66	0x3a9bccf0	0.0011886638
67	0xbcb8d930	-0.0225645
68	0x3e030af7	0.12797152
69	0xbc978a6d	-0.018498624
70	0xbe428619	-0.18996467
71	0x3d138f05	0.036025066
72	0xbe05ef1c	-0.13079494
73	0xbb81f2da	-0.0039657177
74	0x3d37a95f	0.04483926
75	0xbe1ec10b	-0.15503328
76	0x3dc56748	0.0963884
77	0x3e29f123	0.16595893
78	0xbe3f9cc2	-0.18712142
79	0x3d91d9d3	0.07121625
80	0x3e77c1a1	0.24194957
81	0xbd0f690e	-0.035012297
82	0x3d1b5322	0.03792108
83	0xbd2ae9a1	-0.041726712
84	0xbdccbbc1	-0.09996749
85	0x3e23d953	0.16000871
86	0xbe27cfd5	-0.16387875
87	0xbd500242	-0.050783403
88	0x3e318179	0.17334546
89	0xbd6878ca	-0.05675582
90	0x3e76b651	0.24092986
91	0x38cd69fc	9.794903e-05
92	0xba81e813	-0.0009911082
93	0x3e472f8b	0.1945173
94	0x3c573f43	0.013137641
95	0xbe0f2d48	-0.13982117
96	0x3d87144c	0.06595668
97	0xbc932876	-0.01796363
98	0xbe88e1d2	-0.26734787
99	0x3deec81c	0.116592616
100	0xbd9deaa0	-0.07710767
101	0x3d6b4172	0.05743546
102	0x3e24a923	0.16080146
103	0xbd521d40	-0.051297426
104	0xbe01f86c	-0.12692422
105	0x3e261091	0.16217257
106	0xba7327ad	-0.00092756265
107	0xbe2798e1	-0.16366912
108	0x3e3102db	0.17286246
109	0xbd389602	-0.045064934
110	0x3e311877	0.17294489
111	0x3db6271e	0.0889418
112	0x3cc4c9ef	0.02402207
113	0xbd085c89	-0.033291373
114	0x3d175af1	0.036951963
115	0xbdc2e7a2	-0.09516837
116	0xbe93c2a7	-0.28859445
117	0x3db148ff	0.08656501
118	0xbdce9f2c	-0.100889534
119	0xbe223b59	-0.15842952
120	0x3c9a8468	0.018861964
121	0x3c288608	0.010285862
122	0xbd1883be	-0.037235014
123	0xbe24e425	-0.16102655
124	0x3d906ecf	0.07052385
125	0x3df08a39	0.11745114
126	0xbd788610	-0.060674727
127	0xbde291b2	-0.110629454
128	0x3e4dfe46	0.20116529
129	0x3b88ca26	0.0041744886
130	0x3d1d324a	0.038378038
131	0x3c881b92	0.016614709
132	0xbe31c4fc	-0.173603
133	0x3e4d39b0	0.20041537
134	0x3da5dfb4	0.080993086
135	0xbd74cb96	-0.059764467
136	0x3d139b94	0.036037043
137	0x3e4e17cc	0.20126265
138	0xbcc6fbab	-0.024289927
139	0x3d51c1ab	0.051210087
140	0x3d4f17ca	0.050559796
141	0x3d0bacc0	0.034100294
142	0xbd6a0849	-0.057136808
143	0xbd382dd0	-0.044965565
144	0x3a94865b	0.0011331545
145	0x3e03395b	0.12814848
146	0xbd45d463	-0.04829825
147	0xbb2a3cb1	-0.0025976116
148	0xbd35e94e	-0.04441195
149	0xbdf7b70f	-0.120954625
150	0x39834668	0.00025038724
151	0xbe07a89d	-0.13247915
152	0xbcb9aaa1	-0.02266437
153	0xbdc4bd86	-0.09606461
154	0xbe01347e	-0.1261768
155	0xbe2ea789	-0.17056097
156	0xbc2cd927	-0.01054982
157	0x3d457db3	0.04821558
158	0x3ac080b3	0.0014686793
159	0x3ca8508a	0.020546217
160	0x3daef4a2	0.08542754
161	0x3da770a5	0.08175782
162	0xbcc8c1a6	-0.024506401
163	0x3d5738ca	0.052544393
164	0x3dbcc758	0.09217709
165	0x3d7448c5	0.05963971
166	0x3d9823ef	0.07428729
167	0xbdb4b4ee	-0.08823572
168	0x3d0a4f18	0.033766836
169	0x3e12a016	0.1431888
170	0xbd86bba6	-0.0657876
171	0xbd6c2034	-0.0576479
172	0xbcca2bf8	-0.024679169
173	0x3d70aae3	0.05875672
174	0xbc25330c	-0.010082971
175	0xbcc0a8ff	-0.023518084
176	0x3d8e5796	0.069502994
177	0x3d76135a	0.06007705
178	0x3cef0538	0.029177293
179	0x3d55d66b	0.052206438
180	0xbe006561	-0.12538673
181	0xbe117be0	-0.14207411
182	0x3e1a5772	0.1507242
183	0xbe109668	-0.14119875
184	0x3dfef85f	0.12449717
185	0x3dd98908	0.1062184
186	0x3c56e9eb	0.013117294
187	0x3e3f2921	0.18668033
188	0xbd6ee65f	-0.058325168
189	0x3cd89899	0.026439952
190	0xbd42223c	-0.04739593
191	0x3d0075f7	0.0313625
192	0x3d9c42d8	0.07629937
193	0xbd72cf14	-0.059279516
194	0xbd09c1f0	-0.03363222
195	0x3d7fe670	0.06247562
196	0x3c9873e8	0.018609956
197	0xbd234dca	-0.039869107
198	0xbda64439	-0.08118481
199	0xbde0f123	-0.10983493
200	0xbdef1412	-0.1167375
201	0xbd33a440	-0.043857813
202	0xbd1c6917	-0.03818616
203	0xbd634772	-0.055488057
204	0x3e026e6c	0.12737435
205	0x3cdf0d79	0.027228104
206	0x3d735ad7	0.059412804
207	0x3e28d89e	0.16488883
208	0xbd870f79	-0.06594748
209	0xbe649c96	-0.22325358
210	0x3d0cb2ec	0.03435032
211	0xbdca8c04	-0.09889987
212	0xbe7c90c3	-0.24664597
213	0x3ce65f3f	0.028121589
214	0x3dbf948a	0.093545035
215	0xbb9fcdb8	-0.0048768185
216	0x3c4f2d6e	0.012645109
217	0xbe4a07ed	-0.19729586
218	0xbdc5a170	-0.096499324
219	0xbd311d1e	-0.04324066
220	0xbda2d821	-0.079513796
221	0xbd3f0b92	-0.046641894
222	0xbd59c002	-0.05316163
223	0x3cd03bb0	0.025419086
224	0x3e0af56a	0.1357018
225	0xbbaa047d	-0.0051885233
226	0xbd39fc1a	-0.04540644
227	0xbe3c3023	-0.18377738
228	0x3e1c9b1c	0.15293545
229	0xbdc96324	-0.09833363
230	0xbe4b6dd3	-0.19866113
231	0x3e3b7dc8	0.183097
232	0xbe088f56	-0.13335928
233	0xbda2cbce	-0.07949029
234	0x3e180510	0.14845681
235	0x3e160ca9	0.14653267
236	0xbd096b4d	-0.033549596
237	0x3df3b845	0.11900381
238	0xbc2423de	-0.010018317
239	0x3d1bd339	0.038043234
240	0xbddf7ad2	-0.10912098
241	0xbbac9e93	-0.005267927
242	0x3d1bd97f	0.038049217
243	0xbd89870c	-0.06715211
244	0x3d995f39	0.074888654
245	0xbcb07dff	-0.021544455
246	0xbda2696e	-0.07930265
247	0x3dbfb0b0	0.09359872
248	0x3d4b7e1c	0.049680814
249	0x3bcbb637	0.00621679
250	0xbd0c9a6f	-0.034326967
251	0x3d68d8d1	0.056847397
252	0xbd6b21fd	-0.05740546
253	0x3e0251d8	0.12726533
254	0xbe178f20	-0.14800692
255	0x3db6952a	0.089151695

bias f4 [64]
0	0x3c747ef6	0.014922848
1	0x3d5a925e	0.053362243
2	0xbc23e68b	-0.010003696
3	0x3c83410a	0.016022224
4	0xbd4e4250	-0.05035621
5	0xbccc5e1d	-0.02494722
6	0xbd2a6ebd	-0.041609515
7	0xbad2c7f8	-0.0016081324
8	0x3cf3ff5b	0.029784849
9	0xbba67553	-0.005079904
10	0x3b321f7f	0.0027179418
11	0xbcce5f78	-0.025192007
12	0x3d0ad1b1	0.033891384
13	0x3cc85432	0.02445421
14	0x3d72f005	0.05931093
15	0x3cd151ba	0.025551666
16	0xbd724f83	-0.05915786
17	0xbd045bdd	-0.03231417
18	0xbca2abb0	-0.019857258
19	0x3c8c9caf	0.017164556
20	0x3d702fa3	0.05863918
21	0x3c7d7ed8	0.015472136
22	0x3d4e9362	0.050433524
23	0xbdd31f39	-0.103086896
24	0x3c818455	0.015810171
25	0x3da6f875	0.08152858
26	0x3bb22e3d	0.005437641
27	0xbd234652	-0.039861985
28	0x3c76642e	0.015038533
29	0x3d900cf5	0.07033721
30	0xbb218533	-0.0024646043
31	0x3d044af0	0.03229803
32	0xbb23ebc9	-0.0025012365
33	0xbcbd2bd4	-0.023092188
34	0x3d180374	0.03711267
35	0xbd0dff45	-0.034667272
36	0xbc3ebf79	-0.01164233
37	0xbcd843b0	-0.026399463
38	0x3bda40df	0.0066605653
39	0xbd3ae032	-0.045623966
40	0xbd44159f	-0.047872182
41	0x3ce3a161	0.027786912
42	0xbc8420d4	-0.016128935
43	0x39df82e6	0.000426314
44	0xbcc19858	-0.023632213
45	0x3d121198	0.03566131
46	0x3cad57c5	0.021160016
47	0xbc329178	-0.01089894
48	0x3d76a658	0.06021723
49	0x3c39fb14	0.011351366
50	0x3d1c5803	0.038169872
51	0xbcbb2639	-0.022845374
52	0x3d5c86f2	0.05383963
53	0xba85dca9	-0.0010212857
54	0xbc99a2e3	-0.018754428
55	0x3c61fe56	0.013793549
56	0x3d3b678b	0.045753043
57	0xbd0909a0	-0.033456445
58	0x3cad4517	0.021151109
59	0xbd074e91	-0.03303391
60	0xbc9d0007	-0.019165052
61	0xbd0efdbd	-0.034909952
62	0xbc61dc20	-0.013785392
63	0xbc83966a	-0.016062934
