src/app/epic7/assert/hero_avatar.onnx (onnx, 55306 bytes, 10 tensors)

cls_w f4 [214, 32]
-0.090117626 0.731367 0.5524023 0.24947797 1.1528615 -0.19118081 -0.8338327 -0.22739694
0.05393038 -0.027974028 -0.7103349 -0.7041828 0.63456327 0.2002294 -0.30715477 1.2460058
-0.3193373 -0.095616706 -0.9134497 -0.61365336 -0.37407225 -0.51790196 0.8835418 -0.07430762
0.8552068 -0.4522816 0.09024104 -0.9255051 0.02859752 0.7792647 0.5888048 0.32746717
0.19415937 -0.4362717 -0.26586646 -0.4174523 -0.2282423 0.6623246 0.30296034 0.41113576
0.6173396 -0.0036854844 -0.26046297 -0.72047615 0.17981905 1.8587402 1.6282469 -0.8379575
0.5121687 0.8382646 0.8965162 0.27651966 -0.36488315 0.32022476 0.3389671 -0.13860397
0.8516644 0.60012484 0.053341538 0.20961513 -0.22878735 -0.100334086 -0.52137995 -0.4211728
0.78842 -1.6336311 0.6587549 -0.76653486 -0.016534803 -0.16925561 0.44528168 -0.10854634
0.8481454 0.84234697 -1.0383431 1.3052355 -0.03418559 0.45323142 -0.17080253 0.047830302
-0.7545589 -0.98331046 -0.030589905 -0.3636622 0.44663024 -0.03905126 -0.79532355 -0.67246395
-0.50909686 -0.69515735 0.47185275 1.286368 -0.025322847 -0.3488608 0.87888056 -1.0234243
-0.017281381 0.82510203 -0.25934926 -0.64758956 -0.9283273 0.10493914 -0.27855608 1.0100875
-0.08136473 -0.57533014 0.49308082 -0.4873303 -0.99475837 0.20490816 -0.5376225 -0.079498865
-0.03962164 1.6674422 -0.94132984 0.05123916 -0.63421553 0.47003636 0.34143993 0.46778953
-0.47977895 -0.20896041 0.15120769 -0.80572283 -0.118493915 0.67921656 0.024415601 0.023807423
0.26870564 0.28571987 0.69949615 -0.26573086 0.90965164 -0.39530307 -0.17098093 0.42395407
0.14886115 0.40347058 -0.5943997 -0.64240015 -0.5435781 1.5305154 0.09426894 -0.42785215
-0.52557546 -0.0965511 -0.6000134 0.08357314 0.9123178 0.42119312 -0.22422194 0.2822438
-0.69404185 -0.38968867 -0.48685136 0.3482109 -0.70100325 -0.981942 -0.2283592 0.3123062
0.009424317 0.029215358 -0.80045676 1.342473 0.8706116 0.013739832 -0.4660268 -0.3484268
-0.17414464 0.5640782 -0.9976088 -0.46138996 -0.6059023 0.69237214 -0.74079585 -0.26860932
0.22858182 -0.9145235 0.3859254 -0.39169312 1.0304875 -0.43361095 -0.07124845 -0.32753375
-0.8146608 -0.9086992 -0.475268 0.3604569 -0.01150845 -0.110764004 0.66800046 -0.039994508
-0.70270497 0.282177 -0.43760982 0.44374084 -0.9335674 -0.6487073 -0.91633064 1.6681222
1.0710484 0.4524786 0.70258605 1.2266403 -0.13989526 0.48207954 0.233526 -0.10980106
-0.33270186 -0.04572838 -0.0417508 -0.0760586 -0.339255 0.11053709 -0.26137465 -0.4726446
-0.43481588 0.15587862 0.040039245 -0.4221189 0.8666335 -0.058230463 0.16400598 -0.040605705
0.6369301 -0.82504207 -0.4995737 -0.7930452 -1.3317121 -0.1781159 -0.8025746 0.44352597
0.39460444 0.09100125 1.0898108 -0.15035672 -0.0067084967 0.7899046 -0.6613809 0.2375234
-1.0272528 0.009880983 -0.13401587 0.4785806 -0.1274169 -0.57772267 -0.25437286 -0.6196362
0.15358043 1.0905484 1.2107811 0.09251894 -0.15320748 1.2957065 -0.6144401 -0.79894173
00000000: 978f b8bd de3a 3b3f 3d6a 0d3f 2777 7f3e
00000010: f790 933f e7c4 43be 0f76 55bf beda 68be
00000020: 1ae6 5c3d ca29 e5bc 82d8 35bf 5345 34bf
00000030: bd72 223f f008 4d3e 6443 9dbe 1e7d 9f3f
00000040: 2e80 a3be b1d2 c3bd d7d7 69bf 6318 1dbf
00000050: 6686 bfbe 3995 04bf cc2f 623f 982e 98bd
00000060: d5ee 5a3f 7491 e7be 4bd0 b83d e7ed 6cbf
00000070: 5945 ea3c e47d 473f e9bb 163f c7a9 a73e
00000080: b7d1 463e 015f dfbe a61f 88be 4fbc d5be
00000090: 59b8 69be 1b8e 293f 9e1d 9b3e 6380 d23e
000000a0: f809 1e3f 2b88 71bb 675b 85be 2071 38bf
000000b0: 7c22 383e 33eb ed3f 656a d03f 6284 56bf
000000c0: 7d1d 033f 8298 563f 1682 653f fc93 8d3e
000000d0: f7d1 babe 80f4 a33e 198d ad3e 33ee 0dbe
000000e0: ae06 5a3f c8a1 193f a87c 5a3d 59a5 563e
000000f0: 3b47 6abe f57b cdbd 2879 05bf f6a3 d7be
00000100: e5d5 493f d31a d1bf 29a4 283f a13b 44bf
00000110: ff73 87bc 5851 2dbe f6fb e33e 8b4d debd
00000120: 0f20 593f 0da4 573f 6de8 84bf f511 a73f
00000130: 3006 0cbd f30d e83e dce6 2ebe b5e9 433d
00000140: c62a 41bf 3cba 7bbf ae97 fabc ef31 babe
00000150: b8ac e43e 37f4 1fbd 539a 4bbf 9926 2cbf
00000160: 2c54 02bf d5f5 31bf af96 f13e b5a7 a43f
00000170: dc71 cfbc e29d b2be 51fe 603f 91ff 82bf
00000180: af91 8dbc e339 533f 6dc9 84be 6ec8 25bf
00000190: dca6 6dbf 55ea d63d e79e 8ebe 8c4a 813f
000001a0: 8da2 a6bd d648 13bf 1775 fc3e 5b83 f9be
000001b0: 7ca8 7ebf 72d3 513e a1a1 09bf 4dd0 a2bd
000001c0: 4d4a 22bd bf6e d53f fefa 70bf 27e0 513d
000001d0: f35b 22bf 9ba8 f03e 37d1 ae3e 1c82 ef3e
000001e0: 96a5 f5be b8f9 55be 30d6 1a3e da43 4ebf
000001f0: f0ac f2bd 23e1 2d3f 3a03 c83c c907 c33c
00000200: c993 893e e049 923e 2e12 333f e00d 88be
00000210: eede 683f 2a65 cabe a015 2fbe 8210 d93e
00000220: 0f6f 183e b293 ce3e 942a 18bf 5674 24bf
00000230: ef27 0bbf eee7 c33f 1310 c13d 700f dbbe
00000240: 1d8c 06bf 95bc c5bd 7a9a 19bf 6528 ab3d
00000250: a98d 693f a0a6 d73e 709a 65be 4282 903e
00000260: baac 31bf 4685 c7be 9544 f9be b348 b23e
00000270: f374 33bf 8d60 7bbf fed6 69be 99e6 9f3e
00000280: 7368 1a3c 0c55 ef3c bcea 4cbf 28d6 ab3f
00000290: 67e0 5e3f 081d 613c 119b eebe ff64 b2be
000002a0: f952 32be 6e67 103f 4a63 7fbf 4e3b ecbe
000002b0: 6a1c 1bbf 4d3f 313f cca4 3dbf 2987 89be
000002c0: 5a11 6a3e 361e 6abf 0498 c53e 008c c8be
000002d0: 04e7 833f 4102 debe b5ea 91bd 81b2 a7be
000002e0: 9c8d 50bf 83a0 68bf 5456 f3be cf8d b83e
000002f0: f08d 3cbc 3dd8 e2bd 1402 2b3f 48d1 23bd
00000300: 79e4 33bf 8179 903e 650e e0be 0032 e33e
00000310: 46fe 6ebf ae11 26bf a594 6abf 0785 d53f
00000320: 1d18 893f 46ab e73e aedc 333f 8d02 9d3f
00000330: b440 0fbe 21d3 f63e 7121 6f3e 61df e0bd
00000340: e657 aabe af4d 3bbd e302 2bbd 9cc4 9bbd
00000350: d5b2 adbe 4561 e23d e6d2 85be 79fe f1be
00000360: 30a0 debe a59e 1f3e 3100 243d f81f d8be
00000370: b1db 5d3f 1183 6ebd 2ff1 273e 2b52 26bd
00000380: da0d 233f f535 53bf 20c8 ffbe 0305 4bbf
00000390: 8b75 aabf 0464 36be 8775 4dbf d615 e33e
000003a0: 9809 ca3e dd5e ba3d ec7e 8b3f 1df7 19be
000003b0: f3d2 dbbb 3037 4a3f 4250 29bf 5639 733e
000003c0: 057d 83bf d9e3 213c 753b 09be 8408 f53e
000003d0: 9379 02be a2e5 13bf 293d 82be 7aa0 1ebf
000003e0: 3044 1d3e 1797 8b3f e0fa 9a3f 927a bd3d
000003f0: 6ce2 1cbe b6d9 a53f f24b 1dbf 7287 4cbf

onnx::Conv_86 f4 [8, 3, 3, 3]
0.4186451 0.5048741 0.5572102 0.30090293 0.09605392 0.007870472 0.7008718 0.8827069
0.67239124 0.040731333 0.056549273 0.02006352 0.024078071 -0.14993805 0.08848378 -0.20830998
0.071192294 0.30972397 -0.2176963 -0.35382807 -0.21474046 -0.2176886 -0.02789736 -0.22182202
-0.14050794 -0.48397055 -0.3875734 -0.24385181 -0.16251986 -0.11914241 -0.08279195 -0.24463074
0.1989723 -0.0862402 0.17807749 0.30331525 0.13188604 -0.26539338 0.3251937 -0.23480067
-0.0039584925 0.38184056 -0.30057648 -0.37092248 0.37641123 0.1759049 -0.1153496 0.41562083
-0.3900409 -0.05512236 0.28138348 -0.44418103 -0.29786596 0.2841111 -0.38440847 -0.26363933
-0.16109757 -0.1196289 0.07231352 0.09374519 -0.31079325 -0.11986759 -0.023150649 -0.2632781
-0.110640556 -0.17572214 -0.052662447 -0.057160273 -0.23075154 -0.45635146 -0.117329374 -0.23267385
0.0396575 0.2125431 0.12369425 0.1434562 0.047539286 0.16113591 -0.048248444 0.09182567
0.08435746 0.17258675 -0.1656539 -0.50408274 0.46553096 0.44149715 0.015136347 0.94134337
0.71214855 0.0796217 -0.49416435 -0.12979375 -0.25875401 -0.4201214 -0.0997013 0.13974963
0.253513 0.58756673 0.16178577 0.46688342 0.26439843 0.09810376 0.2255483 -0.13121516
-0.08802253 0.55128855 -0.10563894 -0.033415563 0.21008606 0.3446819 0.37538862 0.54789454
0.34381464 0.28877306 0.5046258 0.36747605 0.31373197 -0.561762 -0.620264 -0.2570413
-0.44355562 -0.4499421 -0.76725936 -0.5915456 -0.28783438 -0.7141981 -0.06485536 0.15383922
0.06722211 0.18743822 0.2905716 -0.094344646 0.23761097 0.008844575 -0.1872149 -0.25139263
-0.28313306 -0.009967388 -0.29678982 -0.21852465 0.16256027 -0.09941298 0.04534025 0.16731969
-0.1622338 -0.047626775 0.12973681 0.13099678 -0.124823965 0.16854116 0.18888976 0.2722614
0.51125175 0.551915 0.28258786 0.38681945 0.09561513 0.10853689 -0.033210132 0.59886485
0.057573207 0.10925237 0.4341593 0.23930012 -0.55064476 -0.07278319 0.010241332 -0.3212807
0.06708768 -0.22759904 -0.10936758 0.20609036 -0.3368764 -0.89171314 0.10833762 -0.09282801
0.21429422 0.2773606 -0.010710463 0.3075977 -0.1985481 -0.43873286 -0.45768777 0.007815596
-0.14453723 0.23324578 -0.08595465 0.048515677 0.5654604 0.041140467 -0.0381772 -0.16001529
0.052026607 -0.084838316 -0.23556007 0.08787721 -0.16396393 0.0805421 -0.20490411 -0.0020692036
-0.3345035 -0.09026526 -0.045755867 -0.17400847 -0.15530908 -0.016511122 -0.27141908 0.5881092
0.7218145 0.40810388 0.16939825 0.26355404 0.14090367 0.062425878 0.10953797 0.20646788
00000000: a758 d63e 6e3f 013f 54a5 0e3f f30f 9a3e
00000010: ebb7 c43d 27f3 003c 566c 333f 14f9 613f
00000020: d521 2c3f e6d5 263d 36a0 673d 405c a43c
00000030: 603f c53c 5c89 19be fc36 b53d 364f 55be
00000040: 44cd 913d 2494 9e3e c7eb 5ebe f428 b5be
00000050: ece4 5bbe c3e9 5ebe 0189 e4bc 5025 63be
00000060: 50e1 0fbe fdca f7be 0570 c6be 4ab4 79be
00000070: 9b6b 26be f000 f4bd d38e a9bd 7b80 7abe
00000080: 65bf 4b3e b49e b0bd f259 363e 234c 9b3e
00000090: 220d 073e a4e1 87be ca7f a63e 966f 70be
000000a0: 3eb6 81bb 9b80 c33e 29e5 99be 8de9 bdbe
000000b0: f9b8 c03e 6a20 343e 693c ecbd 41cc d43e
000000c0: 71b3 c7be fcc7 61bd 7f11 903e b26b e3be
000000d0: e381 98be 0377 913e 30d1 c4be bcfb 86be
000000e0: c3f6 24be ffff f4bd 1c19 943d 7afd bf3d
000000f0: 4b20 9fbe 247d f5bd 6ea6 bdbc 63cc 86be
00000100: 8497 e2bd 81f0 33be 94b4 57bd e420 6abd
00000110: 224a 6cbe e6a6 e9be 624a f0bd 0e42 6ebe
00000120: e76f 223d e6a4 593e 6953 fd3d 2fe6 123e
00000130: 8eb8 423d d000 253e 29a0 45bd 190f bc3d
00000140: 9bc3 ac3d 95ba 303e 2da1 29be 910b 01bf
00000150: 135a ee3e ea0b e23e 71fe 773c e1fb 703f
00000160: 5e4f 363f b410 a33d 1c03 fdbe a7e8 04be
00000170: 687b 84be 271a d7be 3230 ccbd 871a 0f3e
00000180: 75cc 813e c66a 163f 2bab 253e 580b ef3e
00000190: 3b5f 873e a0ea c83d 22f6 663e 445d 06be
000001a0: 2845 b4bd 3f21 0d3f 3b59 d8bd c2de 08bd
000001b0: cd20 573e 257a b03e f032 c03e d142 0c3f
000001c0: 7908 b03e 10da 933e 282f 013f d225 bc3e
000001d0: 7aa1 a03e a2cf 0fbf 9fc9 1ebf eb9a 83be
000001e0: b919 e3be d05e e6be 1c6b 44bf 886f 17bf
000001f0: 075f 93be b0d5 36bf e3d2 84bd 0788 1d3e
00000200: bfab 893d ceef 3f3e cdc5 943e c437 c1bd
00000210: 4a50 733e d6e8 103c 43b5 3fbe 89b6 80be
00000220: d1f6 90be 414e 23bc d6f4 97be edc4 5fbe
00000230: 3376 263e 0899 cbbd b3b6 393d da55 2b3e
00000240: 9e20 26be 4b14 43bd bad9 043e 0524 063e
00000250: b5a3 ffbd 0e96 2c3e 516c 413e d965 8b3e
00000260: 65e1 023f 4d4a 0d3f 5baf 903e 330d c63e
00000270: ded1 c33d 9748 de3d 5907 08bd 354f 193f
00000280: e2d1 6b3d b5bf df3d 214a de3e 170b 753e
00000290: 0ef7 0cbf 5a0f 95bd 43cb 273c e77e a4be
000002a0: 4465 893d b90f 69be 1cfc dfbd 5a09 533e
000002b0: 107b acbe 5047 64bf 1de0 dd3d 9d1c bebd
000002c0: f26f 5b3e 3502 8e3e f07a 2fbc 727d 9d3e
000002d0: 3150 4bbe 98a1 e0be 0d56 eabe fc0c 003c
000002e0: 9101 14be fbd7 6e3e fe08 b0bd 60b8 463d
000002f0: 03c2 103f e882 283d b25f 1cbd 0cdb 23be
00000300: da19 553d b6bf adbd a936 71be f7f8 b33d
00000310: 29e6 27be 42f3 a43d 62d2 51be 7a9b 07bb
00000320: 0b44 abbe fedc b8bd 816a 3bbd 472f 32be
00000330: 5809 1fbe 5542 87bc 71f7 8abe 538e 163f
00000340: d6c8 383f fef2 d03e bc76 2d3e 8ef0 863e
00000350: 0d49 103e 47b2 7f3d 7155 e03d 516c 533e

onnx::Conv_87 f4 [8]
-0.80889297 0.21670964 1.1163552 -1.6031651 0.4359437 -1.519845 0.603472 -0.24221653
00000000: 9c13 4fbf 22e9 5d3e bae4 8e3f 8434 cdbf
00000010: 0334 df3e 488a c2bf 247d 1a3f 9c07 78be

onnx::Conv_89 f4 [16, 8, 3, 3]
-0.25977305 -0.17037931 -0.05799438 -0.48765332 -0.21648885 0.056700476 -0.29151052 0.0014255781
0.21510544 0.14216432 0.14021356 0.17067434 0.17928404 -0.034021847 0.15894343 0.046009604
0.11752516 0.0648607 0.010542605 -0.019382395 0.19461061 -0.11953874 -0.13820663 0.041152075
-0.101896666 -0.09760108 0.05026954 -0.013908077 0.030758709 0.025984105 0.090964414 -0.023616029
0.04217388 0.17394854 -0.016561065 0.00942845 0.09972701 0.07494192 0.04198312 -0.00019090937
0.021123536 -0.07633692 -0.039444137 -0.120087534 -0.03224697 0.2175518 -0.0234862 -0.27557185
0.2843181 0.049964037 -0.16269778 0.35051858 0.11408181 -0.023141341 0.025604 0.059038386
0.12622264 0.032560486 0.090840064 0.22321185 0.06286875 0.023585886 0.27430665 0.14857848
0.037653603 0.013301657 0.17976218 0.13680732 -0.024210684 0.18769439 0.1398235 0.015006424
0.11272186 -0.021479612 -0.0013694654 0.07203151 -0.047213882 -0.025503987 0.106633924 0.11135604
0.07889769 -0.035687927 0.033812974 0.010984773 -0.021482332 0.004274097 -0.00643113 -0.09587561
-0.17854829 -0.14542285 -0.012559866 0.10330663 0.13915904 0.014127821 0.13710697 0.101230524
-0.12201753 -0.093507595 -0.07005065 -0.008670745 0.01421309 0.06324783 -0.08733918 -0.014912386
0.0627028 -0.027594427 -0.019637067 0.10232469 -0.031187976 0.03414034 0.047051836 -0.028380575
0.0108606415 0.0010132912 -0.12674712 -0.0743278 -0.10526302 0.035855204 0.07340746 0.16138609
0.10176937 0.085633606 0.1428448 0.07237099 0.11056744 0.17448375 0.062434826 0.09459339
0.04151468 -0.06254842 0.026781153 0.03839923 -0.056662332 -0.0059956354 -0.047947638 0.09271715
0.18185563 0.25900123 -0.07082009 0.06673055 0.17331362 -0.08748641 -0.050458 0.08047767
0.09216888 0.10138048 0.04931897 0.07139479 -0.11665953 -0.08148174 0.059181616 0.03286286
-0.025698194 -0.43784302 -0.0626598 -0.18575628 -0.2755853 -0.08084195 -0.18976118 -0.11072138
0.0357596 -0.15593843 0.22975743 0.501771 0.08242817 -0.06274817 0.32891223 -0.051109616
-0.006796535 0.31715602 -0.22139756 0.018672531 -0.018575875 -0.17671306 0.046603836 -0.11121175
-0.1650882 0.19221431 0.06870856 0.02722122 -0.1382521 -0.18351592 -0.38695064 -0.31385785
-0.22332197 -0.37694004 -0.007967127 0.16608505 0.021358524 0.26263922 0.13620816 0.22828768
0.17896794 0.24134438 0.24098219 0.22929 0.29719064 0.15537901 -0.0026304175 -0.10356592
-0.02547658 -0.3813931 -0.21984807 -0.45098436 -0.21785659 -0.21924919 -0.41643426 -0.16041431
-0.06576658 -0.18934275 0.014102541 0.06567867 -0.0015140113 -0.39653215 -0.3384391 -0.19942509
-0.07451845 0.13045217 0.11368476 0.0044349367 0.14159763 0.1904472 -0.05411868 0.20115384
0.1720153 0.058240023 0.06189596 0.047048368 0.032671932 0.043543834 0.081761084 -0.08668388
0.01579109 0.089676775 0.023177335 -0.04046695 0.09495487 0.06519687 0.028690515 0.008122201
-0.21721219 -0.21872707 -0.37147814 -0.020472193 -0.026295755 0.15378022 -0.12774412 -0.053179257
0.09021927 -0.006393482 0.02226367 0.12740259 0.017070992 0.0695604 0.09295903 0.08208354
00000000: f900 85be ea77 2ebe 848b 6dbd b2ad f9be
00000010: 41af 5dbe c23e 683d de40 95be 77da ba3a
00000020: 9a44 5c3e 8693 113e 2594 0f3e 41c5 2e3e
00000030: 3c96 373e 7e5a 0bbd 11c2 223e 9174 3c3d
00000040: 08b1 f03d b0d5 843d e4ba 2c3c d4c7 9ebc
00000050: 0148 473e bad0 f4bd 0a86 0dbe 148f 283d
00000060: 33af d0bd 13e3 c7bd 6fe7 4d3d b4de 63bc
00000070: b0f9 fb3c 9edc d43c 8d4b ba3d 6776 c1bc
00000080: 85be 2c3d 911f 323e 12ab 87bc c979 1a3c
00000090: ad3d cc3d 267b 993d 7ef6 2b3d d82e 48b9
000000a0: 440b ad3c 8856 9cbd 2d90 21bd 74f0 f5bd
000000b0: 6615 04bd e6c5 5e3e 2266 c0bc c117 8dbe
000000c0: 2492 913e 17a7 4c3d 3f9a 26be 2c77 b33e
000000d0: b9a3 e93d e992 bdbc 7bbf d13c 3cd2 713d
000000e0: 8240 013e 255e 053d 5b0a ba3d a691 643e
000000f0: 55c1 803d 3037 c13c ec71 8c3e f524 183e
00000100: aa3a 1a3d 31ef 593c 9413 383e 3817 0c3e
00000110: 7c55 c6bc f532 403e e42d 0f3e 81dd 753c
00000120: b8da e63d 03f6 afbc a27f b3ba 4285 933d
00000130: 5863 41bd bded d0bc e362 da3d a30e e43d
00000140: 1d95 a13d 812d 12bd 797f 0a3d 7af9 333c
00000150: b7fb afbc b90d 8c3b 3bbc d2bb 6f5a c4bd
00000160: 5dd5 36be bae9 14be e5c7 4dbc 6d92 d33d
00000170: b57f 0e3e 6078 673c c565 0c3e f351 cf3d
00000180: 54e4 f9bd e980 bfbd b776 8fbd be0f 0ebc
00000190: 05de 683c 1488 813d e2de b2bd 1553 74bc
000001a0: 536a 803d b50d e2bc eadd a0bc 9b8f d13d
000001b0: ed7d ffbc bed6 0b3d 6db9 403d 617e e8bc
000001c0: d5f0 313c 69d0 843a ffc9 01be 2c39 98bd
000001d0: 2394 d7bd e8dc 123d a656 963d 6542 253e
000001e0: 766c d03d ac60 af3d e845 123e 3e37 943d
000001f0: 2f71 e23d deab 323e a9bb 7f3d 2eba c13d
00000200: 4c0b 2a3d 6319 80bd 2664 db3c 8348 1d3d
00000210: c316 68bd 0977 c4bb be64 44bd 7de2 bd3d
00000220: 5d38 3a3e cf9b 843e 200a 91bd 07aa 883d
00000230: 2079 313e 132c b3bd 0cad 4ebd 7ad1 a43d
00000240: 0ac3 bc3d 92a0 cf3d b002 4a3d 6f37 923d
00000250: 31eb eebd e6df a6bd 6c68 723d 359b 063d
00000260: 0585 d2bc f62c e0be c853 80bd e536 3ebe
00000270: 8419 8dbe 7790 a5bd c150 42be e4c1 e2bd
00000280: a978 123d 53ae 1fbe 8845 6b3e 1074 003f
00000290: 1ad0 a83d 1d82 80bd 2f67 a83e 5158 51bd
000002a0: 78b5 debb 4662 a23e 0bb6 62be 23f7 983c
000002b0: 6f2c 98bc 45f4 34be aae3 3e3d fcc2 e3bd
000002c0: e20c 29be d4d3 443e 13b7 8c3d 09ff de3c
000002d0: f591 0dbe 99eb 3bbe 651e c6be fab1 a0be
000002e0: 84ae 64be 49fe c0be 8d88 02bc 3312 2a3e
000002f0: 12f8 ae3c a678 863e 277a 0b3e 3fc4 693e
00000300: 5f43 373e fb22 773e 09c4 763e ffca 6a3e
00000310: 5f29 983e ad1b 1f3e 1563 2cbb 5e1a d4bd
00000320: 43b4 d0bc f545 c3be da1f 61be 6ce7 e6be
00000330: cc15 5fbe dc82 60be df36 d5be a643 24be
00000340: a1b0 86bd 11e3 41be 580e 673c 8a82 863d
00000350: ca71 c6ba 4306 cbbe e447 adbe 1736 4cbe
00000360: 219d 98bd 4195 053e 8ed3 e83d f252 913b
00000370: f8fe 103e 9704 433e 8dab 5dbd 46fb 4d3e
00000380: c724 303e 178d 6e3d 9e86 7d3d cab5 403d
00000390: 01d3 053d 055b 323d 5b72 a73d 5187 b1bd
000003a0: 515c 813c 75a8 b73d 65de bd3c acc0 25bd
000003b0: b377 c23d f085 853d 5f08 eb3c fb12 053c
000003c0: df6c 5ebe fdf9 5fbe 6232 bebe 4db5 a7bc
000003d0: 326a d7bc 9078 1d3e 5bcf 02be 7ed2 59bd
000003e0: e1c4 b83d 6a80 d1bb 4d62 b63c d375 023e
000003f0: 77d8 8b3c af75 8e3d 4e61 be3d 6a1b a83d

onnx::Conv_90 f4 [16]
-0.36675632 -0.475973 0.23480335 0.116843455 0.76450646 -0.830641 0.898623 -0.24458486
0.38172668 0.05457969 1.0950311 1.592217 1.1772319 1.3015124 -0.09393735 -0.05159007
00000000: 7cc7 bbbe bcb2 f3be 4a70 703e 9f4b ef3d
00000010: b2b6 433f e3a4 54bf 280c 663f 7474 7abe
00000020: ae71 c33e f48e 5f3d fb29 8c3f c4cd cb3f
00000030: 89af 963f f597 a63f 3a62 c0bd 1c50 53bd

onnx::Conv_92 f4 [32, 16, 3, 3]
-0.019795356 -0.10901502 -0.182866 0.16612525 0.08160325 -0.14528081 0.22740287 0.117585815
-0.13023016 0.15323104 0.11242524 0.0001456909 0.14344804 0.070292845 0.025483126 0.0619786
-0.002078674 0.0041089565 0.008243028 -0.040298264 -0.10793611 -0.0034374457 -0.08689729 -0.13859417
0.07680841 -0.11530819 -0.1065805 0.117845304 0.11364985 0.06698017 0.018066334 0.03799764
-0.03149587 0.012958253 0.033122145 -0.18120614 0.03706194 -0.027323183 -0.0842659 -0.013160717
-0.2959152 -0.36147422 0.016361965 -0.30584237 -0.40837252 -0.026351234 -0.005755898 0.10528083
0.055671584 -0.026219418 -0.006770073 -0.02845037 0.0029659101 -0.08960283 0.0138946725 -0.11364402
-0.14660679 -0.046994288 -0.09752335 -0.0812818 0.06488042 -0.012565115 -0.038723048 0.18817851
0.1331249 0.025230318 0.1673522 0.07978947 -0.10735714 0.028942952 -0.07475469 -0.32523623
-0.15423799 -0.1511943 -0.16810136 -0.05010057 0.00025461556 0.02433181 0.096548334 0.1490901
0.2015802 0.026217835 0.07506464 0.049280334 0.030977584 -0.001248517 -0.09009091 0.1267292
-0.07964272 -0.20511515 0.015104802 -0.04913617 -0.27322793 0.11727869 -0.020763237 -0.1916958
0.27428696 0.13568354 -0.011578499 -0.22647883 -0.14656727 -0.16560683 -0.019900957 0.05977929
0.04162951 0.18522201 0.210462 0.14034168 -0.014851377 -0.10596229 0.061449505 -0.11274376
-0.23816764 -0.009749166 -0.07238949 -0.06434918 0.14979735 -0.05881101 0.09879992 0.13074884
-0.06877595 0.08298505 0.109671004 -0.13354966 -0.054588158 0.12251664 -0.11628717 -0.07516757
-0.14507091 -0.018845165 0.026634937 -0.082304694 0.10910946 0.01953498 0.070845135 0.009002177
-0.008379148 -0.039065994 0.019715138 -0.13291775 -0.28327578 0.15373997 -0.12134032 -0.3446077
0.035646964 0.09523479 0.15218858 0.10201286 -0.008129925 0.026696349 -0.03010852 -0.13814265
-0.17434134 -0.11938379 0.013257207 0.24492282 -0.12970027 -0.026354622 0.1592551 0.094967544
-0.03756237 -0.056063134 -0.09187031 -0.31055316 -0.2087334 0.006984857 -0.16733034 0.021889953
0.17650709 0.079543635 0.079426795 -0.10825983 -0.16023153 -0.07009975 -0.1158678 -0.17479263
-0.0631997 -0.18338783 -0.15887323 -0.046419322 -0.09924325 -0.164748 -0.123566605 -0.10471599
-0.09538754 -0.1745647 0.025917675 0.06303895 -0.046451773 0.18327296 0.11629589 0.16646703
0.051136345 -0.049918763 -0.000983335 -0.10152769 -0.0670442 -0.08733362 -0.07216953 -0.28859344
-0.19177273 0.07802731 -0.00792786 0.09620131 0.09801914 0.07586644 0.12157435 -0.033228006
0.17326081 0.19475642 0.03765712 0.061892368 0.08621069 0.012149626 -0.023078639 -0.11276208
0.17970572 0.12944102 0.008330162 0.17919494 0.21230024 0.08077994 0.12982358 0.21464638
0.02115193 0.07186536 -0.052415695 -0.06890621 0.10225227 0.084010206 0.03983619 -0.037869904
0.03827114 0.0870099 -0.12721476 -0.014113047 -0.14335276 -0.12937792 0.086448975 0.08007327
0.033423364 0.1663854 0.14716554 -0.1697127 -0.22349547 -0.27502164 0.032937378 0.07666209
0.0025013776 0.2088675 0.22949176 0.08409227 0.05467609 -0.09630729 -0.08396121 -0.008277685
00000000: df29 a2bc 4443 dfbd 3a41 3bbe bd1c 2a3e
00000010: 9b1f a73d 7ec4 14be 4cdc 683e d5d0 f03d
00000020: 0e5b 05be 99e8 1c3e 343f e63d 9ac4 1839
00000030: 0be4 123e b2f5 8f3d fdc1 d03c 46dd 7d3d
00000040: 5d3a 08bb 6da4 863b c40d 073c cb0f 25bd
00000050: 9b0d ddbd c546 61bb 35f7 b1bd a1eb 0dbe
00000060: ba4d 9d3d b326 ecbd e146 dabd e158 f13d
00000070: 41c1 e83d e62c 893d d9ff 933c 6aa3 1b3d
00000080: d001 01bd da4e 543c 16ab 073d 1a8e 39be
00000090: 43ce 173d ded4 dfbc 9a93 acbd 0ca0 57bc
000000a0: 3282 97be 2613 b9be 8709 863c 5f97 9cbe
000000b0: 3416 d1be 8bde d7bc f99b bcbb 7a9d d73d
000000c0: e307 643d 1bca d6bc 7dd7 ddbb c010 e9bc
000000d0: b75f 423b b081 b7bd 7ba6 633c 32be e8bd
000000e0: 1720 16be 157d 40bd 52ba c7bd 1377 a6bd
000000f0: 07e0 843d e9dd 4dbc 0f9c 1ebd deb1 403e
00000100: e551 083e d0af ce3c 605e 2b3e a968 a33d
00000110: 0fde dbbd c519 ed3c fd18 99bd 5d85 a6be
00000120: 90f0 1dbe aed2 1abe c322 2cbe 4136 4dbd
00000130: ec7d 8539 8153 c73c 22bb c53d 13ab 183e
00000140: 0a6b 4e3e c9c6 d63c 7dbb 993d 2dda 493d
00000150: b4c4 fd3c 47a5 a3ba 9581 b8bd 4dc5 013e
00000160: b91b a3bd b509 52be 227a 773c 0243 49bd
00000170: 88e4 8bbe cf2f f03d aa17 aabc e74b 44be
00000180: 576f 8c3e a0f0 0a3e bfb3 3dbc 11ea 67be
00000190: bb15 16be d694 29be 5507 a3bc 21db 743d
000001a0: b483 2a3d d7aa 3d3e 5a83 573e bbb5 0f3e
000001b0: 3153 73bc c202 d9bd 7ab2 7b3d 33e6 e6bd
000001c0: 38e2 73be f7ba 1fbc f140 94bd 81c9 83bd
000001d0: 7a64 193e d0e3 70bd 9d57 ca3d 06e3 053e
000001e0: 68da 8cbd 11f4 a93d 319b e03d 3ec1 08be
000001f0: d597 5fbd 01ea fa3d f827 eebd 74f1 99bd
00000200: 788d 14be 2d61 9abc 8331 da3c 5d8f a8bd
00000210: c874 df3d d307 a03c 4117 913d de7d 133c
00000220: b248 09bc aa03 20bd a481 a13c 971b 08be
00000230: 8609 91be 036e 1d3e 4681 f8bd 6c70 b0be
00000240: 8d02 123d 750a c33d 53d7 1b3e 1eec d03d
00000250: 6033 05bc 4db2 da3c 25a6 f6bc 4475 0dbe
00000260: 8986 32be 7d7f f4bd c234 593c 0ccd 7a3e
00000270: 26d0 04be a6e5 d7bc c513 233e 587e c23d
00000280: 00db 19bd 75a2 65bd 8026 bcbd d300 9fbe
00000290: 35be 55be 3ae1 e43b a558 2bbe 8f52 b33c
000002a0: 46be 343e c6e7 a23d 84aa a23d 54b7 ddbd
000002b0: bc13 24be 7590 8fbd 194c edbd d7fc 32be
000002c0: d86e 81bd 05ca 3bbe aaaf 22be 3022 3ebd
000002d0: 0c40 cbbd b3b3 28be 7d10 fdbd 5675 d6bd
000002e0: 8b5a c3bd 17c1 32be 4e51 d43c 911a 813d
000002f0: 3744 3ebd e8ab 3b3e 8a2c ee3d 5576 2a3e
00000300: 5874 513d 9e77 4cbd 3fe3 80ba c0ed cfbd
00000310: 784e 89bd f8db b2bd 9ecd 93bd 85c2 93be
00000320: 1260 44be c8cc 9f3d dbe3 01bc 3105 c53d
00000330: 42be c83d dd5f 9b3d f9fb f83d 171a 08bd
00000340: 486b 313e 3a6e 473e 5a3e 1a3d da82 7d3d
00000350: 3b8f b03d 3a0f 473c 6a0f bdbc ceef e6bd
00000360: c704 383e 308c 043e 3b7b 083c e17e 373e
00000370: 3c65 593e f46f a53d 79f0 043e 43cc 5b3e
00000380: d046 ad3c 252e 933d d7b1 56bd b31e 8dbd
00000390: a369 d13d 8b0d ac3d 462b 233d 791d 1bbd
000003a0: 33c2 1c3d 3f32 b23d 9644 02be 693a 67bc
000003b0: 11cb 12be a57b 04be 290c b13d 74fd a33d
000003c0: f0e6 083d ef60 2a3e 90b2 163e 2bc9 2dbe
000003d0: ffdb 64be a3cf 8cbe 58e9 063d 0401 9d3d
000003e0: 27ee 233b 5de1 553e e3ff 6a3e 9138 ac3d
000003f0: 09f4 5f3d c23c c5bd dbf3 abbd 219f 07bc

onnx::Conv_93 f4 [32]
0.41629922 -0.19356038 -0.15591995 -0.28347513 0.103197336 -0.25115812 -0.062767625 0.2746702
-0.35217172 0.5506725 0.23775572 -0.2976567 0.098739415 -0.14697158 -0.3444689 0.54191107
-0.09429607 0.062894434 0.20740762 0.32976067 0.16525364 0.39634618 -0.4101612 -0.73019
0.40234935 0.24295703 -0.09905313 0.071742505 -0.09546322 -0.2579295 0.23942038 0.13263166
00000000: 2c25 d53e b134 46be 7ba9 1fbe a723 91be
00000010: 2059 d33d cc97 80be 508c 80bd 93a1 8c3e
00000020: da4f b4be dff8 0c3f 3c76 733e 7566 98be
00000030: e437 ca3d b87f 16be 3a5e b0be afba 0a3f
00000040: 4c1e c1bd ccce 803d aa62 543e 64d6 a83e
00000050: 4038 293e e3ed ca3e a600 d2be bbed 3abf
00000060: bc00 ce3e bac9 783e 5edc cabd bced 923d
00000070: 3882 c3bd 560f 84be 9e2a 753e 98d0 073e

onnx::PRelu_94 f4 [8, 1, 1]
-0.36662045 -0.2137897 -0.2467716 -0.12819688 -0.04659708 -0.11505302 -0.17150936 0.03648856
00000000: adb5 bbbe b0eb 5abe b2b1 7cbe 0b46 03be
00000010: 94dc 3ebd eba0 ebbd 26a0 2fbe 0775 153d

onnx::PRelu_95 f4 [16, 1, 1]
-0.21979102 0.12017645 -0.16930315 -0.1895207 -0.26287162 -0.24584086 -0.12542789 -0.02663857
-0.1922983 -0.56956863 -0.285026 -0.15271224 -0.34787592 -0.23707323 0.061062608 -0.46639872
00000000: e610 61be 121f f63d ce5d 2dbe b711 42be
00000010: 1c97 86be b5bd 7bbe 2b70 00be 2139 dabc
00000020: d8e9 44be 40cf 11bf eeee 91be 9960 1cbe
00000030: cb1c b2be 53c3 72be c91c 7a3d d0cb eebe

onnx::PRelu_96 f4 [32, 1, 1]
0.26605275 0.121143326 0.11395414 0.18413313 0.26972452 0.1964 0.21497753 0.13668473
0.2909473 0.11722598 0.18999101 0.1879333 0.23308891 0.19433801 0.1957046 0.19078134
0.17812929 0.22996506 0.1762727 0.2244768 0.0927083 0.17679068 0.10990815 0.18175916
0.22560686 0.17598455 0.16463886 0.17885545 0.16863489 0.19503959 0.13711521 0.14467001
00000000: 1138 883e fe19 f83d ca60 e93d 658d 3c3e
00000010: 5519 8a3e 151d 493e 1223 5c3e 15f7 0b3e
00000020: 0bf7 943e 2d14 f03d 018d 423e 9671 403e
00000030: dcae 6e3e 8b00 473e c966 483e 2f5c 433e
00000040: 8667 363e f67b 6b3e d580 343e 3fdd 653e
00000050: d9dd bd3d 9e08 353e 8617 e13d 131f 3a3e
00000060: 7c05 673e 4b35 343e 1797 283e e225 373e
00000070: a0ae 2c3e 75b8 473e ee67 0c3e 6024 143e
