src/app/epic7/assert/rta_cls.pt (torch, 37463 bytes, 23 tensors)

weight f4 [8, 3, 3, 3]
000000 45 01 21 3d dc 85 1e be ac 7c eb bd b8 9d 97 3d
       0.03930785 -0.15480751 -0.11498389 0.07403129
000010 f5 18 a7 3d a8 dd 59 3e 4a b6 42 3e 19 b5 fa 3d
       0.08159057 0.21275961 0.1901485 0.12241573
000020 90 5c 1e 3e ae dd 63 bd 4b 80 cb bd ea 4a 1f be
       0.15464997 -0.055631332 -0.09936579 -0.15555921
000030 9d 98 a4 bc ab d4 4f bb e5 c0 19 be ba 06 fd bd
       -0.020092303 -0.0031712453 -0.1501499 -0.123547986
000040 ad fa 42 3d 9f ea 8e bd 7f fb 1e be 38 83 58 be
       0.047602344 -0.06978344 -0.15525626 -0.21143806
000050 0e 30 39 be 72 4f e6 bc f2 ff 07 3d d5 46 bd bd
       -0.18084738 -0.028114054 0.033203073 -0.09242026
000060 92 a3 5c 3d 34 99 96 bd 93 09 ec bd 7d 9e d9 bd
       0.05386693 -0.0735344 -0.11525264 -0.10625932
000070 65 84 01 be 2d 8c 49 be 62 83 d6 bd d6 6a 84 bd
       -0.12648161 -0.19682379 -0.10474278 -0.0646569
000080 c9 3c 13 3d e2 28 54 be ad 45 09 be 1a 09 b7 bd
       0.03594664 -0.2071872 -0.13405485 -0.08937283
000090 c7 7d 2c be e1 3a 80 bd c1 d1 22 be 78 28 e5 3d
       -0.16844855 -0.0626123 -0.15900327 0.111893594
0000a0 23 56 d6 bd 5b f4 00 3d 1d 70 2e be a2 e6 41 bd
       -0.10465648 0.031483036 -0.17034955 -0.04733909
0000b0 0b 23 69 3d 87 ef 48 bd e4 62 2d 3e 8c a8 49 3e
       0.056918185 -0.049056556 0.16932255 0.19693202
0000c0 be 7a 37 bd 81 a5 a9 3d 28 91 79 bd 83 a5 f8 bd
       -0.04479479 0.082835205 -0.060929447 -0.12140944
0000d0 25 fc 4e 3e bf 38 5a 3e 4d 85 ee 3c 4d 1b 90 3c
       0.20213373 0.2131071 0.029116297 0.017591143
0000e0 41 39 03 be fb 0a 58 bd d3 33 07 be db 0f ea 3d
       -0.1281481 -0.052744847 -0.13203363 0.114288054
0000f0 e7 35 13 3e 8d 57 56 3c cc 6c 79 3d b6 ae 0d be
       0.14376031 0.013082397 0.060894772 -0.13836178
000100 ee bd 33 bc c2 83 86 3d b8 f6 1a 3d 30 51 01 bd
       -0.010970576 0.065680996 0.037832946 -0.031571567
000110 24 f0 b3 3d 08 73 b9 3d 77 66 89 bd 94 ce 0e be
       0.087860376 0.090551436 -0.06708997 -0.13945991
000120 19 55 03 3e aa 22 0a be 27 88 ea ba c6 f9 8a 3e
       0.12825431 -0.13489786 -0.001789336 0.27143687
000130 24 c3 ca 3e 70 6f 09 3e fa 79 b2 3e 2b 63 79 3e
       0.39602005 0.13421416 0.34858686 0.24354236
000140 11 eb e0 3c 42 41 ac bd ab 96 06 3d 8c a8 bf 3c
       0.027455838 -0.084108844 0.032858532 0.0233958
000150 3c 25 c1 bd 1f 74 07 3e 03 55 e8 3c 48 4a 1e be
       -0.0943093 0.1322789 0.02836085 -0.15458024
000160 9d 28 94 bd 4f ea 8b 3c 61 a3 0a 3d 2b b7 5b 3d
       -0.07234309 0.0170795 0.033847217 0.05364148
000170 28 57 ed bc 45 0b 8c 3e 7a 71 52 3d 86 29 3f 3e
       -0.028972223 0.27352348 0.05137775 0.18668184
000180 b7 86 78 3e 7d ce 98 3c 5b aa 62 3e 23 37 08 bd
       0.2427014 0.018653149 0.22135298 -0.033255707
000190 ac d4 9a bd 1c 5e 07 be cb e2 78 be 5a 54 e6 bc
       -0.07560095 -0.13219494 -0.24305265 -0.028116394
0001a0 d8 93 ed bd 85 34 61 be 66 e4 25 be e4 cb 49 be
       -0.116004646 -0.21992691 -0.16200408 -0.19706684
0001b0 7f 90 13 be dc 24 c6 3d 8a 5d e4 bd ed da e1 bc
       -0.1441059 0.09674999 -0.11150654 -0.027570212
0001c0 90 a1 b5 bd 20 f8 53 bd 65 fb 2e 3e d3 49 b9 3c
       -0.08868706 -0.051750302 0.17088087 0.02261821
0001d0 de 70 29 be ba b8 cc bd f7 79 f8 bb bd d5 2b be
       -0.16546962 -0.09996171 -0.0075828987 -0.16780753
0001e0 35 35 e8 bd c5 22 02 3e 3a 07 44 3d 70 72 fc 3d
       -0.113382734 0.12708576 0.047858454 0.12326515
0001f0 b0 cb 2c 3e d6 10 75 3d fc 60 6b bd b0 78 3d 3d
       0.16874576 0.05983051 -0.05746554 0.046257675
000200 97 da 99 be a6 88 8d 3d 19 69 5d be 39 df 92 be
       -0.30049583 0.06910829 -0.21622123 -0.2868593
000210 b5 4a 1b bd d1 82 2a 3e 43 8e 4a be f9 ea 87 be
       -0.037913043 0.16651465 -0.19780831 -0.26546457
000220 e3 4b 38 bc a7 bc a8 be a4 21 94 bc e8 5c 81 3d
       -0.011248562 -0.3295643 -0.018082447 0.063165486
000230 01 eb bb 3c 55 59 14 3d 0f b5 be 3c 7f 8c b5 bd
       0.022939207 0.036218006 0.023279695 -0.08864688
000240 20 3e 01 be 76 5b 37 bd 85 41 16 be d5 84 4f bd
       -0.12621355 -0.04476496 -0.14673431 -0.050663788
000250 11 50 d9 3d 3f 5e 0d 3e b8 09 83 bd 04 a8 4d 3e
       0.106109746 0.13805483 -0.06398338 0.20083624
000260 e9 2f bc 3d 81 51 0a be 2e d1 bb 3d a3 bb 3b be
       0.09188826 -0.13507654 0.09170757 -0.18333296
000270 29 22 bf 3d 8b 64 58 bd 54 99 1c be b5 15 36 3d
       0.093326874 -0.05283026 -0.15292865 0.044454295
000280 fb 3c 19 3e 49 f8 02 3e 8c 0d 37 be 73 6a 7a bd
       0.14964668 0.12790026 -0.17876261 -0.061136674
000290 4a b6 7c 3e 03 4a 47 be 33 cb a9 3c b0 7d 8a bd
       0.24678913 -0.19461827 0.020726776 -0.06762254
0002a0 86 19 05 3e 8f ca ba 3d f7 0f c5 3c 5b 10 fe bd
       0.12998018 0.09120666 0.024055464 -0.12405463
0002b0 85 0b 99 bd f7 0c be bb cc d0 63 ba fa e3 26 3e
       -0.074729 -0.0057998854 -0.0008690476 0.16297904
0002c0 6f 97 b5 3d f4 0a 4f 3c fd f5 c5 3d 12 ea 4b be
       0.08866774 0.012636889 0.09666059 -0.1991351
0002d0 25 15 ae 3d c2 5f 01 be d4 8f b8 3d e9 a0 26 3c
       0.08500127 -0.12634185 0.09011808 0.0101702
0002e0 a4 bb 25 3e 68 df d6 3b 2a 40 cc 3b 29 01 3c bb
       0.1618486 0.006557394 0.006233235 -0.0028687215
0002f0 fe 73 6c be c0 01 20 be 8d a9 be be 84 15 45 be
       -0.23091123 -0.15625668 -0.37238732 -0.19246489
000300 04 3f 1e 3e 04 d7 7c be 29 66 59 be 49 89 f8 3d
       0.15453726 -0.24691397 -0.21230377 0.1213556
000310 f0 1f a6 be a1 42 88 be 15 aa 9d bd 93 aa 2e 3e
       -0.3244624 -0.26613334 -0.07698456 0.17057256
000320 8b 23 cb 3d a0 e3 4f 3e 70 a7 9d bd 21 76 76 3d
       0.09918889 0.20301676 -0.07697952 0.06017125
000330 10 b9 30 be fc c6 52 3e b9 e3 12 3d 2d e4 28 3e
       -0.17258096 0.20583719 0.035861704 0.16493292
000340 3d 6f 00 be d0 36 37 bb 6a f1 16 be e7 54 0c 3e
       -0.12542434 -0.0027956255 -0.1474053 0.13704263
000350 0f 60 32 be 31 8a 84 bc c1 95 19 be 66 3b fb 3d
       -0.17419456 -0.016179176 -0.14998533 0.12267189

bias f4 [8]
000000 cc 66 b0 3c db ca aa bd d8 c9 e1 bd ed 89 26 be
       0.021533392 -0.08339473 -0.11024827 -0.16263552
000010 b8 59 1e 3e 1e 3e 0c be 1c c0 6c be 71 5b 37 3c
       0.15463912 -0.13695571 -0.23120159 0.011191235

weight f4 [8]
000000 c9 5d 5b 3f c4 0e 53 3f cc 05 6c 3f 9f ef 76 3f
       0.8568998 0.82444406 0.92196345 0.9645938
000010 c2 76 67 3f 7e a5 7e 3f b9 90 78 3f 62 5e 82 3f
       0.90415585 0.9947127 0.9709583 1.0185053

bias f4 [8]
000000 14 d8 de bd f3 1f 25 be fd 56 dd bb 5c ce 4a bd
       -0.108810574 -0.16125469 -0.0067547546 -0.049513206
000010 de b8 53 be ed ab 8c be 59 bf 4e be 95 83 28 3e
       -0.2067599 -0.2747492 -0.20190181 0.16456445

running_mean f4 [8]
000000 df bb 2b be cd 42 90 be 5b 29 73 3e d2 00 8d be
       -0.16770886 -0.28175965 0.23746245 -0.27539688
000010 dd 9f b8 bd b3 a9 80 be 9e 0c 74 be 3b ea 94 be
       -0.090148665 -0.2512947 -0.23832938 -0.29084954

running_var f4 [8]
000000 de c6 6b 3d b3 9d 9e 3d 0e ed 0c 3e e8 2b bc 3c
       0.0575627 0.077449225 0.13762304 0.022970155
000010 c1 e7 8c 3d 70 f6 c6 3c 0d b6 c6 3a f0 af 02 3e
       0.06880141 0.024287432 0.0015160457 0.12762427

weight f4 [8]
000000 9b cd 91 3d e8 fb 32 3d 68 21 ee 3c c2 75 49 bc
       0.07119294 0.043697268 0.029068664 -0.012296142
000010 34 94 0b 3e d9 ba 54 bd 0a d3 ba bd e0 3f 5a be
       0.13630754 -0.051936004 -0.09122284 -0.21313429

weight f4 [16, 8, 3, 3]
000000 26 9f 99 3d ab 61 cf 3d ff 0f 96 3d 5a 56 ba 3d
       0.07501058 0.101260506 0.0732727 0.090985015
000010 a6 77 4e 3e 39 71 cb 3d 11 ae f3 3c 0c 93 24 3c
       0.2016283 0.09933705 0.029746087 0.010044824
000020 e4 ac 3f 3d 5c 84 dc 3b ae 15 17 3d be db b8 ba
       0.04679574 0.0067296457 0.03688591 -0.0014103574
000030 80 3b 2c be 9c f7 90 bd de 60 0f be 75 0f 8b bc
       -0.16819572 -0.07078478 -0.14001796 -0.016975144
000040 12 0e 7d bd 71 a5 a1 3d c7 e3 6b 3c 88 21 0e be
       -0.061780997 0.078928836 0.014397568 -0.13879979
000050 3f 78 54 3c 71 09 1f bd 09 75 3c bc b0 4f 58 3c
       0.012968122 -0.038827363 -0.011502513 0.013202593
000060 a7 7e 73 3d b0 fd 06 3d 84 7f 52 bc 91 f1 d4 3d
       0.059446957 0.03295678 -0.012847785 0.10397638
000070 51 93 12 3d 36 6d 0f 3e ab 74 5c bd e3 e3 69 bb
       0.035785023 0.14006504 -0.0538222 -0.003568881
000080 e5 99 d6 3b 75 13 b6 3d 89 97 e2 3d c1 a9 a0 3d
       0.0065491074 0.0889043 0.11064059 0.07844878
000090 59 0e 89 be af ae ca bd ef 7b 50 be fd d7 76 be
       -0.2676876 -0.098965995 -0.20359777 -0.2410583
0000a0 a1 bd 66 be e3 50 4b be 4c 74 54 be 85 a3 84 be
       -0.22533275 -0.19855075 -0.20747489 -0.25906006
0000b0 8f 6c b8 be 14 9d 03 bd ec da 2d bd 84 62 5e bc
       -0.36020324 -0.032132223 -0.04244511 -0.013573293
0000c0 06 fc 43 3e 8a 48 93 3e a0 b8 1e 3e 94 87 23 3e
       0.19139108 0.2876628 0.15500116 0.15969688
0000d0 5b 42 09 3e 05 47 0b 3c eb a4 0b bd 70 c3 d6 3c
       0.13404219 0.008500819 -0.034092825 0.026216239
0000e0 44 c1 58 bc 65 70 86 3d f0 2b be bc 11 58 35 bd
       -0.013229672 0.06564406 -0.02321431 -0.04427344
0000f0 32 f5 0a be 27 8d 74 3c 57 13 01 be 07 2b 12 3d
       -0.13570097 0.0149262315 -0.12605034 0.035685565
000100 c9 05 53 3e 2b 77 b3 3d 23 f1 4b bd 9f 3f 57 3d
       0.20607676 0.08762964 -0.049790513 0.05255091
000110 25 26 d6 bd 62 2a b7 bd 5f e8 63 3d d5 bc 9d bd
       -0.10456494 -0.08943631 0.05564153 -0.077020325
000120 7c 92 8d bd 83 63 c6 bd a4 55 fb bc de e1 59 be
       -0.06912705 -0.09686949 -0.030680485 -0.21277568
000130 76 78 f2 bc d7 18 61 bd ce a5 30 be 8e 3f af bd
       -0.029598456 -0.05495533 -0.1725075 -0.08557044
000140 bb 86 ce bc 90 1c bc 3d 0e db 0a be f8 3e a9 bc
       -0.025210729 0.09185135 -0.13560125 -0.020659909
000150 67 e8 e1 3d 9e 4e 0f bd 25 77 bc 3c 44 c4 53 3e
       0.11030655 -0.034987085 0.023006031 0.20680338
000160 bc b7 3b bd 57 4c 0d bd 0f 29 3c bc 89 d5 fb bc
       -0.04582952 -0.03449663 -0.0114843985 -0.03074147
000170 5d 9c 0d 3d 35 75 74 bd c3 97 6e bd 47 90 db bb
       0.034572948 -0.05968209 -0.0582502 -0.006700549
000180 f6 fe b1 bd dd fd c5 3d f1 be 25 3d 3b 8d 6e bd
       -0.08691208 0.09667561 0.0404653 -0.058240157
000190 db db b8 bd f6 66 52 bc d2 3c 97 3d 41 ec 11 3e
       -0.09026309 -0.012841931 0.073846474 0.1425028
0001a0 2a 65 28 3e 42 4a c7 bd 38 3c 80 bd 08 33 83 bd
       0.16444841 -0.097309604 -0.06261486 -0.06406218
0001b0 c8 a2 9c 3d 73 bd 4b bd 93 6b da 3c 1d 6e 0d 3e
       0.076482356 -0.04974122 0.026662624 0.13811536
0001c0 8b 7f 4a 3e a1 d9 9f 3d 50 1f 90 3d 4f 29 3b bd
       0.19775216 0.07805181 0.070372224 -0.04569369
0001d0 97 15 27 3d b8 00 73 3e 13 c4 05 3e 6e 48 77 3e
       0.040792074 0.23730743 0.13063078 0.24148723
0001e0 bb 9d 4e 3e 04 c7 fe 3d f7 54 10 3e 1a 4d e4 bd
       0.20177357 0.12440303 0.14094912 -0.111475185
0001f0 49 8a 42 be 88 f4 d2 bd e3 be c9 bc 2d a7 3d bd
       -0.18998064 -0.10300547 -0.024627155 -0.04630201
000200 86 57 69 3c 62 b3 41 3d ea ef 53 bd 8f c3 30 bc
       0.014242059 0.047290213 -0.05174247 -0.010788812
000210 7f 4d bc bc 6e 33 a4 bd 01 17 57 3c 43 77 3e 3d
       -0.022986172 -0.08017622 0.013128043 0.046500456
000220 4b 49 32 3e df cb 8b 3d a1 f1 63 3d 9b b3 09 bd
       0.17410772 0.06825995 0.055650357 -0.03361855
000230 36 28 1a bc 6d 56 23 bc 0c b1 20 3e 72 e7 69 3e
       -0.009409001 -0.009969336 0.15692538 0.22842196
000240 05 07 6e 3d 06 f0 e9 3c c4 75 a0 3d 87 50 f1 bc
       0.058112163 0.028556835 0.07834962 -0.029457344
000250 eb 1d 3a bd b9 3c 8d bc b4 63 92 bd c2 29 d7 bd
       -0.04543869 -0.017240869 -0.07147923 -0.105060115
000260 9c 9f ac 3d 5e 97 9b 3d 0c 55 30 3e db 2f 62 3e
       0.084288806 0.075972304 0.17219943 0.22088568
000270 d8 bb 4b 3e 1b 0b 6a 3e 22 5f 2d 3e 3c 2a 2e 3e
       0.19895875 0.22855799 0.16930822 0.17008299
000280 f8 14 1b 3e a4 c5 9e 3d 8f c5 b0 bd 22 82 40 3c
       0.15144718 0.07752541 -0.08631431 0.011749776
000290 46 73 f5 bd d7 c5 12 3d 3f 14 70 bd a9 4b 09 3d
       -0.11984877 0.035833206 -0.05861306 0.03351942
0002a0 07 dc 31 bd 02 94 52 bb ad ae 2a be f6 4d fa bd
       -0.043422725 -0.0032131677 -0.16668196 -0.12221901
0002b0 49 c5 fb bd a9 06 27 be 1e 05 e8 bc 9d e6 91 b9
       -0.122934885 -0.16311134 -0.028322753 -0.00027828375
0002c0 2d 62 23 bd 83 17 49 bd 92 08 b1 bd 6c ae e6 b9
       -0.03988855 -0.04909469 -0.08644213 -0.00043998973
0002d0 43 b3 10 3e 63 9d 37 3d ec 3f 8f 3a ce 28 03 bb
       0.14130883 0.04482783 0.0010929084 -0.0020013335
0002e0 a3 5b 2c bb 8d 93 23 3e 06 80 4f 3d 3e f8 97 3d
       -0.0026299737 0.15974255 0.050659202 0.07420395
0002f0 63 99 99 3c d9 19 09 bc ae cb 06 3e b5 c6 d1 3d
       0.018749898 -0.008367979 0.13163635 0.102429785
000300 16 6e 56 3d d7 6a d1 bc 07 78 b9 3d ab a0 29 3d
       0.05235108 -0.02556364 0.090560965 0.04141299
000310 7b 81 d1 3d 12 69 16 bd b8 ed 90 3d 38 65 8a 3d
       0.102297746 -0.036721297 0.07076591 0.06757587
000320 96 94 90 3d da 96 19 bd 73 ae d5 bc d9 4f 5f bc
       0.070595905 -0.03749738 -0.02608416 -0.013629877
000330 b4 eb 38 bb c6 c3 96 bc bf f3 6a bb 81 01 19 3e
       -0.0028216662 -0.018403899 -0.003585085 0.1494198
000340 8e 31 0b 3e 7f 59 24 3e 03 a2 10 3e 4a f9 db 3c
       0.13593122 0.16049765 0.14124303 0.026852269
000350 7a 73 44 3e 22 53 b1 3d 48 d0 21 3e 57 9e 43 3e
       0.19184676 0.086584345 0.15802109 0.1910337
000360 e4 f7 54 3e 10 9a 7e 3e 7a ea 0e 3e c7 9b b9 3d
       0.20797688 0.24863458 0.13956633 0.09062915
000370 9f 8c a1 3c 0c 84 79 3d 2c a8 fa bc ea 90 51 3c
       0.019720374 0.060916945 -0.030597769 0.012790898
000380 4c 3e 8c bd d0 5c a1 bd af 9f 1e bd 40 47 2a be
       -0.0684782 -0.07879031 -0.038726505 -0.16628742
000390 17 ce c7 bd 8e 2b 90 bb 7d 0f 7f bc b4 b4 4d bd
       -0.097561054 -0.0043997234 -0.015567658 -0.05022116
0003a0 9c 95 51 bc ff 60 8c 3b 1c c7 a1 bd 3b 13 a3 3b
       -0.012792017 0.004284024 -0.07899305 0.0049766577
0003b0 cd fd a7 bd 10 ad b4 bd ed 2c de bb 1e ed c5 bd
       -0.082027055 -0.088220716 -0.006780258 -0.09664367
0003c0 0a e9 9b 3d d2 62 04 3e bc 27 27 3e c6 9d cb 3d
       0.07612808 0.12928322 0.16323751 0.09942202
0003d0 05 04 c0 3d c0 f1 12 3e a5 51 a9 3d db fc 9a bd
       0.09375767 0.14350033 0.082675256 -0.075677596
0003e0 90 a1 74 bc ec b0 4f bd f4 6c 5a bd e2 45 40 be
       -0.014931098 -0.050705835 -0.053326562 -0.18776658
0003f0 bf 4e 4c bd 33 1d 94 3b 9e 63 1f 3e 7b 32 47 3d
       -0.049879786 0.0045200824 0.15565345 0.048632126

bias f4 [16]
000000 dd 5c bc 3c fa 62 4a 3b 35 1f 1e be 77 b1 0f 3d
       0.0229935 0.0030881749 -0.15441592 0.035081353
000010 76 2f f1 bc 6b ed e1 bc cc ee 97 3b 4e da 01 bd
       -0.029441576 -0.02757903 0.004636621 -0.031702332
000020 f5 33 7d bc 57 1f 14 be b7 22 62 bd 33 93 94 3b
       -0.015454282 -0.1446508 -0.055208888 0.004534149
000030 c1 7c 02 3d 9e 9e f5 3d 75 ad 4d bc f6 12 cb bd
       0.031857256 0.119931445 -0.012553562 -0.09915726

weight f4 [16]
000000 73 84 59 3f 82 ec 69 3f 84 bf 63 3f 2f 2e 75 3f
       0.84967726 0.9137651 0.88964105 0.95773596
000010 2d e8 70 3f dd aa 6e 3f bb fe 84 3f 4a 2d 66 3f
       0.9410427 0.93229467 1.0390238 0.89912856
000020 6c 55 69 3f eb 38 89 3f f7 49 7f 3f 6a 4b 49 3f
       0.9114597 1.0720495 0.99722236 0.786307
000030 5f 00 48 3f 80 77 62 3f 1b 13 86 3f 1c b0 64 3f
       0.78125566 0.8846359 1.047458 0.8933122

bias f4 [16]
000000 40 6d ac bd 44 43 66 be 67 bb af bd 44 49 cd bd
       -0.08419275 -0.22486597 -0.08580666 -0.1002374
000010 7a 4a c2 bd 3a 05 0d be 70 a4 24 be 94 41 9a be
       -0.094868615 -0.13771525 -0.16078353 -0.30128157
000020 74 c5 59 be 03 93 6e be 1a 8d a7 bd d9 c5 0f 3c
       -0.21266729 -0.23298268 -0.0818121 0.008775198
000030 15 23 58 be 9c da 6d 3d b0 58 51 be 32 42 65 bd
       -0.21107133 0.05806981 -0.20443988 -0.055971332

running_mean f4 [16]
000000 73 76 0f 3e 66 6f e5 3e 8f cc 3c 3f 63 43 1f 3f
       0.14010029 0.44811553 0.7374963 0.622122
000010 b0 9f 8d be 57 bd 74 bd 84 07 c1 be 7b 68 2f 3f
       -0.27660894 -0.05975088 -0.37701046 0.685188
000020 b3 ca 91 be a8 88 70 bf 45 b4 b2 be 65 ef 9d be
       -0.2847496 -0.9395852 -0.3490316 -0.30846706
000030 5b 73 61 3f 93 45 f0 3d 65 25 05 bf 44 5f 1d bf
       0.88066643 0.1173202 -0.52010185 -0.6147349

running_var f4 [16]
000000 37 97 12 3e 42 4c 6b 3e 9d 30 65 3f 3f d3 41 3e
       0.14315496 0.22978309 0.89527303 0.1892824
000010 e4 03 fc 3d ba 5c c6 3e 05 43 ab 3e ba 59 bd 3e
       0.123054296 0.3874262 0.3344957 0.36982518
000020 2b a2 8c 3d ae 58 01 3e d0 ff d0 3d d1 05 95 3e
       0.068668686 0.12631485 0.10205042 0.29106
000030 3a a8 8e 3e d7 75 d0 3e f2 82 e6 3d 68 2d 90 3e
       0.27862722 0.40714905 0.112554446 0.28159642

weight f4 [16]
000000 fa 1a 0d bd ca 5a 1b bc a7 75 f4 3c 99 30 7f be
       -0.034449555 -0.009482095 0.029841257 -0.24920882
000010 5c 6a 8c be c8 51 9f bd 52 07 8f be 9f 8f b3 bd
       -0.27424896 -0.077792704 -0.27935272 -0.08767628
000020 b2 6f 87 bd 51 e7 49 be f7 c6 8d be 94 ab 72 be
       -0.06613101 -0.19717146 -0.2769086 -0.23698264
000030 9e 36 6b be 1e 04 4c 3c d6 b2 93 be b0 b1 1f 3d
       -0.22970054 0.0124521535 -0.28847378 0.038987815

weight f4 [32, 16, 3, 3]
000000 de b0 24 3d 0a 81 5e 3c 4a 59 2b bc a5 f9 45 3d
       0.040207736 0.01358057 -0.0104583 0.048333783
000010 81 04 9c 3c b3 a2 12 bc 38 4e 8a bc d8 41 b4 3c
       0.019045116 -0.008949923 -0.016883 0.022004053
000020 73 eb 96 3d 9c 25 08 3d b3 49 4e 3d 62 a5 c1 3d
       0.07369127 0.033238992 0.050363254 0.094553724
000030 3c 63 b1 bb 5a 85 8a bd 29 3c 75 3d 40 6c 8e 3b
       -0.005413441 -0.06763716 0.059871826 0.0043464005
000040 8a 71 da 3d 34 87 fa 3c a1 28 a9 bc 78 7a 96 3d
       0.10666187 0.030582048 -0.020649256 0.07347578
000050 29 e4 ff bc 58 f3 89 3c 8c 8a 87 bd f2 24 38 bd
       -0.031236725 0.016839668 -0.066182226 -0.04495711
000060 d8 ab 29 bc e3 45 c6 bd bd 51 a2 bc 43 4b 8f 3c
       -0.010355912 -0.096812986 -0.019814366 0.017491942
000070 6d 1b 46 3c 1a 25 a7 3c 74 59 0a ba b3 13 c9 3b
       0.0120915 0.020403434 -0.0005277612 0.0061363815
000080 0b cf 20 bd 75 e5 c0 3d fc 40 27 3d d2 21 ec 3c
       -0.03925995 0.094187655 0.04083346 0.02882472
000090 69 9d b9 3d 49 b6 8d 3d cd 7a 0a 3e 00 30 20 3e
       0.09063227 0.06919534 0.13523407 0.1564331
0000a0 d9 bc e5 3d c3 d6 40 3e 94 ae a4 3d c2 10 2c 3d
       0.112176605 0.18831925 0.08041111 0.04200817
0000b0 56 59 f0 3d c5 6c af bc b2 b6 f8 bc f3 ce b4 bd
       0.117357895 -0.02141417 -0.030360553 -0.08828535
0000c0 30 31 aa bd fb 98 f3 bc ea 35 a2 bd ad 48 97 bd
       -0.08310163 -0.029736033 -0.079204395 -0.07386909
0000d0 11 0e 2f bd 9b 49 f3 bd b7 32 b2 bd 9f a8 3e bd
       -0.042738024 -0.118792735 -0.08701079 -0.04654753
0000e0 56 64 97 bd b8 a5 bc bd cf 8b ad bd bd 1a 0c bd
       -0.073921844 -0.09211296 -0.08473932 -0.034205187
0000f0 6e b8 b6 bd 67 f4 1b bd 5b e5 20 bd b1 09 c8 3a
       -0.08921896 -0.038074877 -0.03928123 0.0015261677
000100 28 e6 9f bd ec a5 9d bc 7c a5 1f bb 03 91 3b 3d
       -0.07807571 -0.019244157 -0.002436011 0.04579259
000110 21 55 81 3d 19 d6 8b 3b a4 26 59 3d 98 2a 2d 3d
       0.06315065 0.004267466 0.053015366 0.04227695
000120 d5 bb 0a 3e 53 c0 e0 3d 8f e3 16 3e 8e ce fb 3d
       0.13548215 0.10974183 0.14735244 0.122952566
000130 c6 1e 3e bc ff d5 4b 3e 87 15 01 3e ae 3e c9 3d
       -0.011604017 0.19905852 0.12605868 0.09826408
000140 23 17 1c 3e 8d 8e 62 be 72 b6 5e be 1d 85 32 be
       0.15243201 -0.22124691 -0.21749285 -0.17433591
000150 48 66 3e be 79 af 10 be a0 f0 01 be 6d 6d 1e be
       -0.18593705 -0.14129438 -0.12689447 -0.1547143
000160 26 03 5b be 15 ab 22 be b3 8b 32 3e f2 8b e1 3d
       -0.2138792 -0.15885575 0.17436104 0.110130206
000170 5a 8b 1f 3e 84 3b 47 3e c4 28 b5 3d ad ba 52 3e
       0.15580502 0.19456297 0.08845666 0.20579024
000180 51 9a 0b 3e 02 a0 cc 3d af 53 29 3e 8c b0 03 3d
       0.13633086 0.099914566 0.16535829 0.03215079
000190 85 17 ca bc 4e 14 9a 3d 1f f2 4c 3d b3 dd 05 bd
       -0.024669418 0.07523404 0.050035592 -0.032682132
0001a0 93 69 07 3d 0e bd 11 3c 0c 81 67 bc e5 9c f9 3b
       0.033059668 0.008895172 -0.014129888 0.0076175802
0001b0 60 bf 4e 3d fe f1 12 3d 37 a5 6f 3d 88 a0 bb 3d
       0.05047548 0.035875313 0.05850717 0.09161478
0001c0 82 bc 32 bd 8d 73 c7 3c 6b 91 d2 3c 52 fa c5 3d
       -0.043636806 0.024347091 0.025704106 0.096668854
0001d0 8d c5 93 3d 80 1f b8 3d 3a 75 53 3d 52 b7 a5 3d
       0.07215414 0.08990383 0.051625468 0.08091606
0001e0 6e e7 22 3d 7e 4f 2f 3c 37 b3 d9 3d e4 fc 9e 3d
       0.03977149 0.010700105 0.10629886 0.07763079
0001f0 0b ad d2 3d f9 3b ae 3d e2 16 8a bd ed 54 0b bd
       0.102869116 0.085075326 -0.06742646 -0.03401654
000200 19 84 e0 bd 58 9b 81 bd df 28 f5 3a a6 10 4e bd
       -0.10962696 -0.063284576 0.0018704197 -0.050308846
000210 25 1e 51 bd 64 99 42 bd bc ee 3f bd aa 62 1c 3e
       -0.05105414 -0.047509566 -0.046858534 0.15272012
000220 e3 7a 29 3d c8 a5 18 3e 60 df b1 3d db 7a 96 3d
       0.04137696 0.1490699 0.086851835 0.073476516
000230 57 b0 50 3d ed 15 b8 3d a1 59 9a 3c e5 6c 72 3d
       0.05094942 0.08988557 0.018841567 0.05918588
000240 3d 02 7e bd e9 72 92 bc 02 99 10 be fd 68 a7 bd
       -0.062013853 -0.017877059 -0.14120868 -0.08174322
000250 ba 09 5e bd d3 8b 79 39 59 61 d0 bd 44 27 16 bd
       -0.054208495 0.00023798579 -0.101748176 -0.03665854
000260 44 e0 97 bd c9 20 e2 bc 01 5b 4a 3d b7 1e 58 bc
       -0.07415822 -0.027603524 0.049403194 -0.013190917
000270 da a8 9c bd 28 6b 8e 3c 14 a4 fc bd f1 d4 0c 3d
       -0.076493934 0.01738508 -0.12335983 0.034382764
000280 dc e8 df 3d f5 42 08 bd 89 d7 a1 bc 75 b2 df bb
       0.10933086 -0.03326698 -0.019756095 -0.0068266937
000290 96 25 62 39 6a 0b 11 3c 58 a7 63 bd 4c 29 93 3c
       0.00021567041 0.008852819 -0.055579513 0.017964028
0002a0 31 e1 75 bc 29 3d 2e bd 2f 91 13 3d 4e 59 2e 3c
       -0.015007303 -0.042538796 0.03602713 0.010641409
0002b0 1c 1c b0 3c 9b f8 b9 3c de 4d 54 3d f1 a0 63 3d
       0.021497779 0.022701552 0.051832072 0.055573408
0002c0 df 21 f8 3c 1f 37 34 bb 68 01 ff 3b 28 c2 84 3c
       0.030289588 -0.0027498675 0.00778215 0.016205862
0002d0 5d f9 05 bb f5 f4 f3 3c f1 b9 06 bc 05 0b 49 bd
       -0.0020442822 0.02977989 -0.008223043 -0.049082775
0002e0 cc 2d 05 3d 2e af 48 bd ac 85 11 bd 60 f2 59 3b
       0.03251438 -0.04899519 -0.03552787 0.003325604
0002f0 5f 56 35 bd 9c ca 4d 3d bd 9a cc 3d fd 37 0e 3e
       -0.044271823 0.05024205 0.099904515 0.13888545
000300 6a 97 ce 3d 36 b7 6b 3d 7f 2c 88 3d 45 24 bd 3d
       0.10087474 0.05754777 0.06649112 0.092354335
000310 f2 a7 21 3e f5 26 25 3e e1 27 93 3d ed 97 4f bd
       0.15786722 0.16128142 0.07185341 -0.050681997
000320 3a 5d 6d 3d 98 bd 18 bd 3b 8c 76 bd bc bd ed bc
       0.057950236 -0.037290186 -0.060192328 -0.029021136
000330 66 b9 3a 3d ba 4f 95 3c a4 82 85 3c df 77 db bd
       0.045586966 0.018226493 0.016297646 -0.10716223
000340 70 79 18 bd 49 30 1c bd f2 fe 00 be b8 ce 68 bd
       -0.037225187 -0.038131986 -0.12597254 -0.056837767
000350 5c e9 ab bd 51 3b 33 bd 0c b6 f8 bd 25 51 67 bd
       -0.08394119 -0.04375774 -0.12144098 -0.05647387
000360 de 9c 64 bd 7d 5d d1 bc 06 38 f2 bd ee 33 5d 3c
       -0.055813663 -0.025557274 -0.11827092 0.0135011505
000370 34 7c 00 3d 39 85 90 3c 4c 1d a3 bd 95 4d 86 bd
       0.03136845 0.01764165 -0.07964572 -0.06557766
000380 f4 dd d0 bd 1c 08 30 3e 8f 14 1e 3e f1 04 00 3e
       -0.10198584 0.17190593 0.1543753 0.12501885
000390 b7 4b bb 3d 13 fc 83 3d 5f 04 4c 3d 36 96 1b 3e
       0.09145301 0.06444564 0.049808856 0.1519402
0003a0 b3 71 f9 3d 47 c4 93 3d 85 a8 eb bd a5 60 f2 bd
       0.121798895 0.07215171 -0.11506752 -0.1183484
0003b0 0d 7c e5 bd 7d c1 9b bd 3f ce 89 bd f8 9a 9b bd
       -0.112053014 -0.07605264 -0.067287914 -0.07597917
0003c0 4e 95 b7 bd 0e ca ec bd c1 34 e4 bd f0 5b b4 bd
       -0.089640245 -0.115619764 -0.111428745 -0.08806598
0003d0 87 98 c2 bc 38 cd 32 bd e1 f1 59 3d 05 7f 88 bd
       -0.023754371 -0.043652743 0.05320919 -0.06664852
0003e0 63 52 1d bd f5 90 54 bd 42 b2 70 bd 00 02 be bc
       -0.03840865 -0.051896054 -0.05876375 -0.023194313
0003f0 c0 c6 47 bd 8a f7 52 bd cd 3f d9 bd 4c c4 c8 bd
       -0.048773527 -0.051505603 -0.10607872 -0.09803066

bias f4 [32]
000000 cb ff 20 3b ea f6 8e bd c0 61 df bd 8b cc 0f bd
       0.0024566527 -0.06980689 -0.10907316 -0.035107177
000010 6c 4c ab 3c 86 d1 cb 3d 7f 4a 89 3d e4 69 a9 bd
       0.020910464 0.09952073 0.06703662 -0.0827215
000020 cc 17 d8 bd ac ec 8f 3d b6 ba 0a 3e 99 37 0b 3b
       -0.10551414 0.070275635 0.13547787 0.0021242856
000030 8c 3e bc 3d f6 0b 42 bd 28 c1 14 3e f2 f5 6c 3d
       0.09191617 -0.047374688 0.14526808 0.05785174
000040 77 77 ba 3d ce 83 06 be 9b bc fc 3d d8 ff f6 bd
       0.09104817 -0.13136217 0.12340661 -0.12060517
000050 e1 c0 9a bd a9 2d 4a 3b 40 65 a7 bc 86 f4 d9 3d
       -0.0755632 0.003084997 -0.020434022 0.10642342
000060 a8 25 66 3d bb 69 a4 3c f9 17 dc bc 19 7e ca 3d
       0.056188256 0.020069947 -0.0268669 0.098873325
000070 f0 cb ad bd 65 01 0b 3e e3 a3 f3 bd f4 34 0f 3c
       -0.084861636 0.1357475 -0.11896493 0.008740652

weight f4 [32]
000000 da 1a ff 3f 98 cd 08 40 7a 45 eb 3f 73 46 02 40
       1.993007 2.1375484 1.8380578 2.0355499
000010 79 e4 04 40 01 b4 24 40 3d d7 13 40 d6 55 ee 3f
       2.0764449 2.5734866 2.310012 1.8619945
000020 98 8f 0d 40 56 a9 05 40 fb 46 0a 40 78 ba 2d 40
       2.2118893 2.0884604 2.1605823 2.7145061
000030 00 7d 16 40 a8 3f 00 40 07 08 fd 3f 29 52 fc 3f
       2.3513794 2.0038853 1.9768075 1.9712573
000040 ec b6 09 40 35 84 07 40 c7 3f 00 40 7b 58 eb 3f
       2.1517897 2.1174443 2.0038927 1.8386377
000050 a1 cc 20 40 e1 b1 03 40 60 b3 14 40 14 7d 20 40
       2.5124896 2.0577319 2.3234482 2.5076342
000060 32 93 f4 3f d2 65 1f 40 03 30 0e 40 90 ea 20 40
       1.910742 2.4905896 2.2216804 2.5143166
000070 8f 71 e9 3f 05 b6 e9 3f 60 95 08 40 c1 7c 0b 40
       1.823778 1.8258673 2.1341171 2.1794894

bias f4 [32]
000000 8e 82 05 be 5a 8a a3 3e e1 ec e0 3d 0e 15 12 bd
       -0.13038084 0.3194149 0.10982681 -0.03566461
000010 a3 95 c9 3c f0 66 3b 3e 11 6f e9 3d 99 57 76 bd
       0.024607485 0.18300986 0.11398137 -0.060142133
000020 c7 6a 35 bc 0d 1a 1a 3c ce 66 9b bd 8a 2c d7 bd
       -0.011072821 0.009405625 -0.07587968 -0.10506542
000030 8b d5 81 3e a6 86 0f be ca 2d 94 3b bd c7 c4 3d
       0.25358233 -0.14016208 0.00452206 0.096084096
000040 87 9b 05 bc 59 7f 53 3e 9a 1b d9 bc 5a aa 4d bd
       -0.008154756 0.20654048 -0.02650242 -0.050211288
000050 fd 39 be 3d b4 8d 24 3d d1 9e d2 bb 3f b2 be bd
       0.09288404 0.0401742 -0.006427624 -0.093113415
000060 6c 4e 4c bd d7 99 08 3e 34 f1 c3 bd f2 9d 24 3d
       -0.049879476 0.13339935 -0.0956749 0.04018969
000070 c7 0f c0 bc 2a cb d5 3c 97 fe 72 bd 5d 72 3e 3b
       -0.023445023 0.026097853 -0.059324827 0.0029059865

running_mean f4 [32]
000000 ef 20 36 3f 28 e5 1c 3e dd 0c ce be e4 2b c3 bf
       0.71144 0.15321791 -0.4024419 -1.5247769
000010 58 9b 26 bf 84 34 e3 3e f8 96 a5 3f 34 e5 bd 3e
       -0.65080786 0.44376004 1.2936697 0.3708893
000020 f0 3e d9 bf 12 91 b7 bf a0 a2 c6 3e 7f 90 2f 3f
       -1.6972332 -1.4341147 0.38795948 0.6857986
000030 c5 c3 f0 3e 67 dc dc 3e 45 17 4f 3f c3 12 8d 3f
       0.4702436 0.43136904 0.8089488 1.1021351
000040 29 43 b6 bf d8 b7 76 be 32 98 d0 3f a4 b7 28 3f
       -1.4239246 -0.24093568 1.6296446 0.65905213
000050 39 81 84 3f 34 24 ef be ed 43 a9 bd 56 bd 89 3f
       1.0351936 -0.46707308 -0.08264909 1.0760906
000060 39 3e ac be b7 25 cf bf 68 19 b4 3e 6c 56 8f be
       -0.33641222 -1.6183385 0.35175633 -0.27995622
000070 19 39 45 bf 69 4b 3e bf 85 25 c8 bf 65 d9 82 be
       -0.7704025 -0.74333817 -1.563645 -0.25556484

running_var f4 [32]
000000 d3 16 e1 3f 83 f8 5b 3f 13 01 0d 3f d5 6c 9f 3f
       1.758509 0.85926074 0.55079764 1.2455088
000010 90 92 09 3f ac be 74 3f 07 4b a2 3f be 7a 93 3f
       0.5373926 0.9560344 1.2679147 1.1521833
000020 1e e0 47 3f a5 75 2e 3f dd 20 79 3f 55 ff ac 3f
       0.7807635 0.6814826 0.9731577 1.3515421
000030 db c1 5f 3f 31 55 a7 3f fe 5d a1 3f 88 c8 91 3f
       0.87405175 1.3072873 1.2606809 1.1389322
000040 a9 2f 6b 3f b7 fb 4d 3f e7 59 32 40 a5 0b c1 3f
       0.918696 0.8046221 2.7867372 1.5081679
000050 0e ee a3 3f 86 f8 25 3f 05 71 62 3f a4 a8 f6 3f
       1.2807024 0.6483234 0.88453704 1.9270215
000060 3a 2a 35 3f 18 b7 7f 3f 58 72 8c 3f ee bb 2f 3f
       0.7076756 0.99888754 1.0972395 0.6864613
000070 fe 34 0b 3f f2 42 07 3f 73 4d 9a 3f 0c f4 2b 3f
       0.54377735 0.52836525 1.2054886 0.6716926

weight f4 [32]
000000 08 df 69 3f 8e d6 10 3f 24 1e 0c 3f 4c fc 3d 3f
       0.91355944 0.56577384 0.5473349 0.742131
000010 84 2a 01 3f de 6d 6a 3f 10 20 2e 3f b8 bd 36 3f
       0.504555 0.91573894 0.68017673 0.7138324
000020 e0 4d 23 3f 81 a8 1c 3f e4 7c 4c 3f 3b e4 77 3f
       0.637907 0.61194617 0.7987807 0.9683263
000030 f8 d4 0a 3f a9 9c 76 3f 6a d6 43 3f a9 58 4a 3f
       0.54231215 0.96332794 0.76499045 0.79041535
000040 58 9b 12 3f 11 12 59 3f 6c 3c 48 3f 40 72 4e 3f
       0.57268286 0.8479319 0.78217196 0.8064308
000050 c4 05 2d 3f eb ee 3f 3f 32 28 9f 3f 59 3a 68 3f
       0.6758692 0.74973935 1.2434142 0.9071403
000060 63 21 42 3f 12 a2 1b 3f 7d d4 55 3f 94 e7 12 3f
       0.75832194 0.60794175 0.83527356 0.5738461
000070 c7 47 18 3f f5 3e 0d 3f 93 d3 3d 3f 58 be 26 3f
       0.59484524 0.5517419 0.7415096 0.6513419

weight f4 [5, 32]
000000 c4 ac a7 be 7c ae eb be 0e 7d b1 3d 08 f4 21 bf
       -0.32748997 -0.4603156 0.086664304 -0.6326299
000010 c6 be ac 3e 46 f0 91 3f 6a e4 64 3d 24 5b 98 bf
       0.337393 1.1401451 0.055881895 -1.1902814
000020 0d a6 01 3f 5b b2 17 3f 5c f4 84 bf 66 82 b6 bf
       0.50644 0.59256524 -1.0387073 -1.4258544
000030 f0 79 e7 be 22 f0 38 bf cb ec 60 bf b9 9a 00 3f
       -0.45210218 -0.72241414 -0.8786132 0.5023609
000040 27 b7 4c 3d 89 b6 4c bf c1 b7 56 be 86 48 a6 be
       0.049979355 -0.79966027 -0.20968534 -0.32477206
000050 a7 60 bc be fb 81 1a 3f 3f ed a5 bf 8e ce 74 bf
       -0.3679249 0.60354584 -1.2963027 -0.9562768
000060 1b 14 97 3d ff 50 b1 3e fc 00 84 bf d1 de f8 3d
       0.07376882 0.34632108 -1.03128 0.12151874
000070 e2 52 20 3d 7f 1c f6 3e 35 f5 0c bf e2 5e 99 bd
       0.039141543 0.48068616 -0.55061656 -0.074888006
000080 67 d9 23 3f f5 1e 90 bf 24 00 3b bf e9 22 62 3e
       0.64003605 -1.1259447 -0.7304709 0.2208363
000090 13 4a 82 3e 7c da 90 3d f0 4a 58 3e d4 5d 40 be
       0.2544714 0.070729226 0.21122336 -0.18785793
0000a0 8a 1c 07 3f 6d ff 0f 3f aa 0d 03 3e 20 ce e2 3e
       0.5277792 0.56249124 0.12798181 0.44297886
0000b0 04 69 74 bf 81 2f 46 3f d4 2d 22 3f f2 2c fd be
       -0.9547274 0.77416235 0.6335118 -0.49448353
0000c0 89 fd 26 3f 9b 2a 3d bf 60 b3 4e 3e ce de e4 3e
       0.65230614 -0.73893136 0.20185614 0.44701236
0000d0 cf 1c a5 3e df 5a cb 3e b9 a2 8c 3e fb 75 e9 3e
       0.32248542 0.39717767 0.27467898 0.45597824
0000e0 5c 65 fa 3e 56 b8 3c 3d eb 79 9e 3e fb a6 5e be
       0.48905456 0.046074234 0.3095239 -0.21743385
0000f0 da 0e c9 3e 42 ae fb 3e 67 54 09 3f d7 91 35 be
       0.39269143 0.49156386 0.5364441 -0.17731415
000100 51 dd 33 3e 39 86 6a bb 30 5d 33 3f 2f 15 83 bf
       0.17564894 -0.003578557 0.7006407 -1.024084
000110 60 c4 ee be 27 d4 e9 be a2 88 b7 3e 78 a7 3c 3f
       -0.46634197 -0.45669672 0.3584643 0.7369304
000120 2b 77 94 bf ee 65 68 bf b6 c8 24 3f ed b8 b1 3e
       -1.1598867 -0.9078053 0.6436876 0.347114
000130 43 0d 24 3f 05 c3 b1 3d 6c 9a 8c 3c 7f 77 19 3f
       0.64082736 0.08679775 0.017163478 0.5994796
000140 04 8f aa bf 0e 54 94 be 72 31 f1 3e 93 a9 d8 bd
       -1.3324895 -0.2897038 0.47108036 -0.10579219
000150 db 9c 61 3e 76 e1 aa be 42 8f e2 3d cc e8 d3 3e
       0.22032492 -0.33375138 0.110624805 0.41388547
000160 9e 1f 6e be 79 c8 cb bf c8 3b 11 3f 43 82 04 3f
       -0.23254248 -1.5920554 0.56731844 0.51761264
000170 34 f3 d7 be 14 46 21 bf 07 bc 74 bf a0 f8 14 3f
       -0.42177737 -0.62997556 -0.95599407 0.5819187
000180 78 9f f9 be bd 8f 93 3e 86 8b a2 3e 9a c1 b8 3e
       -0.48754478 0.288206 0.31747073 0.36085206
000190 40 da 1e 3f fa 6a a5 bf a1 6f 99 bf 84 2d 85 3e
       0.62051773 -1.2923272 -1.1987191 0.26011288
0001a0 cc 78 bc 3d 32 c4 99 3e 96 02 00 3f e0 84 82 be
       0.09202728 0.30032498 0.50003946 -0.25492
0001b0 d6 2d 92 3e 97 9e ad be c8 25 52 bf 70 8f 09 bf
       0.28550595 -0.33910057 -0.820889 -0.53734493
0001c0 40 4c 1a 3e 9d ac cd 3e f2 b0 15 bf 44 3b 5f bf
       0.1506815 0.40170756 -0.5847312 -0.8719981
0001d0 44 f1 be bf b0 10 ab be ff 1c ea 3d 3f f2 e0 be
       -1.4917378 -0.3341117 0.11431312 -0.4393482
0001e0 0a af 07 be 23 a3 28 3e a0 1c 62 3e 83 5a 2f 3f
       -0.13250366 0.16468482 0.22081232 0.68497485
0001f0 e3 da 97 3e 3a 19 4f 3e b1 11 f0 3e bd 49 c4 3e
       0.29659185 0.20224467 0.46888497 0.38337508
000200 96 c6 0c bf ed b8 f9 3e b4 57 0f bf ea a9 c3 bd
       -0.5499052 0.487739 -0.559932 -0.09553893
000210 5c ab ab bf 82 ea 2c 3d 54 a9 29 3e 5a 43 28 bf
       -1.341167 0.04221583 0.165685 -0.6572777
000220 dd 02 d0 be 17 9c 10 bf c2 17 9c bf b0 55 d8 be
       -0.40627185 -0.56488174 -1.219475 -0.42252874
000230 d4 6d dd 3e 8c 1a 0c bf d4 3e c9 3e d2 1c 0e bf
       0.43247855 -0.5472801 0.39305747 -0.55512726
000240 5e 7f fd 3d 8e 62 91 3e ca f4 f3 be 22 0e d6 be
       0.12377809 0.28395504 -0.47647697 -0.41807657
000250 cf 04 3d 3f 3f 1d 5c bf 95 f2 0a 3f 90 57 da be
       0.7383546 -0.85982126 0.542764 -0.4264493
000260 35 eb 61 bf 7a c9 9b 3e 40 d0 83 bf 3f 13 ec bf
       -0.8824952 0.30427152 -1.0297928 -1.8443373
000270 f3 6b 73 bf c7 ef 50 bf e7 b3 a7 bd ef 2c be bf
       -0.9508659 -0.8161587 -0.081886105 -1.4857463

bias f4 [5]
000000 d3 95 4b 3e 76 e6 09 bd 88 27 60 3d bf 4f 3a be
       0.19881372 -0.03366705 0.0547252 -0.18194483
000010 4b 8d 99 3d
       0.074976526
