src/app/epic7/tools/hero_avatar.onnx (onnx, 41864 bytes, 8 tensors)

conv1.weight f4 [8, 3, 3, 3]
000000 7d 84 55 be a3 e5 95 be 26 cd 41 be 28 af 3d be
       -0.20851322 -0.2927676 -0.18925914 -0.18523848
000010 48 2c ba bd 2c 7a 84 bc 74 a4 62 bd 3c 79 17 be
       -0.09090477 -0.016171537 -0.055332616 -0.14792341
000020 8f 20 8e bd 07 04 2c 3e c5 42 9e bd 0a f7 3b 3e
       -0.06939804 0.16798411 -0.07727579 0.18355957
000030 18 bf 97 3d 61 c7 32 3e a0 bb bc 3c 53 13 ba 3c
       0.07409495 0.1745887 0.023038685 0.022714293
000040 51 db 1b bd 62 d2 09 3e c0 8a 2c be b9 68 2b bc
       -0.038050953 0.13459161 -0.16849804 -0.01046198
000050 49 ac 8a bb 37 dd 0a 3e 23 82 0c 3e 79 4d 10 be
       -0.004231964 0.1356095 0.13721518 -0.14092053
000060 c4 df 5d be d5 4d 8a 3d e5 b2 cd 3d ab 18 61 be
       -0.21667391 0.067531265 0.10043887 -0.21982066
000070 47 ab 98 bc 78 44 82 be 3c c8 21 be 44 32 a1 be
       -0.018636359 -0.25442863 -0.1579904 -0.31483662
000080 bd ed d3 bd 75 d9 97 bd 15 0e 77 be 03 7c 0f be
       -0.10348079 -0.074145235 -0.24126466 -0.1401215
000090 a2 74 82 bd d4 63 6e 3e c3 bf 94 bd 93 89 99 3c
       -0.06369902 0.23280269 -0.07263138 0.018742358
0000a0 0a 15 54 3e 5e 2e ff 3d 67 36 dd 3d dc 21 c7 bc
       0.20711151 0.12460016 0.10801392 -0.024308138
0000b0 f7 81 69 3e 6a a0 d3 bd 1a 1b 56 3e 00 92 04 3e
       0.22803484 -0.10333331 0.20908776 0.1294632
0000c0 5d 54 64 3c 1f f5 cd 3c 5d 0f 85 3e 06 4e 2a 3e
       0.013936129 0.025141297 0.25988284 0.16631326
0000d0 44 00 4d 3d 6f ee 84 3e 12 88 ef 3d 1e 21 22 3e
       0.05004908 0.2596316 0.11695875 0.15832946
0000e0 22 26 24 3c e3 a5 66 3e ce b3 ff 3d fe 53 87 3e
       0.010018857 0.22524218 0.12485467 0.26431268
0000f0 05 d5 5e 3e 3a 48 52 3d d4 1c a1 3e 9a 55 26 be
       0.21760948 0.051338412 0.31467307 -0.16243592
000100 4b a9 6c bd c3 b0 80 bd 92 c8 7d 3d 6e 35 f1 bd
       -0.057778638 -0.062837146 0.061958857 -0.11777769
000110 72 58 3f bd 92 64 cb 3d ca dd 2f bd f4 0f af 3a
       -0.046715207 0.09931292 -0.042936124 0.0013356195
000120 52 81 87 bd 54 68 90 be b1 a0 3d be 05 81 c1 bd
       -0.06616463 -0.28204596 -0.1851833 -0.09448437
000130 62 19 7e be b4 50 4d be 95 e7 48 be f3 75 65 be
       -0.2481437 -0.20050317 -0.19619592 -0.22408275
000140 7d 84 de bd be 2c 39 be d2 b6 19 be b7 7b 69 be
       -0.10865114 -0.18083474 -0.15011147 -0.228011
000150 ab 1e 55 bd 6d b4 4a bd 41 7c c3 3c ec ef 8c bd
       -0.0520312 -0.049488474 0.02386296 -0.06881699
000160 c4 cd 2d be 33 ad 9e bd 6c 06 10 3d 7d 87 83 3e
       -0.16973025 -0.07747879 0.035162374 0.25689307
000170 4e fb f1 3c 9a 7c 20 3e 4e b2 7e 3e b5 c2 83 3e
       0.029538777 0.15672532 0.24872705 0.25734487
000180 95 11 85 3e b0 00 81 3e 22 0c 4e 3e 34 30 e4 3c
       0.25989977 0.25195837 0.20121816 0.027855016
000190 e9 9e fe 3d d9 e3 06 3e 2e ed 07 be 1b 7d 21 3d
       0.124326535 0.13172854 -0.1327407 0.03942595
0001a0 5f 73 21 bd 8a 2f a9 bd f8 b1 02 be 6f 77 47 3d
       -0.039416667 -0.082610205 -0.12763202 0.048697885
0001b0 0e 2b 54 3e 71 94 04 3e d1 50 0f bd f5 c1 ae 3d
       0.20719549 0.12947251 -0.034989182 0.08533088
0001c0 df 85 a5 3e 85 5b 85 3e bf 18 69 3e 09 e9 96 3e
       0.32328698 0.26046386 0.22763346 0.29474667
0001d0 35 ca ef bc 7f c3 10 3d 1a 01 2d 3e 95 7b b8 bd
       -0.029271225 0.03534269 0.16894951 -0.090079464
0001e0 72 b8 49 3e 9b be d4 3d f4 30 db 3d a5 ff 3c 3d
       0.19699267 0.103879176 0.107026964 0.04614224
0001f0 ab 71 65 3e 61 2b dd 3b 9c 41 e2 bd 84 8c 15 be
       0.22406642 0.006749556 -0.1104767 -0.14604384
000200 4d 06 f4 bc db 47 cc bd 2f ae c6 bc 80 ca 32 bd
       -0.02978816 -0.09974643 -0.02425298 -0.04365015
000210 35 2b 1b 3d c4 18 ac bd 49 91 1a be 20 98 1f 3e
       0.037883002 -0.08403161 -0.15094484 0.15585375
000220 7c ce ec 3d 73 02 c5 bc c4 cf 9a bd 1d ac dc bd
       0.11562821 -0.02404902 -0.075591594 -0.107750155
000230 7a 4e 74 bd 13 83 01 bc 79 9d 9d 3d 78 88 60 bd
       -0.059645154 -0.007904786 0.07696051 -0.054817647
000240 2c 22 98 3e 3c 62 18 3e 70 b9 8c 3e 46 30 9e 3d
       0.2971357 0.14881223 0.27485228 0.07724051
000250 03 e9 5f 3e ff ff 60 3e 76 91 81 3e 6f 26 76 3e
       0.2186623 0.21972655 0.2530629 0.24038099
000260 6d 4e 6a 3e 27 44 93 be 49 27 4f be 51 38 74 be
       0.2288148 -0.28762934 -0.2022983 -0.23849608
000270 33 6c 2b be 51 f4 8d be 83 9e d6 3c 4e a8 55 be
       -0.16740493 -0.2772546 0.026198631 -0.20864984
000280 1d 63 eb bd 78 bf 9e be 5b 99 0b bd eb 3b 7b 3d
       -0.11493514 -0.31005454 -0.034081798 0.06133644
000290 0c f8 8a 3c aa e2 2b bd 02 91 fb 3d f4 94 aa 3c
       0.016963981 -0.04196421 0.122835174 0.02082298
0002a0 96 c4 40 3e 14 3d 18 3e 15 14 26 3b 1a 07 01 be
       0.18824992 0.1486705 0.002534156 -0.12600365
0002b0 40 2e ff 3c 71 b9 1d be 3e 10 9a bd f0 f8 fa 3d
       0.031149983 -0.15402772 -0.07522629 0.12254512
0002c0 cf 7a 80 3b 1d 02 0a be fd ed a2 3d 45 03 e4 bd
       0.00392089 -0.13477369 0.07955549 -0.11133436
0002d0 ff 26 91 3c 7d 3c 1d 3e 47 69 e4 bd 39 f8 7c bd
       0.01771879 0.15355106 -0.111528926 -0.06176016
0002e0 46 6a 36 3e e6 d6 ae 3d ac 87 10 3e 6a 91 37 3e
       0.17813978 0.085370824 0.14114255 0.17926565
0002f0 92 08 31 3c d0 d2 8a bd 42 93 78 be c0 0d 96 be
       0.010805266 -0.067784905 -0.24274924 -0.29307365
000300 e1 99 91 be 96 89 37 be 80 aa 89 be 77 17 60 be
       -0.28437713 -0.17923579 -0.26887894 -0.21883951
000310 29 ba 7d be dc 97 74 3c 84 2b a0 bd 61 96 a8 bd
       -0.24778046 0.014928784 -0.078208 -0.082318075
000320 29 25 fe bd 14 8f 49 be d8 f5 70 3d b1 bd 04 be
       -0.124094315 -0.19683486 0.058828205 -0.12962987
000330 2b f8 15 be a3 1f ba 3d 43 0a 4a bd a6 10 02 be
       -0.1464545 0.090880655 -0.049326193 -0.12701663
000340 b2 e8 4f bd 7b 77 09 3e 54 3a 36 3e ff 93 df bc
       -0.050759025 0.13424484 0.17795688 -0.02729225
000350 2c be 09 3d 26 7f 24 3e 90 8e a7 3d 0e c7 b1 bd
       0.033628628 0.16064128 0.081814885 -0.08680545

conv1.bias f4 [8]
000000 cc 00 cc 3e 4b 03 3b be ed cb 85 bd 79 8c 6b be
       0.39844358 -0.18262975 -0.065330364 -0.23002805
000010 b3 59 2c be 08 03 9f bd 74 e7 c4 be 50 f1 a1 3e
       -0.16831093 -0.0776425 -0.38457835 0.3162942

conv2.weight f4 [16, 8, 3, 3]
000000 8c fc 47 bd 43 9f 86 3e 3e 9b 1b 3e 8c 73 5a 3e
       -0.04882483 0.26293382 0.15195939 0.2133314
000010 96 32 b3 3e 38 fc 43 3e 6b 84 f1 3d 1e 4d 99 3e
       0.34999532 0.19139183 0.11792835 0.29941648
000020 9c c5 18 3e 1e e4 3b bf b3 a7 d4 be 73 99 5a 3e
       0.14919132 -0.73394954 -0.41534194 0.21347599
000030 a5 96 e6 be d0 0c ac be 09 29 3c 3e c7 cc 2b bf
       -0.45036808 -0.33603525 0.18375029 -0.6710934
000040 d1 f0 7e be 19 16 30 3e 8b 1e d0 bc 72 54 80 bd
       -0.24896552 0.1719593 -0.025405189 -0.06266107
000050 67 f9 7c bc ef 73 2b 3d 6d 5e 13 3e 59 c3 f9 bd
       -0.0154403215 0.04185861 0.1439149 -0.12195463
000060 f6 12 4b 3e af 32 27 3e bd 7b d9 3d ef 28 67 bf
       0.19831452 0.16327928 0.10619304 -0.90296835
000070 08 a2 3c bf 90 e1 33 be 6e 01 58 bf ca 53 48 bf
       -0.7368474 -0.17566514 -0.8437718 -0.7825285
000080 ef d0 84 be 49 30 38 bf 2b 96 4f bf 4c d4 91 bd
       -0.25940654 -0.7194868 -0.81088513 -0.071205705
000090 1f 7f 6c be c3 74 b2 be a4 c2 61 be a0 fb 2a be
       -0.23095368 -0.34854707 -0.22046906 -0.1669755
0000a0 07 52 93 be 85 e4 b2 bc 18 77 28 be 6f 94 55 be
       -0.2877352 -0.021837482 -0.1645168 -0.20857404
0000b0 96 36 ca 3c 7d 1d a1 be a8 23 df be 02 6f 97 be
       0.024684232 -0.3146781 -0.4358189 -0.2957688
0000c0 e9 29 b9 be 21 28 08 bf 68 24 c4 be 89 12 98 be
       -0.36164787 -0.5318623 -0.38309026 -0.2970164
0000d0 55 11 92 be f2 79 b2 be 34 fe 11 bf 30 9b 00 bf
       -0.28528848 -0.34858662 -0.5702851 -0.502368
0000e0 0a 56 11 bd 67 5c 91 be 0b aa a1 be b8 50 db bd
       -0.035482444 -0.2839081 -0.31575045 -0.10708755
0000f0 1a 6c 75 be a9 95 b7 be 56 c4 55 bd 71 91 85 3e
       -0.23967019 -0.3585637 -0.052189194 0.26087525
000100 55 fe be 3e ef 0b 82 3e 75 cb 9a 3e 10 17 bd 3e
       0.37303415 0.2539973 0.3023335 0.36931658
000110 6e f2 9a 3d a9 39 7b 3e 59 9e 89 3e 66 8b e6 3d
       0.07565771 0.24533714 0.26878622 0.11257057
000120 bf 64 0d 3f 2a 51 01 3f 5d 28 e0 3e 0f c3 d0 3e
       0.5523185 0.5051447 0.43780795 0.40773818
000130 75 37 ad 3e 04 a3 b5 3e c4 78 1f 3f b7 c7 2f 3f
       0.33831373 0.35475934 0.6229365 0.68664116
000140 4b 52 15 3f 87 fb 46 3f de 21 7c 3f a1 1c 92 3f
       0.58328694 0.7772755 0.9848918 1.1414987
000150 e9 10 5a 3f 20 5c 96 3f 17 f2 8f 3f 24 d2 31 3f
       0.8518205 1.1746864 1.1245755 0.69461274
000160 54 f5 85 3f b3 d9 90 3f b8 de 73 bd 9e 93 be bc
       1.0465493 1.1316437 -0.059538573 -0.023263749
000170 eb 51 a1 bd 67 1b bb bd 98 65 21 be 3e 85 d0 bd
       -0.07876953 -0.09136086 -0.15761411 -0.10181664
000180 d9 86 0b 3b a0 a1 2f bd e7 07 69 bd f0 3b e7 3e
       0.0021290092 -0.042878747 -0.056892302 0.45162916
000190 5b 11 05 3f 97 6d 3b 3f 9e de d0 3e a3 ca 09 3f
       0.5197961 0.73214096 0.40794843 0.53824824
0001a0 69 45 2d 3f fa d5 af 3e 1b 53 11 3f 8e 2f 27 3f
       0.67684036 0.3434294 0.56767434 0.6530694
0001b0 4a 81 74 bd cd a9 c6 3c e1 85 c1 3c 0a 5d 32 be
       -0.059693612 0.02425089 0.023623409 -0.17418304
0001c0 b0 62 6b bd 59 1e 0a be 2e d1 f2 bd 71 7f cd bd
       -0.057467163 -0.13488139 -0.11856304 -0.10034073
0001d0 18 80 63 be 79 94 1b 3f 88 f4 40 3f ac 75 0b 3f
       -0.22216833 0.60773426 0.75373125 0.5447643
0001e0 ae 12 0f 3f 2b c6 2f 3f 00 d6 02 3f 07 01 23 3f
       0.5588788 0.68661755 0.5110779 0.6367344
0001f0 fd ed 22 3f 42 88 30 3f ff d1 f1 be 0d ab 15 be
       0.6364439 0.6895791 -0.47230527 -0.14616032
000200 77 fd 3b be 4b 53 eb be 2e 45 76 bb 62 1e 5c bd
       -0.18358408 -0.45961985 -0.0037577855 -0.053739913
000210 14 38 28 bf a7 b6 65 be 81 f3 93 be 79 5a b7 3d
       -0.6571057 -0.22432958 -0.28896716 0.08952803
000220 62 6f 08 3e ee c5 91 3d 75 d8 7b 3e f5 c8 73 3e
       0.13323739 0.0711783 0.2459429 0.23807128
000230 20 13 88 3e df 92 21 3e 5a 21 76 3e 03 d4 60 3e
       0.2657709 0.15778683 0.2403616 0.21955876
000240 91 e4 da be 01 f9 c7 be 93 39 97 be f1 09 e8 be
       -0.42752507 -0.39057162 -0.29536113 -0.45320085
000250 cb 67 0f bf 13 d6 d7 be 20 ab 8d be a3 30 9c be
       -0.5601775 -0.42155513 -0.2766962 -0.30505857
000260 ea c5 be be 53 71 57 3f b6 f3 46 3f 0d 21 1d 3f
       -0.3726037 0.84157294 0.77715623 0.61378556
000270 b5 85 69 3f 3b 9f 62 3f d9 97 0f 3f 2d 58 ae 3f
       0.91219646 0.88524216 0.56091076 1.3620659
000280 3b 32 9f 3f 8a cc 56 3f ce fb d0 3d b8 2c eb bc
       1.2437204 0.8390585 0.10204278 -0.028707847
000290 b3 3d 22 bd a8 10 57 bd 65 10 04 be b2 ab 0e be
       -0.039609622 -0.05250612 -0.12896879 -0.13932684
0002a0 5b a4 42 be 0b ae fa bd d1 34 d3 bd 2e 67 0f 3f
       -0.19008009 -0.12240227 -0.10312808 0.56016815
0002b0 f7 bd 17 3f c5 21 a3 3e 1d b7 9d 3e 49 a1 6f 3e
       0.5927424 0.31861702 0.30803767 0.23401369
0002c0 da 29 2b 3e 69 ea 15 3f b4 b8 19 3f cc ae 89 3e
       0.16715184 0.58560807 0.6004746 0.26891172
0002d0 cd 3f 2e 3e 04 e5 a6 3d be b1 a1 3d 3b ba 75 3d
       0.17016526 0.0814915 0.0789523 0.059992056
0002e0 d5 ee ab 3d 9d c6 69 bd b2 1d 87 bd 3b 2c 43 3a
       0.08395163 -0.057074178 -0.06597461 0.00074452505
0002f0 d9 38 f9 bd 09 04 25 be 46 5a de be 97 a2 5c be
       -0.12169046 -0.1611482 -0.43428248 -0.21546398
000300 2b f0 8f be 25 99 a2 be 1d 14 18 be 66 e2 d4 be
       -0.2811292 -0.31757465 -0.14851423 -0.41578978
000310 a1 d4 0c bf af cf a5 be b6 d9 2a 3f ad 5f 5e 3f
       -0.55011946 -0.32385013 0.6673845 0.8686474
000320 c1 a4 35 3f 2c bd a3 3e 98 e7 0e 3f c8 02 e2 3e
       0.7095452 0.31980264 0.55822134 0.44142747
000330 1c 5c ec 3e 82 83 14 3f eb 82 e0 3e ef f4 6e bd
       0.46164024 0.58013165 0.43849882 -0.058339056
000340 cf ef 76 be a0 80 a6 bd 6c 28 c6 b9 5f 4a 07 be
       -0.24114917 -0.08130002 -0.0003779562 -0.13211964
000350 1d 15 7a bd 4e 03 45 bd 39 a9 15 be 8c cb cf bd
       -0.06105529 -0.048098855 -0.14615335 -0.10146245
000360 99 a4 aa 3e 9e 13 13 3f 9c 06 0a 3f b8 b5 d3 3e
       0.33328703 0.5745181 0.53916335 0.41349578
000370 7b fe 15 3f 9d c2 cd 3e 72 b0 f7 3e 03 6f 01 3f
       0.5859143 0.4018754 0.48376805 0.50560015
000380 d2 27 db 3e 77 82 e5 3e 1e b6 a7 3e 41 df 01 3e
       0.42803818 0.448261 0.32756132 0.12682821
000390 a3 82 f4 3e ed cc 0e 3f 0b 46 84 3e c5 77 fe 3e
       0.47755918 0.5578144 0.2583469 0.49700752
0003a0 6a c8 d0 3e d2 4c f2 3d 71 0d 48 be 7e e6 95 be
       0.40777904 0.118310586 -0.19536377 -0.29277414
0003b0 2e 2e 6a be 8c 3a 1b be e2 56 4d be 8e 5d 18 be
       -0.22869179 -0.15159053 -0.20052674 -0.14879438
0003c0 f7 ff 47 be c5 80 9e be 07 76 4e be cc 8c 62 be
       -0.19531237 -0.30957618 -0.20162211 -0.22124022
0003d0 f0 6b e1 be a4 fa e9 be 06 2b 5a be db df 9c be
       -0.44027662 -0.45699036 -0.21305475 -0.30639538
0003e0 fb de 81 be 9c e0 90 bd 86 7b 1d be ec 8f 85 be
       -0.25365433 -0.07074091 -0.15379152 -0.26086366
0003f0 1d 7e f4 bd 91 e3 53 be 91 5a 35 be 89 6e de bb
       -0.11938117 -0.20692278 -0.1771033 -0.006788079

conv2.bias f4 [16]
000000 ac e4 1e 3e c5 a9 86 bd 11 f5 a2 be d8 92 64 3e
       0.15516919 -0.0657535 -0.31827596 0.22321641
000010 9c f1 12 be 0e 3d dd 3d fc 34 2c be fa c8 a7 3e
       -0.14349979 0.10802661 -0.16817087 0.3277052
000020 69 8f 9e bd 86 ef 0f be 35 8e a0 bc 96 a1 be bd
       -0.07742197 -0.14056215 -0.01959906 -0.09308164
000030 bb f3 24 be 67 70 b6 3b 47 d5 c9 bc 07 6e c8 be
       -0.16108601 0.0055675986 -0.024637831 -0.39146444

conv3.weight f4 [32, 16, 3, 3]
000000 a6 6c 95 3d 6c ff 9b 3d 60 19 f1 3d ba af cd 3d
       0.07296114 0.07617077 0.11772418 0.10043283
000010 23 14 ed 3d 22 e3 d4 3d 34 0d 7e 3e e9 e7 2b 3e
       0.115761064 0.10394885 0.24809724 0.16787685
000020 d4 4d fa 3d 23 a3 cb 3e 1d a8 55 3e 00 0d 92 3d
       0.12221876 0.397729 0.20864911 0.07131386
000030 ad 83 1f 3e a0 8e 02 3e 01 ff 96 3d 8f 3b b6 3c
       0.15577574 0.1274972 0.07372857 0.022245197
000040 d3 31 78 3d 7e 8c ae 3a 9d e9 3f 3d 79 9e 48 3d
       0.06059439 0.0013317016 0.04685365 0.048979256
000050 5a ae 2d bd c3 9d 42 bd 22 6b f8 bd 97 45 1e be
       -0.042402603 -0.047513735 -0.12129809 -0.15456234
000060 a2 c2 01 be cf 98 9b be cb 54 e1 be 6d b7 35 3e
       -0.12671903 -0.3039002 -0.44010004 0.17745753
000070 32 d8 05 3e 19 ac a1 be 0d d7 99 bd ad 29 36 3d
       0.13070753 -0.31576613 -0.07511721 0.04447334
000080 77 80 b5 be 54 55 6f 3d 48 31 80 3d 53 44 d8 be
       -0.35449573 0.058430985 0.062594 -0.42239627
000090 c4 c9 23 3d f0 6c bb 3d 64 dd 9e 3e c7 70 b7 3d
       0.03998734 0.091516376 0.31028283 0.089570574
0000a0 04 71 7e 3e ed c2 da 3e 21 62 3c 3e f3 dc 89 3e
       0.248478 0.42726842 0.18396808 0.26926383
0000b0 39 fc f8 3e 00 db b4 bd 86 83 b8 3c 82 31 31 3c
       0.4862993 -0.088308334 0.022523653 0.010815026
0000c0 74 0e 03 bd 61 6a a8 bd 4b e9 06 3d e8 42 47 be
       -0.031996205 -0.08223415 0.03293733 -0.19459116
0000d0 c8 54 54 be 1d 48 13 be 19 38 60 3e 96 c0 18 3e
       -0.20735466 -0.14382978 0.218964 0.14917216
0000e0 41 4e 69 3c 8b 10 db 3d c2 bc 27 bd 61 0f 37 be
       0.014239849 0.10696515 -0.040951498 -0.1787696
0000f0 66 ba e6 bd 1a da 6e be 62 65 cb be 08 ec 64 3d
       -0.112660214 -0.23325387 -0.39725786 0.05588916
000100 8a be df bb 41 a0 69 3d 96 d2 a0 3b 19 cb 2d 3e
       -0.006828134 0.057037596 0.0049079163 0.16972007
000110 4d 99 7c bd 5a ca 3d 3e c4 a9 4a 3e 92 fc 8b 3c
       -0.061669637 0.18534222 0.19791323 0.017088208
000120 30 8f 35 be 76 ca af bd 5a a1 75 3e 32 5e 23 3d
       -0.17730403 -0.08583538 0.23987332 0.039884754
000130 f8 fd 40 3d 66 a5 b2 3e 80 c6 0e be 55 cb 93 3c
       0.047117203 0.34891814 -0.13942909 0.018041292
000140 09 0a 8c 3e c5 d6 4b 3c e0 3d 59 bd 98 c8 4e be
       0.27351406 0.012441342 -0.053037524 -0.20193708
000150 40 d2 c0 bd ba 2a 2b be 4d 05 cb be 01 1e 37 be
       -0.09415102 -0.16715518 -0.39652482 -0.1788254
000160 a5 ce a7 be bf 53 f7 be dd 06 91 3d 7f 45 71 bd
       -0.32774845 -0.4830608 0.07081387 -0.058904167
000170 75 d6 14 be ea aa 97 3c 2a b2 d8 3c af d3 4f be
       -0.14534934 0.018514115 0.026452143 -0.20295595
000180 92 8e d6 3d f9 84 da 3d d5 5d 09 3c 00 4a b2 3d
       0.10476412 0.10669894 0.008384188 0.08705521
000190 23 41 23 3d dd 0d 27 3e a1 7e 82 3d 76 0d 90 3d
       0.03985704 0.16313882 0.06371809 0.070338175
0001a0 f7 3f 95 3e a4 c5 26 3e a6 b2 3a 3e f2 78 c4 3e
       0.29150364 0.16286331 0.18232211 0.38373524
0001b0 13 88 96 3e a1 30 8a 3e 52 d7 4d bc ef a6 37 3d
       0.2940069 0.26990226 -0.012563543 0.044836935
0001c0 ca f5 b0 3d b1 9c e5 bd 1b 8b 35 3c 68 00 81 3d
       0.086406305 -0.11211527 0.011080529 0.062989056
0001d0 49 92 4d be e2 e6 cb 3e 34 1c c0 3e f2 94 a0 3c
       -0.20075335 0.39824587 0.37521517 0.019602273
0001e0 b2 c0 5b 3e 66 cd ff 3d 45 0c 86 be e5 f6 88 bc
       0.21460226 0.124903485 -0.26181236 -0.016719291
0001f0 1a 4f 0d bd f6 a9 d4 be 0e 38 14 be 4b 9f 24 be
       -0.034499265 -0.4153592 -0.14474508 -0.1607639
000200 83 d6 ab bd d6 f9 ea bd db b6 80 bd 28 d0 57 3e
       -0.08390524 -0.11473434 -0.06284877 0.21075499
000210 ed bf a7 3d f5 7b 3a 3e bd 27 df 3e cd ba bc 3d
       0.08190904 0.18211348 0.43585005 0.09215317
000220 77 b5 2a 3e 6a a1 ce ba 8a c2 a7 3d de 03 f6 3d
       0.16670786 -0.0015764658 0.08191402 0.12012456
000230 bf b7 95 bd 25 3c c5 bc 53 c4 a2 bd 97 2f 41 bd
       -0.073104374 -0.02407653 -0.07947602 -0.047164526
000240 76 59 7f 3c e3 ed 20 3c fb 31 94 bd 94 3f 51 3e
       0.015585294 0.009822342 -0.072360955 0.2043441
000250 88 30 b2 3d 75 f2 06 3e 6d 3e c3 3b 32 15 e2 bc
       0.08700663 0.13178428 0.0059583695 -0.027597997
000260 85 70 ec bc 64 21 bb be 68 d0 ba bd d3 92 f6 bd
       -0.028862247 -0.36548913 -0.091217816 -0.12039723
000270 18 8e ee be 5a 54 39 be d9 cf d0 bd 42 a0 d6 be
       -0.46592784 -0.18098584 -0.10195894 -0.41919142
000280 38 16 98 be e4 80 27 be 4b df 05 be d3 16 09 3e
       -0.29704452 -0.16357762 -0.13073461 0.13387613
000290 f7 09 5b 3e 4b c1 81 be bd 6d 4f 3e 18 6c 1d 3e
       0.2139052 -0.25342783 0.20256706 0.15373266
0002a0 62 6d 7d be b4 86 9b 3e 6f ba 8e 3d e0 c2 92 bc
       -0.24748757 0.30376208 0.06969153 -0.01791519
0002b0 3b fd dd 3d 28 47 b0 3c 8b 71 ad bb d0 e8 7e 3e
       0.108393155 0.021518305 -0.0052930764 0.24893498
0002c0 3d c5 c7 3d c8 8f 87 be f3 cb 57 bd 83 ff 28 be
       0.09754417 -0.26476884 -0.052684736 -0.1650372
0002d0 8e 9e cb 3d 78 72 12 be 4d 80 d7 bd 54 04 b4 3d
       0.09942351 -0.14301479 -0.10522518 0.08789888
0002e0 ee 04 42 be 0e b1 f4 3b 6f 18 a0 3e 7d 95 ae 3c
       -0.18947193 0.0074673956 0.3126864 0.021311516
0002f0 36 86 31 3e 4b e2 87 be 2c 48 cd bb cc 7f 1d bd
       0.17336354 -0.26539835 -0.006264707 -0.038451955
000300 f2 9b 90 be 60 89 94 be 5d fe 5a be fc fd 91 be
       -0.28243977 -0.2901106 -0.21386094 -0.28514087
000310 3b 14 37 be bd f7 23 bd a5 2a c9 be f0 a9 18 3e
       -0.17878811 -0.040031184 -0.39290348 0.14908576
000320 94 74 7c 3d 8c 25 39 bf b6 cd 73 be c3 f3 86 be
       0.061634615 -0.72322917 -0.23808941 -0.2635785
000330 c0 e7 39 bf dd ca 75 bd cd b9 bd bd ac 16 d7 bd
       -0.7261925 -0.06000792 -0.09263954 -0.10502371
000340 c2 2e 53 be 98 62 b9 bd 1c cc 45 be fd f4 4e be
       -0.20623305 -0.090520084 -0.19316143 -0.20210643
000350 0d a6 5e be 5e bb 59 be 3d d4 e9 be ba d9 bf be
       -0.21743031 -0.21262881 -0.45669737 -0.374708
000360 71 10 23 be 9c 37 8c be cb 09 56 be d5 c3 78 be
       -0.1592424 -0.27386177 -0.20902173 -0.24293454
000370 15 ce ad be ec 22 74 be 62 d8 a2 bd 23 46 90 be
       -0.3394629 -0.23841447 -0.07951428 -0.2817851
000380 aa e3 07 3d 49 e8 98 bd f1 4b 54 3e e7 5b ef 3d
       0.0331761 -0.0746618 0.20732094 0.11687451
000390 f3 51 40 be 8e fd 42 3e c4 51 d8 3c 45 74 ab be
       -0.18781261 0.19042036 0.026406176 -0.33487144
0003a0 83 d6 e2 3d 24 1a 87 3d f2 5e 3c 3e 97 0d 1e 3e
       0.11076071 0.06596783 0.18395594 0.15434872
0003b0 a9 8e ac 3d 1e 28 8a 3e 6e 7a 9f 3e 6b 79 02 3e
       0.08425648 0.26983732 0.31148094 0.1274163
0003c0 b9 3c 97 3d 09 fb fb 3b 8d 0a d6 3c 14 d8 0a 3e
       0.07384629 0.007689838 0.026128078 0.1355899
0003d0 e9 bf 7b bd 1f c1 d6 3c 8a e4 84 3e 8d 93 73 3d
       -0.061462317 0.026215134 0.2595561 0.059466887
0003e0 2a ff a6 3d 26 d3 71 3e 93 36 0d 3d 24 70 0b 3e
       0.081541374 0.23615703 0.034475874 0.13616997
0003f0 a3 7e 56 be 71 84 86 3d 07 09 7d 3d e5 64 ad be
       -0.20946746 0.0656823 0.061776187 -0.3386604

conv3.bias f4 [32]
000000 de 97 d9 bd 3f fb 7d bd 07 8e 2a 3e f8 b1 84 3e
       -0.106246695 -0.062007185 0.16655742 0.2591703
000010 f2 dc 78 3d ee 8b 88 3a d5 e9 40 3d e9 5f 5b 3d
       0.060757585 0.0010417679 0.047098 0.053558264
000020 0e 44 da 3d 52 8f 8d 3e 89 0a 7b be 3c 96 dc 3d
       0.10657512 0.27648407 -0.24515738 0.107708424
000030 d5 1c f0 3d 05 68 2f 3d a4 82 b2 3d 2e 43 06 be
       0.11724249 0.04282381 0.08716324 -0.13111565
000040 a5 8b 05 bd 63 e2 8b bd be 20 29 bd 21 11 5e 3d
       -0.03260388 -0.06830289 -0.04129099 0.054215554
000050 5c b0 09 bd 58 c0 f0 bd 03 3b 58 3c 99 1d 62 bd
       -0.033615455 -0.11755437 0.013197663 -0.055204008
000060 db 7c da 3d c9 b6 53 bc d8 bf b5 bd b6 88 64 bc
       0.106683455 -0.012921997 -0.08874482 -0.01394861
000070 0b ce 89 3e 1e 11 ba 3d a4 df 50 bd 55 bb b9 bd
       0.2691501 0.09085296 -0.05099453 -0.09068934

cls.weight f4 [125, 32]
000000 90 6b b2 3c e6 f2 a5 3d 05 9c 00 be f6 27 00 bf
       0.021779805 0.0810297 -0.12559517 -0.50060976
000010 13 ad 03 be cc 83 07 be cf 59 7e 3e 13 65 95 bd
       -0.12858991 -0.1323387 0.24838947 -0.07294669
000020 fb 24 89 3e e8 40 47 3c e3 71 3d 3c 4b c2 20 3d
       0.26786026 0.012161471 0.011562797 0.039247792
000030 b9 77 8c bd 17 8c a6 3d 99 d0 58 3e 56 57 79 3e
       -0.06858773 0.08132189 0.21173324 0.24349722
000040 bf ab 8d be fa 14 a3 bd 9a ab 66 be 16 1b 13 3e
       -0.27670094 -0.07962985 -0.22526398 0.14365801
000050 5f 3b 99 bd 90 90 5c 3e cd a9 f7 3d 10 e3 51 3e
       -0.07482027 0.21539521 0.12092934 0.20496774
000060 6f c5 19 3d 00 4b fb bd 6e 6d 19 3d 5a f5 f1 3d
       0.037541803 -0.122701645 0.037457876 0.11814375
000070 6e 0d 1e be 67 83 8c be 0a 35 61 be f9 18 77 bb
       -0.1543481 -0.27444002 -0.21992889 -0.0037704094
000080 d5 6a 08 3e c2 68 d3 3e d5 ef 92 bd 7e c7 4a be
       0.13322003 0.4129086 -0.071746506 -0.19802663
000090 22 85 10 be fb 24 14 3e 6b 96 26 3e 5f a6 6b 3c
       -0.14113286 0.14467232 0.16268317 0.014382928
0000a0 72 9e 61 be bd ea d9 bd 16 b5 5a 3d 53 a0 d9 3d
       -0.22033098 -0.10640476 0.053395353 0.106262825
0000b0 a5 a3 bf bd 54 6e 59 3e 1d f2 b3 3d 84 fc b8 3d
       -0.093573846 0.21233493 0.08786414 0.090325385
0000c0 06 b9 4b 3e b0 af e4 3c 67 91 e2 bd 93 f3 ea bd
       0.198948 0.027915806 -0.110628895 -0.11472239
0000d0 5a e3 23 3e a5 2e f2 bd e5 38 5d 3d f8 f7 9b bd
       0.16004696 -0.11825303 0.054009337 -0.07615656
0000e0 8e 1b 00 be f3 72 4f 3e 3e af 50 3e fc b0 e1 bb
       -0.12510511 0.20258693 0.2037935 -0.0068875533
0000f0 ae da 94 be b2 87 77 3c ad 4a 54 be e9 cd 49 be
       -0.2907309 0.015108036 -0.20731612 -0.19707455
000100 e6 f9 29 bd fc 25 57 3d 67 7c a7 be e7 19 f2 bd
       -0.041498087 0.05252646 -0.327121 -0.11821347
000110 ce c5 dc 3d 85 4c 8d 3e dd 8d fb 3c 2e e3 08 be
       0.10779916 0.27597442 0.030707294 -0.13367912
000120 cd 65 5a be b6 1d af be f0 c3 9d 3e 09 42 7e 3d
       -0.21327896 -0.34202355 0.3081355 0.062074695
000130 57 ea 3c 3e 5f 18 13 be 85 ff 00 3d 1a a0 d2 bd
       0.18448769 -0.14364766 0.031493682 -0.10284443
000140 7c dd 2a 3d 1d 79 28 3e bb 05 94 3c 66 8d 64 be
       0.04171513 0.16452451 0.018069139 -0.22319564
000150 bd 93 08 3c bc 0f 1a be 41 62 dc 3c 6e 63 bd 3c
       0.008336005 -0.15045065 0.02690232 0.0231187
000160 68 86 c1 be 59 a0 56 bb 92 d2 b9 3c 3a d1 05 be
       -0.37797856 -0.0032749383 0.022683416 -0.13068095
000170 d5 24 37 bd ee b5 86 3d 52 be 01 be 41 83 a5 3e
       -0.04471286 0.06577669 -0.12670258 0.323267
000180 71 13 51 be 45 a2 dd 3d f0 da 92 bd 64 4d 22 be
       -0.20417573 0.10821966 -0.07170665 -0.15849835
000190 2e 39 40 3e 8b 9d 33 3e 3a 30 1e 3d 45 c8 a1 be
       0.18771812 0.17540567 0.03862021 -0.31598106
0001a0 fd 63 04 be 01 1a c2 bd 38 2f 94 3e 2a 81 74 bd
       -0.12928768 -0.09477616 0.28942275 -0.059693493
0001b0 fd 3e ff 3d 66 ff 4f be b3 07 bd 3e a2 fa 2c bd
       0.12463186 -0.2031227 0.36919937 -0.04223121
0001c0 45 0c 8d be aa 8d d8 3d 12 d4 a3 bd 00 54 ac be
       -0.27548423 0.10573895 -0.079994336 -0.33657837
0001d0 d0 32 27 be e3 d8 0f be f9 a0 eb 3d 45 d5 87 3e
       -0.16327977 -0.1404758 0.115053125 0.265299
0001e0 b9 14 36 ba 2b 79 28 3e a1 63 e0 3d a7 44 47 be
       -0.0006945837 0.16452472 0.10956503 -0.19459783
0001f0 b6 b6 b8 bd 36 ae 47 be 6d 6e 89 be 23 10 89 bc
       -0.09019224 -0.1950005 -0.2684206 -0.016731327
000200 b0 ef 98 bd 5a d6 c3 bd 0b a2 9e be 1f 94 9a bd
       -0.07467592 -0.09562369 -0.30983004 -0.07547783
000210 60 e1 51 3e cf 72 b8 3d cf 80 3b be e2 85 1d be
       0.2049613 0.09006273 -0.18310855 -0.15383103
000220 30 a0 17 be 48 a1 b4 be eb 72 c6 3e a8 11 9e bd
       -0.148072 -0.35279298 0.3875955 -0.077182114
000230 fa ff a6 3d 9d ee a0 bd d7 b3 8d bd dc 1c 6e be
       0.081542924 -0.07858012 -0.06919067 -0.23253196
000240 db 94 e8 3d a1 34 c6 3d 2b 80 94 bd 8d 79 33 3e
       0.11356517 0.09678007 -0.072510086 0.17526837
000250 98 bc 68 be 46 33 11 be 39 b3 b0 3c a2 0d 8e 3d
       -0.22728193 -0.14179716 0.021569835 0.06936194
000260 87 c7 7e be eb b8 51 be 9b d6 37 3c ac fe 4d be
       -0.24880801 -0.20480697 0.0112205995 -0.20116681
000270 43 fb d8 3c 99 56 ca 3d 85 86 f1 bc 69 25 c4 3e
       0.026486998 0.098797984 -0.02948309 0.38309792
000280 42 f9 6d 3e 1b c0 d3 3d 04 8a a9 be 96 ca f3 bd
       0.23239616 0.103393756 -0.3311311 -0.119038746
000290 f3 ed 33 3c ba 1e 28 3d f3 4e 62 3d 95 b5 e5 be
       0.0109820245 0.041044928 0.055251073 -0.448651
0002a0 7c aa c4 3d 68 1c c8 3d 25 c8 10 3e 4d 4a 8e bd
       0.0960283 0.09771043 0.14138849 -0.069477655
0002b0 3a 3e 32 be 89 08 bb 3d 80 2e 11 3e 2a bf 4a bb
       -0.1740655 0.09132487 0.14177895 -0.0030936697
0002c0 b8 eb 02 bd ca 8b 48 be 75 0b 10 3e be c1 d1 be
       -0.03196308 -0.19584575 0.1406687 -0.40968126
0002d0 52 48 3f 3e ad f7 d6 3e 80 54 d9 3d 91 f8 9a 3e
       0.18679932 0.41985837 0.1061182 0.30267766
0002e0 b9 1a 92 be b9 2c 09 3e 27 f7 b7 3c 11 be 7c be
       -0.28536013 0.13395967 0.022456719 -0.2468188
0002f0 b8 76 9f be 4b 87 78 be f2 62 97 be 2f dc 1c bd
       -0.31145263 -0.2427036 -0.29567677 -0.03829592
000300 a2 5c 0d 3d 50 56 80 3e 4c af 4d be 33 9e b5 3e
       0.03451217 0.2506585 -0.20086402 0.3547226
000310 a0 ad 91 be 6f 60 8c bd 30 4d 17 3e 2a 5b c4 3c
       -0.28452778 -0.06854331 0.14775538 0.023969252
000320 c3 97 48 3e 27 ee 1c 3e 68 53 74 3c e0 3b 47 be
       0.19589143 0.15325223 0.014912464 -0.19456434
000330 de 28 4d be 19 e2 bd 3d 42 41 a6 3d 90 4a 15 3f
       -0.20035121 0.0927164 0.08117916 0.583169
000340 ba b5 20 3d 77 8d 07 be 2c 43 c2 3e 4e f3 c5 3d
       0.039235808 -0.13237558 0.37941873 0.09665547
000350 8a a0 61 3c 22 b4 c0 3e d3 d0 2d bc ce d7 3c bd
       0.013771186 0.3763743 -0.01060887 -0.046104245
000360 bc 42 a6 bc f8 0c f2 3d e2 ad 1e be ac 05 02 be
       -0.020295493 0.1181888 -0.15496019 -0.12697476
000370 bf 9f 18 bd 01 63 63 3c 50 fa 29 be 2d 14 5a bc
       -0.03726172 0.013878585 -0.16599393 -0.013310474
000380 0f aa c3 3d f8 b3 ff 3d 08 d1 63 be bd c0 3e 3d
       0.095539205 0.12485498 -0.22247708 0.04657053
000390 86 d9 b1 3d 17 a4 25 be 6e 4f 12 bd a2 b6 d9 bd
       0.086840674 -0.16175877 -0.03572028 -0.106305376
0003a0 9a 9a 76 3e 66 74 d5 3d 1a 71 70 be 9c 78 84 3e
       0.24082413 0.10422592 -0.23480645 0.25873268
0003b0 68 29 ce 3d a3 78 9a 3e 07 b4 b9 3c 8a 88 9b bd
       0.10066491 0.30170164 0.022668852 -0.07594402
0003c0 3a 89 d0 bc 8b 4c 82 be 79 2d a4 bc c4 17 1f be
       -0.02545606 -0.25449023 -0.020041214 -0.1553641
0003d0 41 83 22 be 5b ed 5b bd f6 9d b0 bb c4 16 39 3e
       -0.15870382 -0.053693157 -0.005389924 0.1807509
0003e0 dd d2 68 be 6a b7 62 be 05 9d 95 be 1f ac 50 bd
       -0.22736688 -0.2214028 -0.2922136 -0.050945397
0003f0 ed ea 52 bd 06 24 0c be c1 2a 3d be 79 23 3c 3e
       -0.051493574 -0.13685617 -0.1847334 0.18372907

cls.bias f4 [125]
000000 b6 20 92 3c f9 fb 0b 3d fe 14 3c be d7 7f 0c 3d
       0.017837863 0.034175847 -0.18367383 0.034301605
000010 1c 17 0d bd d7 ea 0e be 2e 28 18 3e 46 b8 07 bd
       -0.034445867 -0.13956772 0.14859077 -0.03313472
000020 0f b5 81 bd 68 a6 ea 3d 9a 32 b1 be 2c 9d 0c b9
       -0.06333362 0.11457521 -0.34608918 -0.00013409992
000030 57 d2 b3 bd 1c 5d 22 3e 30 d1 50 bd c0 65 d7 3d
       -0.087803535 0.15855831 -0.050980747 0.10517454
000040 61 0a fc bd ae ce 1f be b0 5f f7 3b e7 b6 80 3e
       -0.12306667 -0.15606186 0.0075492486 0.25139543
000050 09 9a b7 3d 06 cc a6 bd b3 b9 85 bd 73 d0 79 bd
       0.08964927 -0.08144383 -0.0652956 -0.06098981
000060 a5 b2 4e bd d0 38 35 be 72 2f 98 bd 9b c6 06 be
       -0.050463337 -0.17697453 -0.074309245 -0.131617
000070 19 fe 47 3e 43 b3 2f be 89 c9 b4 3d bf 41 da bd
       0.19530524 -0.17158227 0.08827502 -0.10657071
000080 ba 3f 25 3e a9 8d f8 bc 23 11 02 3e b2 ce 38 bd
       0.16137591 -0.030340986 0.1270185 -0.045118995
000090 ec 83 3f 3d ae eb 8e 3d a0 6a d0 bd 64 18 98 bd
       0.04675667 0.06978546 -0.10176587 -0.07426527
0000a0 a5 37 f1 bd 1a bf d7 bd 6e a6 ad 3d 78 d2 5d be
       -0.117781915 -0.105344966 0.084790096 -0.21662319
0000b0 3a ac 85 3d 90 b2 30 bd df d7 d9 bd 28 d8 24 bd
       0.0652699 -0.04313904 -0.10636877 -0.040245205
0000c0 b4 11 b6 3c 70 cd be bd 7e b4 56 3c b7 a7 55 3e
       0.022225238 -0.09316528 0.013104556 0.2086476
0000d0 c3 b6 b9 3d 1e 25 bd bd e7 28 00 be bc eb a7 3d
       0.09068062 -0.09235595 -0.12515603 0.0819926
0000e0 91 9b 0a bd 12 8c f0 3d 5d 4b de 3b b9 d5 3e be
       -0.033839766 0.11745466 0.0067838863 -0.18636216
0000f0 90 44 72 be 32 6f 2d bd df bf 16 be c3 4a 16 bc
       -0.23658967 -0.042342372 -0.1472163 -0.009173098
000100 37 7d 0d be 9a 96 40 3d 31 89 e3 bd 3e 16 2d 3e
       -0.13817297 0.047018625 -0.111101516 0.16903016
000110 85 d7 e8 3d c1 73 99 3c 72 3e 94 3d e9 82 25 be
       0.11369232 0.018731954 0.07238473 -0.1616322
000120 0c 73 3d bd 66 e0 88 3d 14 4d 3e 3d 4b 40 37 3e
       -0.046252295 0.066834256 0.046460226 0.1789562
000130 a8 98 c4 3b 03 02 ba bd 65 da a2 3c 66 a8 06 3b
       0.0059996434 -0.09082415 0.01987953 0.002054715
000140 82 38 de 3d f8 56 ca bd e8 8c 0f 3e 57 2f 13 be
       0.10850622 -0.09879869 0.14018595 -0.14373527
000150 0c 02 3a be af dd 09 3d fc 37 51 3c fd b6 05 3d
       -0.18164843 0.03365868 0.012769695 0.032645214
000160 5f f3 c8 3d 03 e1 98 bd 61 5c f8 3d 55 96 89 be
       0.09812044 -0.074647926 0.12126995 -0.26872507
000170 ae e1 af 3c e6 b8 77 be 80 77 11 3e a2 9a c2 bd
       0.021469917 -0.24191627 0.14205742 -0.0950215
000180 dd 52 80 3d d4 a5 d5 3d de 78 64 bc 85 e7 24 be
       0.06265805 0.1043202 -0.013944833 -0.16103943
000190 f6 38 43 3e 69 49 26 3d be 65 a5 bd f4 76 7b 3c
       0.19064698 0.040597353 -0.080760464 0.015348185
0001a0 08 d7 20 be 35 4f e0 3d 86 52 7a 3c 11 49 82 be
       -0.15707028 0.109526075 0.015278464 -0.2544637
0001b0 0e dc 9f bc df 99 3b bd c8 a7 1c be 3a 81 86 3d
       -0.01951411 -0.04580104 -0.15298378 0.06567617
0001c0 ba ce 8f bc ee b6 e9 bd 2a 91 09 be 1e ca f4 3d
       -0.01755463 -0.11411844 -0.13434282 0.11952613
0001d0 2e 9d 8a 3d 1a fd 04 be e5 1d 40 be ff 8e 7a be
       0.06768261 -0.12987176 -0.18761404 -0.24468611
0001e0 58 aa f1 bd 4c 6e f5 bc 1f 0a 35 3e 1f 1d d5 bc
       -0.118000686 -0.02995982 0.17679642 -0.026014863
0001f0 62 ff d8 bd
       -0.105955854
