src/app/epic7/tools/hero_avatar.pt (torch, 45175 bytes, 8 tensors)

weight f4 [8, 3, 3, 3]
0	0xbe557e46	-0.2084895
1	0xbe95e164	-0.29273522
2	0xbe41c8c3	-0.18924241
3	0xbe3da0d7	-0.18518387
4	0xbdba095a	-0.09083815
5	0xbc83fe92	-0.0161126
6	0xbd626779	-0.05527446
7	0xbe176b10	-0.14786935
8	0xbd8e0775	-0.06935016
9	0x3e2c026a	0.16797796
10	0xbd9e501b	-0.07730123
11	0x3e3bf03e	0.18353364
12	0x3d97c1c4	0.07410005
13	0x3e32c95f	0.1745963
14	0x3cbc9626	0.023020815
15	0x3cba1412	0.022714648
16	0xbd1be804	-0.038063064
17	0x3e09cf0a	0.13457885
18	0xbe2c8a95	-0.1684974
19	0xbc2b4cac	-0.010455292
20	0xbb8aed24	-0.004239695
21	0x3e0ae7f9	0.13565053
22	0x3e0c8b05	0.13724907
23	0xbe104dba	-0.1409215
24	0xbe5ddea9	-0.2166697
25	0x3d8a599e	0.06755374
26	0x3dcdbbdd	0.10045598
27	0xbe610dd9	-0.21977939
28	0xbc981a7b	-0.018567314
29	0xbe8240bb	-0.2544001
30	0xbe21b2cc	-0.15790862
31	0xbea127df	-0.31475732
32	0xbdd3c745	-0.10340742
33	0xbd97aca4	-0.074059755
34	0xbe76fc5f	-0.2411971
35	0xbe0f69d9	-0.14005221
36	0xbd82881f	-0.06373619
37	0x3e6e5fed	0.2327878
38	0xbd94e0b9	-0.07269425
39	0x3c9960b3	0.018722868
40	0x3e5414d0	0.20711064
41	0x3dff1ea0	0.12457013
42	0x3ddd2c4e	0.10799466
43	0xbcc7853d	-0.024355525
44	0x3e6979e5	0.22800405
45	0xbdd3b839	-0.10337872
46	0x3e56152e	0.20906517
47	0x3e0485dd	0.1294169
48	0x3c63cfc7	0.013904518
49	0x3ccda247	0.025101794
50	0x3e850b7f	0.25985333
51	0x3e2a4413	0.16627531
52	0x3d4cbf12	0.049986906
53	0x3e84e82a	0.25958377
54	0x3def730d	0.11691866
55	0x3e2213c8	0.15827858
56	0x3c235778	0.009969585
57	0x3e669693	0.22518377
58	0x3dff87c7	0.12477069
59	0x3e874c4d	0.264254
60	0x3e5ec866	0.21756133
61	0x3d51fddd	0.051267494
62	0x3ea116d0	0.31462717
63	0xbe26542d	-0.16243048
64	0xbd6c9f6b	-0.05776922
65	0xbd80a578	-0.06281561
66	0x3d7dd0ca	0.061966695
67	0xbdf13d51	-0.11779273
68	0xbd3f51d0	-0.04670888
69	0x3dcb7411	0.09934247
70	0xbd2fc97f	-0.04291677
71	0x3ab2d62c	0.001364415
72	0xbd877043	-0.06613209
73	0xbe9065f9	-0.282028
74	0xbe3d9775	-0.18514808
75	0xbdc175dc	-0.09446308
76	0xbe7e16c6	-0.24813375
77	0xbe4d4ca8	-0.20048773
78	0xbe48df28	-0.19616377
79	0xbe656b0b	-0.22404115
80	0xbdde68a1	-0.108598
81	0xbe3922f1	-0.18079735
82	0xbe19ae2d	-0.15007849
83	0xbe697815	-0.22799714
84	0xbd54d9b1	-0.05196542
85	0xbd4a761d	-0.049429048
86	0x3cc40626	0.023928713
87	0xbd8ccb53	-0.068747185
88	0xbe2dbfc3	-0.16967683
89	0xbd9e8e75	-0.07742015
90	0x3d0fe33b	0.035128813
91	0x3e83846c	0.25686967
92	0x3cf18682	0.029483084
93	0x3e207abb	0.15671818
94	0x3e7eb04e	0.24871942
95	0x3e83c0c1	0.25732997
96	0x3e85127d	0.25990668
97	0x3e80ff68	0.2519486
98	0x3e4e0861	0.20120384
99	0x3ce46cef	0.027883975
100	0x3dfeac9e	0.12435268
101	0x3e06e6fb	0.1317405
102	0xbe07e5d9	-0.13271274
103	0x3d219bed	0.039455343
104	0xbd2164e2	-0.03940285
105	0xbda91dcb	-0.08257636
106	0xbe02af03	-0.12762074
107	0x3d478dfa	0.048719384
108	0x3e542b49	0.20719637
109	0x3e048aab	0.12943523
110	0xbd0f6ad2	-0.03501398
111	0x3daea37f	0.08527278
112	0x3ea57cae	0.32321686
113	0x3e85568b	0.2604259
114	0x3e690f93	0.22759847
115	0x3e96e1c6	0.29469126
116	0xbcf03d9d	-0.029326255
117	0x3d10df39	0.03536913
118	0x3e2d071b	0.16897242
119	0xbdb86c4f	-0.09005033
120	0x3e49bd55	0.1970113
121	0x3dd4ba3a	0.103870824
122	0x3ddb3b59	0.10704679
123	0x3d3d09c5	0.046151895
124	0x3e65783d	0.22409149
125	0x3bddfba2	0.0067743817
126	0xbde2140d	-0.11038981
127	0xbe15772d	-0.14596243
128	0xbcf33abd	-0.029691095
129	0xbdcc270c	-0.09968385
130	0xbcc62754	-0.024188675
131	0xbd327bef	-0.043575224
132	0x3d1b8d96	0.037976824
133	0xbdabeaae	-0.08394371
134	0xbe1a7a30	-0.15085673
135	0x3e1f9e70	0.15587783
136	0x3decd6bb	0.11564394
137	0xbcc4fb2c	-0.02404555
138	0xbd9ac64b	-0.07557353
139	0xbddcac9e	-0.107751116
140	0xbd74417c	-0.059632763
141	0xbc0108d5	-0.007875641
142	0x3d9daa3f	0.076984875
143	0xbd607799	-0.054801557
144	0x3e982209	0.29713467
145	0x3e185c92	0.14879063
146	0x3e8cb7d1	0.2748399
147	0x3d9e2fef	0.07723986
148	0x3e5fe9d8	0.21866548
149	0x3e61016c	0.21973199
150	0x3e8194eb	0.25308928
151	0x3e762a3f	0.24039553
152	0x3e6a51e6	0.22882804
153	0xbe93408e	-0.2876019
154	0xbe4f21f6	-0.20227799
155	0xbe74352b	-0.23848407
156	0xbe2b5c92	-0.16734532
157	0xbe8def99	-0.2772186
158	0x3cd71a93	0.026257789
159	0xbe5598c3	-0.20859055
160	0xbdeb42cb	-0.11487349
161	0xbe9eb9d6	-0.31001157
162	0xbd0baa1e	-0.034097783
163	0x3d7b1b6c	0.06130545
164	0x3c8acc45	0.016943106
165	0xbd2c0e4b	-0.04200582
166	0x3dfb7990	0.122790456
167	0x3caa364b	0.020777842
168	0x3e40c1fc	0.18823999
169	0x3e18332e	0.14863274
170	0x3b23acc1	0.0024974796
171	0xbe0104e4	-0.12599522
172	0x3cff3f1c	0.031158023
173	0xbe1db608	-0.1540147
174	0xbd9a1986	-0.075243995
175	0x3dfaf414	0.122535855
176	0x3b804d1f	0.0039154436
177	0xbe0a0826	-0.13479671
178	0x3da2e741	0.079542644
179	0xbde409ce	-0.111346826
180	0x3c911031	0.017707916
181	0x3e1d39e3	0.15354113
182	0xbde47113	-0.1115438
183	0xbd7d2f75	-0.061812837
184	0x3e366045	0.17810161
185	0x3daec753	0.08534112
186	0x3e107e33	0.14110641
187	0x3e3787ae	0.17922851
188	0x3c3086f1	0.01077436
189	0xbd8ac295	-0.06775395
190	0xbe788e28	-0.24272978
191	0xbe960e8e	-0.2930798
192	0xbe91969d	-0.2843522
193	0xbe377cfa	-0.17918769
194	0xbe89a964	-0.26887047
195	0xbe60122f	-0.21881936
196	0xbe7db3a5	-0.2477556
197	0x3c7500f9	0.014953845
198	0xbda02fdb	-0.07821628
199	0xbda89ea6	-0.08233385
200	0xbdfe3d8d	-0.12414084
201	0xbe49958d	-0.19685955
202	0x3d70f84a	0.058830537
203	0xbe04c8c1	-0.12967207
204	0xbe15fd5c	-0.1464743
205	0x3dba192c	0.090868324
206	0xbd4a3c25	-0.049373765
207	0xbe022314	-0.12708694
208	0xbd5038ac	-0.050835297
209	0x3e09652b	0.13417499
210	0x3e362e4f	0.17791103
211	0xbce02410	-0.027360946
212	0x3d096f53	0.033553433
213	0x3e2470e9	0.16058697
214	0x3da7673f	0.081739895
215	0xbdb1f996	-0.08690183

bias f4 [8]
0	0x3ecc05d9	0.3984821
1	0xbe3afe29	-0.18261017
2	0xbd85d273	-0.06534281
3	0xbe6b81e6	-0.22998771
4	0xbe2c4467	-0.16822968
5	0xbd9ef245	-0.07761053
6	0xbec4e98b	-0.3845943
7	0x3ea1e642	0.31620985

weight f4 [16, 8, 3, 3]
0	0xbd486dd5	-0.04893287
1	0x3e865cf9	0.26242808
2	0x3e1b5bba	0.1517171
3	0x3e5a47e6	0.2131649
4	0x3eb2e6b3	0.34941635
5	0x3e43a500	0.19105911
6	0x3df1189a	0.117722705
7	0x3e98f4b8	0.29874206
8	0x3e1875a4	0.14888626
9	0xbf3bbf62	-0.733389
10	0xbed49f87	-0.4152796
11	0x3e59f84f	0.21286128
12	0xbee646e8	-0.44975972
13	0xbeabefe6	-0.33581465
14	0x3e3bc01d	0.18335004
15	0xbf2ba1e4	-0.670439
16	0xbe7ed66b	-0.24886481
17	0x3e2f9146	0.17145261
18	0xbccf2974	-0.025288321
19	0xbd80138e	-0.0625373
20	0xbc77760b	-0.015103827
21	0x3d2bbe99	0.041929815
22	0x3e137565	0.14400251
23	0xbdf935b3	-0.121684454
24	0x3e4b19cb	0.19834058
25	0x3e273762	0.1632972
26	0x3dd9eccb	0.10640868
27	0xbf6704ec	-0.90241885
28	0xbf3c828e	-0.7363671
29	0xbe345093	-0.17608862
30	0xbf57d39c	-0.84307265
31	0xbf482993	-0.7818844
32	0xbe84f379	-0.25967005
33	0xbf38089b	-0.7188813
34	0xbf4f7689	-0.81040245
35	0xbd92cc0d	-0.07167826
36	0xbe6c8a6f	-0.23099683
37	0xbeb26a27	-0.34846613
38	0xbe61d9f9	-0.22055806
39	0xbe2af89b	-0.16696398
40	0xbe933ff7	-0.2875974
41	0xbcb334db	-0.02187579
42	0xbe2891d9	-0.16461886
43	0xbe5585c0	-0.20851803
44	0x3cc917d1	0.02454749
45	0xbea0d891	-0.31415227
46	0xbedee76d	-0.4353594
47	0xbe973cc8	-0.2953856
48	0xbeb8ebb4	-0.36117327
49	0xbf080842	-0.531376
50	0xbec400d7	-0.3828189
51	0xbe97d2e6	-0.2965309
52	0xbe91cccd	-0.28476563
53	0xbeb25397	-0.348294
54	0xbf11dc72	-0.56977
55	0xbf00603c	-0.5014684
56	0xbd115f7b	-0.035491448
57	0xbe9108ac	-0.2832693
58	0xbea120de	-0.31470388
59	0xbddb2015	-0.106994785
60	0xbe754201	-0.2395096
61	0xbeb73d85	-0.35789123
62	0xbd56e5a4	-0.052465096
63	0x3e859659	0.2609127
64	0x3ebef998	0.372998
65	0x3e822475	0.2541844
66	0x3e9ac8fe	0.3023147
67	0x3ebd0ab0	0.36922216
68	0x3d9b2e29	0.07577164
69	0x3e7b43a0	0.24537516
70	0x3e8997bb	0.26873574
71	0x3de6eb57	0.11275356
72	0x3f0d5657	0.5520987
73	0x3f013fb6	0.5048784
74	0x3ee00d2d	0.43760052
75	0x3ed0908b	0.40735278
76	0x3ead01b9	0.33790377
77	0x3eb56c1c	0.35434043
78	0x3f1f59ac	0.62246203
79	0x3f2fa710	0.6861429
80	0x3f15352c	0.5828426
81	0x3f46f456	0.7771658
82	0x3f7c00f4	0.98438954
83	0x3f92067e	1.1408231
84	0x3f59fbe0	0.85149956
85	0x3f964709	1.1740428
86	0x3f8fd856	1.1237895
87	0x3f31bf10	0.69432163
88	0x3f85e026	1.045903
89	0x3f90bfd6	1.1308544
90	0xbd737a5a	-0.059442855
91	0xbcbd18ec	-0.023083173
92	0xbda0e1da	-0.07855578
93	0xbdbafca6	-0.0913022
94	0xbe214310	-0.15748239
95	0xbdd0357e	-0.10166453
96	0x3b1201bb	0.0022278863
97	0xbd2ef1ed	-0.042711187
98	0xbd6843d1	-0.0567053
99	0x3ee7278c	0.4514736
100	0x3f04f698	0.5193877
101	0x3f3b4c99	0.73163754
102	0x3ed0c202	0.40773016
103	0x3f09adc5	0.53780776
104	0x3f2d202a	0.67627203
105	0x3eafbc55	0.34323373
106	0x3f11382d	0.5672634
107	0x3f270cef	0.6525411
108	0xbd7458b0	-0.05965489
109	0x3cc6d52a	0.024271566
110	0x3cc1a2e0	0.023637235
111	0xbe3253f9	-0.17414846
112	0xbd6b5473	-0.057453584
113	0xbe0a20c7	-0.13489066
114	0xbdf2ad62	-0.118494764
115	0xbdcd6589	-0.10029132
116	0xbe637b5b	-0.22215025
117	0x3f1b8583	0.607506
118	0x3f40e401	0.75347906
119	0x3f0b663f	0.5445289
120	0x3f0f0838	0.55871916
121	0x3f2fb483	0.68634814
122	0x3f02c83f	0.510868
123	0x3f22f581	0.6365586
124	0x3f22de06	0.6362003
125	0x3f30785e	0.68933666
126	0xbef187b3	-0.47173843
127	0xbe1588dc	-0.14602989
128	0xbe3bb2a5	-0.18329866
129	0xbeeb1e3f	-0.45921513
130	0xbb7436a6	-0.0037264018
131	0xbd5b8314	-0.053591803
132	0xbf281157	-0.6565146
133	0xbe657e46	-0.2241145
134	0xbe93c388	-0.28860116
135	0x3db74fc0	0.08950758
136	0x3e08732e	0.13325188
137	0x3d91de63	0.07122495
138	0x3e7bce9e	0.24590537
139	0x3e73c606	0.23806009
140	0x3e881781	0.26580432
141	0x3e21805c	0.15771621
142	0x3e761841	0.2403269
143	0x3e60d782	0.2195721
144	0xbedae66e	-0.4275393
145	0xbec7c844	-0.39019978
146	0xbe971f4f	-0.29516074
147	0xbee7fefd	-0.45311728
148	0xbf0f4b32	-0.55974114
149	0xbed7b419	-0.4212959
150	0xbe8daf4f	-0.27672812
151	0xbe9c03ba	-0.30471593
152	0xbebeb0e8	-0.37244344
153	0x3f574145	0.8408397
154	0x3f46e209	0.7768865
155	0x3f1d28fd	0.6139067
156	0x3f694c68	0.9113221
157	0x3f627d6e	0.8847264
158	0x3f0f9851	0.5609179
159	0x3fae3249	1.3609096
160	0x3f9f1b0d	1.243013
161	0x3f56beaa	0.8388468
162	0x3dd11452	0.10208954
163	0xbceaba2f	-0.028653232
164	0xbd22a6d1	-0.03970987
165	0xbd567a7a	-0.052362897
166	0xbe03e780	-0.12881279
167	0xbe0eb263	-0.13935237
168	0xbe4261fd	-0.18982692
169	0xbdfa1445	-0.12210897
170	0xbdd2f869	-0.10301287
171	0x3f0f4aa4	0.5597327
172	0x3f17a960	0.5924282
173	0x3ea3265c	0.31865203
174	0x3e9d77f3	0.30755576
175	0x3e6f4500	0.23366165
176	0x3e2b3618	0.16719854
177	0x3f15c9c8	0.5851102
178	0x3f19a040	0.6001015
179	0x3e89afc1	0.26891902
180	0x3e2e3de9	0.17015804
181	0x3da6b6cf	0.08140337
182	0x3da1ae36	0.07894556
183	0x3d75cb80	0.060008526
184	0x3dabd57b	0.083903275
185	0xbd69c02e	-0.057068042
186	0xbd86f0f8	-0.0658893
187	0x3a48dad6	0.00076620036
188	0xbdf90cf7	-0.12160676
189	0xbe24fb64	-0.16111523
190	0xbede4725	-0.43413654
191	0xbe5ca092	-0.21545628
192	0xbe8fe969	-0.28107765
193	0xbea2866a	-0.31743175
194	0xbe180a19	-0.14847602
195	0xbed4cf50	-0.41564417
196	0xbf0cc271	-0.54984194
197	0xbea5bca4	-0.32370484
198	0x3f2aa6cb	0.66660756
199	0x3f5e1169	0.86745316
200	0x3f357a21	0.7088948
201	0x3ea37191	0.31922582
202	0x3f0ea7bd	0.557247
203	0x3ee1c49e	0.4409532
204	0x3eec3a56	0.46138257
205	0x3f1457b0	0.579463
206	0x3ee0703c	0.43835628
207	0xbd6ed0de	-0.05830466
208	0xbe76e7be	-0.2411184
209	0xbda69809	-0.08134467
210	0xb9aba9ae	-0.00032742083
211	0xbe073e24	-0.13207299
212	0xbd7a3d93	-0.061093878
213	0xbd450bc4	-0.048106924
214	0xbe15a9ac	-0.14615506
215	0xbdcffa18	-0.101551235
216	0x3eaa8d45	0.33310905
217	0x3f12fe40	0.57419205
218	0x3f0a011b	0.53907937
219	0x3ed3a10a	0.413338
220	0x3f15e38d	0.5855034
221	0x3ecdb3f5	0.4017636
222	0x3ef7929a	0.48354036
223	0x3f014e2b	0.505099
224	0x3edb124b	0.42787394
225	0x3ee56603	0.4480439
226	0x3ea7a9ce	0.32746738
227	0x3e01f493	0.12690954
228	0x3ef4698c	0.47736776
229	0x3f0ebe19	0.55758816
230	0x3e845b5c	0.25850952
231	0x3efe39f8	0.49653602
232	0x3ed081a4	0.40723908
233	0x3df1d675	0.118084826
234	0xbe47f2e6	-0.19526252
235	0xbe95d935	-0.29267278
236	0xbe6a2b81	-0.22868158
237	0xbe1b1664	-0.1514526
238	0xbe4d336a	-0.20039144
239	0xbe184f2a	-0.14873949
240	0xbe47da33	-0.1951683
241	0xbe9e6867	-0.30939028
242	0xbe4e5df3	-0.20153026
243	0xbe627b0a	-0.22117248
244	0xbee1532d	-0.4400877
245	0xbee9e49e	-0.45682234
246	0xbe5a07f5	-0.21292098
247	0xbe9cc2c1	-0.30617335
248	0xbe81bcd5	-0.2533938
249	0xbd90e2a6	-0.0707448
250	0xbe1d6ada	-0.15372792
251	0xbe85894a	-0.26081306
252	0xbdf46c2c	-0.11934695
253	0xbe53cb77	-0.20683084
254	0xbe35502d	-0.17706366
255	0xbbdc872b	-0.0067299805

bias f4 [16]
0	0x3e1ebfee	0.15502903
1	0xbd86b168	-0.06576806
2	0xbea2eeb2	-0.31822735
3	0x3e648b9d	0.22318883
4	0xbe12e406	-0.14344797
5	0x3ddd524b	0.10806712
6	0xbe2c2db3	-0.16814308
7	0x3ea7bf40	0.327631
8	0xbd9e8c47	-0.077415995
9	0xbe0fe19b	-0.14050905
10	0xbca11dee	-0.019667592
11	0xbdbeaa4a	-0.09309824
12	0xbe24fb4f	-0.16111492
13	0x3bb6bb7d	0.0055765496
14	0xbcca8268	-0.024720386
15	0xbec878ef	-0.39154765

weight f4 [32, 16, 3, 3]
0	0x3d95b899	0.073106
1	0x3d9c3af9	0.07628436
2	0x3df172c4	0.11789468
3	0x3dcde08b	0.10052594
4	0x3ded2ea9	0.11581165
5	0x3dd520a8	0.10406619
6	0x3e7e1dae	0.2481601
7	0x3e2bf15d	0.16791292
8	0x3dfa74af	0.12229287
9	0x3ecbab9c	0.39779365
10	0x3e55b121	0.2086835
11	0x3d9272d5	0.07150809
12	0x3e1f8f88	0.15582097
13	0x3e02a412	0.127579
14	0x3d977775	0.073958315
15	0x3cb69fd2	0.022293005
16	0x3d788047	0.06066921
17	0x3ace8375	0.001575573
18	0x3d3fa53f	0.04678845
19	0x3d48afbc	0.04899572
20	0xbd2d58d4	-0.04232104
21	0xbd42c7ee	-0.04755395
22	0xbdf85624	-0.12125805
23	0xbe1e1f17	-0.15441547
24	0xbe01bfce	-0.12670824
25	0xbe9b8f4c	-0.30382764
26	0xbee13c15	-0.4399115
27	0x3e35b9b4	0.17746621
28	0x3e05c85b	0.13064711
29	0xbea17eab	-0.31541952
30	0xbd9a322a	-0.07529099
31	0x3d34f7a9	0.0441815
32	0xbeb5634f	-0.3542733
33	0x3d6e105a	0.058121063
34	0x3d7ef8d1	0.06224901
35	0xbed83957	-0.42231247
36	0x3d241d27	0.040066864
37	0x3dbb7ba0	0.09154439
38	0x3e9ec40e	0.31008953
39	0x3db7bae1	0.08971191
40	0x3e7e9311	0.24860789
41	0x3edab3fd	0.42715445
42	0x3e3c9865	0.18417509
43	0x3e89f498	0.26944423
44	0x3ef8f3cc	0.48623502
45	0xbdb549fa	-0.088520005
46	0x3cb6e4d7	0.022325916
47	0x3c2e4335	0.010636141
48	0xbd03a33a	-0.032138087
49	0xbda89c59	-0.08232946
50	0x3d067668	0.032827765
51	0xbe476068	-0.1947037
52	0xbe546c69	-0.2074448
53	0xbe1358be	-0.14389321
54	0x3e601cca	0.21885982
55	0x3e18ae2a	0.14910188
56	0x3c6c359a	0.0144170765
57	0x3ddafc0c	0.106926054
58	0xbd27a956	-0.040932976
59	0xbe36cbc5	-0.1785117
60	0xbde6cfa5	-0.11270074
61	0xbe6ed369	-0.23322834
62	0xbecb3d03	-0.39694986
63	0x3d651818	0.05593118
64	0xbbe0aaa1	-0.006856278
65	0x3d6a180e	0.057151847
66	0x3ba01f7e	0.0048865667
67	0x3e2daced	0.16960497
68	0xbd7c5110	-0.061600745
69	0x3e3db64b	0.1852657
70	0x3e4a8f81	0.19781305
71	0x3c8c3810	0.017116576
72	0xbe35a5af	-0.17738985
73	0xbdb01108	-0.085969985
74	0x3e7541af	0.23950838
75	0x3d2394b2	0.03993673
76	0x3d4150d2	0.047196217
77	0x3eb27f06	0.34862536
78	0xbe0e8587	-0.13918124
79	0x3c956e36	0.01824103
80	0x3e8bf756	0.2733714
81	0x3c4a3884	0.012342576
82	0xbd596547	-0.0530751
83	0xbe4ea7e7	-0.20181237
84	0xbdc114c9	-0.094277926
85	0xbe2b3865	-0.16720732
86	0xbecaf5e8	-0.39640737
87	0xbe373fe1	-0.17895462
88	0xbea7d7ac	-0.32781732
89	0xbef74109	-0.48291805
90	0x3d916339	0.07099003
91	0xbd709f7a	-0.05874584
92	0xbe1489d4	-0.14505702
93	0x3c981891	0.018566402
94	0x3cd8b54f	0.026453642
95	0xbe4fa193	-0.2027648
96	0x3dd678a7	0.10472231
97	0x3dda7550	0.10666907
98	0x3c0ba135	0.0085223215
99	0x3db29c1a	0.0872118
100	0x3d23c7d5	0.039985497
101	0x3e27167b	0.1631717
102	0x3d82cde5	0.063869275
103	0x3d904cfa	0.07045932
104	0x3e95447f	0.2915382
105	0x3e26eed9	0.1630205
106	0x3e3ad3ec	0.18244904
107	0x3ec47ef9	0.38378122
108	0x3e969576	0.29410905
109	0x3e8a3a4b	0.269976
110	0xbc490f5f	-0.012271731
111	0x3d37b9bb	0.04485486
112	0x3db0f748	0.08640915
113	0xbde51092	-0.11184801
114	0x3c356cee	0.011073334
115	0x3d80fe2d	0.0629848
116	0xbe4d5116	-0.20050463
117	0x3ecbe4b4	0.39822924
118	0x3ec017ab	0.37518057
119	0x3ca2d2d0	0.019875914
120	0x3e5bab8a	0.21452156
121	0x3dffa658	0.124828994
122	0xbe85e822	-0.26153666
123	0xbc89d610	-0.016825706
124	0xbd0d9b90	-0.034572184
125	0xbed484b1	-0.41507486
126	0xbe13fefa	-0.14452735
127	0xbe24675f	-0.16055058
128	0xbdabe3c7	-0.083930545
129	0xbdeab05c	-0.11459419
130	0xbd808669	-0.06275637
131	0x3e57b474	0.21064931
132	0x3da8092c	0.082048744
133	0x3e3a9522	0.18220952
134	0x3edf14ce	0.4357056
135	0x3dbd15db	0.09232684
136	0x3e2aeb7b	0.16691391
137	0xbaafb032	-0.0013403951
138	0x3da80b17	0.0820524
139	0x3df66411	0.12030805
140	0xbd954c69	-0.07289965
141	0xbcc3ac03	-0.023885733
142	0xbda2606c	-0.07928547
143	0xbd402c39	-0.046917174
144	0x3c7dc8da	0.015489781
145	0x3c21fe14	0.009887237
146	0xbd9449bb	-0.072406255
147	0x3e5111f2	0.20417002
148	0x3db2110b	0.08694657
149	0x3e06d0ff	0.13165663
150	0x3bbc9974	0.0057555977
151	0xbce2a688	-0.027667299
152	0xbcedbaa4	-0.029019661
153	0xbebb23ff	-0.365509
154	0xbdbacd23	-0.09121158
155	0xbdf6c684	-0.120495826
156	0xbeee9c98	-0.46603847
157	0xbe39700a	-0.18109146
158	0xbdd11a5f	-0.10210108
159	0xbed6a21c	-0.41920555
160	0xbe981772	-0.29705387
161	0xbe278c1c	-0.16362041
162	0xbe05de8b	-0.13073175
163	0x3e08ef84	0.13372618
164	0x3e5af6a3	0.21383147
165	0xbe81c1a0	-0.25343037
166	0x3e4f379a	0.20236054
167	0x3e1d54e8	0.1536442
168	0xbe7d47a9	-0.24734367
169	0x3e9b75b5	0.3036324
170	0x3d8eecad	0.06978736
171	0xbc904cce	-0.017614748
172	0x3dde9771	0.10868729
173	0x3cb3e50f	0.02195981
174	0xbbafdad7	-0.005366664
175	0x3e7ec766	0.24880752
176	0x3dc7f1c8	0.09762913
177	0xbe878a22	-0.26472574
178	0xbd5823d8	-0.05276856
179	0xbe28c451	-0.16481139
180	0x3dcb4b15	0.0992643
181	0xbe12a0c7	-0.14319144
182	0xbdd80c41	-0.10549212
183	0x3db410bc	0.08792254
184	0xbe41f368	-0.18940508
185	0x3bf3b315	0.0074371197
186	0x3ea00c51	0.31259397
187	0x3caead1c	0.02132278
188	0x3e31543b	0.17317288
189	0xbe87cfd8	-0.2652576
190	0xbbcaa95c	-0.00618474
191	0xbd1d5948	-0.038415223
192	0xbe907acd	-0.2821869
193	0xbe9470a4	-0.28992188
194	0xbe5adb3b	-0.21372692
195	0xbe91dccd	-0.2848877
196	0xbe36d540	-0.17854786
197	0xbd233540	-0.039845705
198	0xbec91f75	-0.39281812
199	0x3e18b172	0.1491144
200	0x3d7be7ad	0.06150024
201	0xbf391d59	-0.72310406
202	0xbe73ed44	-0.23820978
203	0xbe8704c1	-0.26370814
204	0xbf39d313	-0.725877
205	0xbd755377	-0.05989405
206	0xbdbd7192	-0.092501774
207	0xbdd6e413	-0.104927205
208	0xbe52fc36	-0.20604023
209	0xbdb91909	-0.09037978
210	0xbe45bd23	-0.19310431
211	0xbe4ed177	-0.20197092
212	0xbe5e8fb1	-0.21734501
213	0xbe59b6e5	-0.21261175
214	0xbee9c02a	-0.45654422
215	0xbebfcec9	-0.37462452
216	0xbe2326ef	-0.1593282
217	0xbe8c4e84	-0.27403653
218	0xbe564ff5	-0.20928939
219	0xbe7881a4	-0.24268204
220	0xbeadaed2	-0.3392244
221	0xbe741314	-0.23835403
222	0xbda287a4	-0.07936028
223	0xbe9029db	-0.28156933
224	0x3d07c76f	0.03314918
225	0xbd98d26c	-0.0746201
226	0x3e545f82	0.20739558
227	0x3def5d8c	0.116877645
228	0xbe406352	-0.18787888
229	0x3e42dce4	0.19029576
230	0x3cd7636b	0.026292523
231	0xbeab6a9e	-0.3347978
232	0x3de2cfe6	0.1107481
233	0x3d8749a1	0.066058405
234	0x3e3c4728	0.18386519
235	0x3e1e328c	0.1544897
236	0x3dac9ebc	0.08428714
237	0x3e8a045b	0.26956448
238	0x3e9f6aa9	0.31136063
239	0x3e0255f7	0.12728105
240	0x3d96b07f	0.07357883
241	0x3bf6c31d	0.0075305835
242	0x3cd4fbe4	0.025999017
243	0x3e0ab86c	0.13546914
244	0xbd7c3e73	-0.061582994
245	0x3cd5e157	0.026108427
246	0x3e84d9b4	0.25947344
247	0x3d736486	0.05942204
248	0x3da6d7f8	0.081466615
249	0x3e71adc4	0.23601443
250	0x3d0cc211	0.034364764
251	0x3e0b4686	0.13601121
252	0xbe5686ac	-0.2094981
253	0x3d868d9a	0.06569977
254	0x3d7d04b7	0.061772075
255	0xbead822b	-0.33888373

bias f4 [32]
0	0xbdd9ecb7	-0.10640853
1	0xbd7d79df	-0.061883803
2	0x3e2ab32b	0.1666991
3	0x3e84b39f	0.2591829
4	0x3d795c27	0.0608789
5	0x3a8c2c6e	0.0010694393
6	0x3d3ff643	0.046865713
7	0x3d5b738e	0.053577
8	0x3dda633f	0.10663461
9	0x3e8d960d	0.27653542
10	0xbe7b5dff	-0.24547575
11	0x3ddc8b8f	0.10768806
12	0x3df009ae	0.11720596
13	0x3d2f93ca	0.042865552
14	0x3db235be	0.08701657
15	0xbe061ab0	-0.13096118
16	0xbd04bfc7	-0.032409456
17	0xbd8bda80	-0.06828785
18	0xbd28f3c4	-0.041248098
19	0x3d5c801e	0.05383312
20	0xbd08688f	-0.03330284
21	0xbdf11553	-0.117716454
22	0x3c5a766a	0.013333896
23	0xbd618830	-0.05506152
24	0x3ddaa9d5	0.10676924
25	0xbc50c14a	-0.012741396
26	0xbdb54df9	-0.08852763
27	0xbc639c03	-0.013892177
28	0x3e89d19e	0.26917738
29	0x3dba3a65	0.09093169
30	0xbd512e73	-0.051069688
31	0xbdba1ac9	-0.0908714

weight f4 [125, 32]
0	0x3cb1b70d	0.02169373
1	0x3da60b8b	0.081076704
2	0xbe00b676	-0.12569603
3	0xbf002ce0	-0.50068474
4	0xbe03db19	-0.12876548
5	0xbe079cc7	-0.132434
6	0x3e7e6b9f	0.24845742
7	0xbd952a8d	-0.072835065
8	0x3e892d42	0.2679234
9	0x3c483bd1	0.012221293
10	0x3c3bc24b	0.011459897
11	0x3d20abad	0.039226223
12	0xbd8ca0d2	-0.068666115
13	0x3da6adb1	0.08138598
14	0x3e58e05a	0.21179333
15	0x3e796b0f	0.24357246
16	0xbe8d8657	-0.27641556
17	0xbda33829	-0.07969696
18	0xbe6631a3	-0.22479872
19	0x3e13427f	0.14380835
20	0xbd98f8e0	-0.07469344
21	0x3e5c86d7	0.21535812
22	0x3df7c10e	0.12097369
23	0x3e51af42	0.20477012
24	0x3d1a2740	0.037635088
25	0xbdfb1b2f	-0.12261044
26	0x3d193f28	0.037413746
27	0x3df20f1d	0.11819289
28	0xbe1e0f89	-0.15435614
29	0xbe8c8e29	-0.2745221
30	0xbe614cd4	-0.22001964
31	0xbb7c6f80	-0.0038518608
32	0x3e0862a6	0.13318881
33	0x3ed37547	0.41300413
34	0xbd92fc63	-0.07177045
35	0xbe4ad639	-0.19808282
36	0xbe10b866	-0.14132842
37	0x3e13b1ea	0.14423338
38	0x3e26a2a5	0.16272981
39	0x3c6da4de	0.014504639
40	0xbe614fba	-0.2200307
41	0xbdd99815	-0.106247105
42	0x3d58be06	0.052915595
43	0x3dd95dfd	0.1061363
44	0xbdc02335	-0.09381715
45	0x3e59894f	0.21243785
46	0x3db40028	0.08789092
47	0x3db9c3ba	0.09070535
48	0x3e4bd495	0.19905312
49	0x3ce38a0a	0.027775783
50	0xbde28dfd	-0.11062238
51	0xbdeabcbd	-0.1146178
52	0x3e23f6e7	0.16012155
53	0xbdf24d21	-0.118311174
54	0x3d5d5b19	0.054041956
55	0xbd9ce140	-0.076601505
56	0xbe00081b	-0.12503092
57	0x3e4f8350	0.20264935
58	0x3e5070d2	0.20355538
59	0xbbdc71ef	-0.006727449
60	0xbe94cd9e	-0.29063123
61	0x3c76193b	0.015020664
62	0xbe54526d	-0.20734568
63	0xbe49ec63	-0.1971908
64	0xbd28fd87	-0.041257408
65	0x3d56667d	0.052343834
66	0xbea757c2	-0.3268414
67	0xbdf296e7	-0.118451886
68	0x3ddc249e	0.10749172
69	0x3e8d28f2	0.275703
70	0x3cfd7732	0.030940626
71	0xbe0886f6	-0.13332734
72	0xbe5a1bd9	-0.21299686
73	0xbeaf36d3	-0.34221515
74	0x3e9d8c5a	0.30771142
75	0x3d7d2d12	0.06181056
76	0x3e3ca1ac	0.18421048
77	0xbe12c889	-0.1433431
78	0x3cff88c7	0.03119315
79	0xbdd21599	-0.10258026
80	0x3d2cb0e7	0.042160895
81	0x3e282edc	0.16424125
82	0x3c91ef53	0.017814314
83	0xbe6420ad	-0.2227809
84	0x3c109cb4	0.008826423
85	0xbe19e3af	-0.1502826
86	0x3cda134e	0.026620533
87	0x3cb8ce16	0.022559207
88	0xbec1554d	-0.37760392
89	0xbb3f33c6	-0.0029175146
90	0x3cb77f3c	0.022399537
91	0xbe057eda	-0.13036671
92	0xbd373d49	-0.04473618
93	0x3d86488f	0.06556808
94	0xbe017565	-0.12642439
95	0x3ea5518d	0.3228878
96	0xbe51000b	-0.20410173
97	0x3ddd6160	0.108095884
98	0xbd926495	-0.07148091
99	0xbe22708a	-0.15863243
100	0x3e401d70	0.1876123
101	0x3e3382c7	0.17530356
102	0x3d1baeb7	0.038008418
103	0xbea1b860	-0.3158598
104	0xbe044d53	-0.12920122
105	0xbdc27c8f	-0.09496414
106	0x3e9427de	0.28936666
107	0xbd7544dd	-0.059880126
108	0x3dff14dd	0.12455151
109	0xbe509105	-0.2036782
110	0x3ebcf454	0.36905158
111	0xbd2c7c2e	-0.042110614
112	0xbe8ce5bf	-0.27519032
113	0x3dd89118	0.105745494
114	0xbda4580e	-0.080246076
115	0xbeac3dba	-0.33640844
116	0xbe274c7b	-0.16337769
117	0xbe0fef74	-0.14056188
118	0x3deb6a2b	0.11494859
119	0x3e87ada9	0.2649968
120	0xb9e38f01	-0.0004340336
121	0x3e28a6d1	0.16469885
122	0x3de16c80	0.11007023
123	0xbe471cb5	-0.19444545
124	0xbdb7c2cf	-0.08972704
125	0xbe4772e3	-0.1947742
126	0xbe895b36	-0.268274
127	0xbc8a5b17	-0.016889138
128	0xbd989baf	-0.07451569
129	0xbdc36cf8	-0.095422685
130	0xbe9ea199	-0.30982664
131	0xbd9ae508	-0.075632155
132	0x3e51b6c5	0.20479877
133	0x3db82141	0.08990718
134	0xbe3b53de	-0.18293712
135	0xbe1d469e	-0.1535897
136	0xbe177821	-0.1479192
137	0xbeb4a5ce	-0.3528275
138	0x3ec64c33	0.3873001
139	0xbd9e4f33	-0.0772995
140	0x3da6a696	0.081372425
141	0xbda0844f	-0.07837736
142	0xbd8db81a	-0.0691988
143	0xbe6df440	-0.23237705
144	0x3de87ba2	0.11351706
145	0x3dc5d97a	0.09660621
146	0xbd9495a3	-0.072551034
147	0x3e337dac	0.17528409
148	0xbe685056	-0.22686896
149	0xbe110e78	-0.14165676
150	0x3caf6cec	0.021414243
151	0x3d8e1ec0	0.06939459
152	0xbe7ebf0c	-0.24877566
153	0xbe515aae	-0.20444748
154	0x3c34fc3e	0.011046467
155	0xbe4dd77f	-0.20101736
156	0x3cd7a7d4	0.026325144
157	0x3dca045b	0.09864112
158	0xbcf131b8	-0.029442653
159	0x3ec405e3	0.3828574
160	0x3e6e0aa2	0.23246244
161	0x3dd42ae7	0.103597455
162	0xbea9a174	-0.3313099
163	0xbdf2d9bd	-0.118579365
164	0x3c393927	0.01130513
165	0x3d26a7b9	0.040687297
166	0x3d631c7d	0.05544709
167	0xbee5d064	-0.44885552
168	0x3dc54998	0.096331775
169	0x3dc8b5ee	0.09800325
170	0x3e107000	0.14105225
171	0xbd8db86f	-0.069199435
172	0xbe327a1a	-0.1742939
173	0x3dbb8460	0.09156108
174	0x3e116305	0.14197929
175	0xbb57d1e1	-0.0032931494
176	0xbd0409e8	-0.03223601
177	0xbe48d3c8	-0.19612038
178	0x3e1045f2	0.14089182
179	0xbed1ea41	-0.40999034
180	0x3e3f6ea7	0.18694554
181	0x3ed714c4	0.4200803
182	0x3dd9d565	0.10636405
183	0x3e9b1024	0.30285752
184	0xbe9232be	-0.28554338
185	0x3e08da80	0.13364601
186	0x3cb604b1	0.022219034
187	0xbe7cf6c7	-0.24703513
188	0xbe9f8c2e	-0.31161636
189	0xbe78c3de	-0.24293467
190	0xbe97830f	-0.29592177
191	0xbd1df1df	-0.038560744
192	0x3d0d1c55	0.034450848
193	0x3e806229	0.2507489
194	0xbe4db144	-0.20087153
195	0x3eb5751d	0.35440913
196	0xbe91ad38	-0.28452468
197	0xbd8cb855	-0.06871096
198	0x3e174ac5	0.14774616
199	0x3cc413af	0.023935167
200	0x3e48ab04	0.19596487
201	0x3e1ce9cd	0.15323563
202	0x3c7462de	0.01491615
203	0xbe474cfd	-0.19462962
204	0xbe4d32af	-0.20038866
205	0x3dbddc84	0.09270576
206	0x3da6537b	0.081213914
207	0x3f154d26	0.58320844
208	0x3d20980d	0.039207507
209	0xbe078b50	-0.13236737
210	0x3ec2368e	0.37932247
211	0x3dc601eb	0.096683346
212	0x3c618e87	0.013766891
213	0x3ec0c7eb	0.37652525
214	0xbc2c6cf9	-0.010524028
215	0xbd3c305e	-0.045944564
216	0xbca60a98	-0.020268723
217	0x3df21921	0.11821199
218	0xbe1ea8a4	-0.15494019
219	0xbe01f9e1	-0.12692977
220	0xbd18f5ac	-0.037343666
221	0x3c6229b2	0.013803886
222	0xbe29fef6	-0.16601166
223	0xbc5a8443	-0.013337198
224	0x3dc39cd5	0.09551398
225	0x3dff9a41	0.124805935
226	0xbe63a669	-0.22231449
227	0x3d3e71b0	0.04649514
228	0x3db20507	0.08692365
229	0xbe25a19b	-0.16174929
230	0xbd12a86b	-0.035805147
231	0xbdda07ef	-0.106460445
232	0x3e7694b1	0.24080159
233	0x3dd54788	0.10414034
234	0xbe7065d7	-0.23476349
235	0x3e846dd6	0.25865048
236	0x3dce1b5c	0.10063812
237	0x3e9a6b8b	0.30160174
238	0x3cb919f6	0.022595387
239	0xbd9b6304	-0.07587245
240	0xbcd13969	-0.02554007
241	0xbe8241e3	-0.25440893
242	0xbca5001f	-0.02014166
243	0xbe1f2ba6	-0.15543994
244	0xbe22d935	-0.1590317
245	0xbd5b21f8	-0.053499192
246	0xbbb45763	-0.0055035814
247	0x3e393f26	0.18090495
248	0xbe68d816	-0.2273868
249	0xbe62d2f4	-0.22150785
250	0xbe95989c	-0.29217994
251	0xbd508bdd	-0.050914634
252	0xbd525700	-0.0513525
253	0xbe0c1243	-0.13678841
254	0xbe3d0122	-0.18457463
255	0x3e3c48f6	0.18387207

bias f4 [125]
0	0x3c929f8e	0.017898347
1	0x3d0c3ae7	0.03423586
2	0xbe3c4c4b	-0.18388478
3	0x3d0bd6ae	0.03414028
4	0xbd0db38f	-0.03459507
5	0xbe0eabb0	-0.13932681
6	0x3e1829f3	0.14859752
7	0xbd081608	-0.033224136
8	0xbd81939c	-0.063269824
9	0x3dea618f	0.11444389
10	0xbeb1308a	-0.34607345
11	0xb99439fa	-0.00028271956
12	0xbdb36b52	-0.08760704
13	0x3e2259d7	0.15854584
14	0xbd503a1a	-0.05083666
15	0x3dd709a4	0.10499886
16	0xbdfbfa8d	-0.12303648
17	0xbe1f8b41	-0.15580465
18	0x3bf8028a	0.007568662
19	0x3e80d879	0.25165156
20	0x3db6e23f	0.08929872
21	0xbda6bb63	-0.0814121
22	0xbd84f678	-0.06492323
23	0xbd78f64d	-0.060781766
24	0xbd4de747	-0.05026939
25	0xbe355812	-0.17709377
26	0xbd9882be	-0.07446812
27	0xbe06b5c8	-0.13155282
28	0x3e481042	0.19537452
29	0xbe300025	-0.17187555
30	0x3db4aba5	0.08821801
31	0xbddb308c	-0.10702619
32	0x3e2537c6	0.16134557
33	0xbcf8e707	-0.0303836
34	0x3e023284	0.12714583
35	0xbd3881dd	-0.045045722
36	0x3d3fe640	0.046850443
37	0x3d8f06d8	0.06983727
38	0xbdd0423f	-0.101688854
39	0xbd9818e8	-0.074266255
40	0xbdf15252	-0.117832795
41	0xbdd7f5cf	-0.10544931
42	0x3dad1277	0.084507875
43	0xbe5dbd5a	-0.21654263
44	0x3d85fcf1	0.06542385
45	0xbd3081ee	-0.04309266
46	0xbdd9eda6	-0.10641031
47	0xbd2461a0	-0.040132165
48	0x3cb6e097	0.02232389
49	0xbdbe563c	-0.09293792
50	0x3c518957	0.012789092
51	0x3e55d171	0.20880677
52	0x3db9b120	0.09066987
53	0xbdbd3e04	-0.09240344
54	0xbdfffcf9	-0.124994226
55	0x3da7d527	0.081949525
56	0xbd09d20a	-0.033647574
57	0x3df07349	0.11740739
58	0x3be27324	0.0069106985
59	0xbe3ee8ed	-0.18643542
60	0xbe727e13	-0.23680906
61	0xbd2d3e82	-0.04229594
62	0xbe168eeb	-0.14702956
63	0xbc16417b	-0.009170885
64	0xbe0d6352	-0.13807419
65	0x3d3fb929	0.04680744
66	0xbde36900	-0.111040115
67	0x3e2ceecf	0.16887973
68	0x3de97fd0	0.114013314
69	0x3c971503	0.018442636
70	0x3d947e13	0.07250609
71	0xbe256404	-0.16151434
72	0xbd3e4835	-0.04645558
73	0x3d88c4db	0.06678172
74	0x3d3e0115	0.04638775
75	0x3e378fd4	0.1792596
76	0x3bc23f18	0.0059279315
77	0xbdba6bc7	-0.09102588
78	0x3ca41816	0.020031016
79	0x3b08d89f	0.002088107
80	0x3dde6624	0.108593255
81	0xbdca1fea	-0.098693684
82	0x3e0fbd9e	0.14037177
83	0xbe132797	-0.14370571
84	0xbe3a76f0	-0.18209434
85	0x3d0a3b1d	0.03374778
86	0x3c53ac98	0.0129195675
87	0x3d064042	0.032776125
88	0x3dc96c73	0.09835138
89	0xbd986583	-0.07441237
90	0x3df83ccd	0.12120972
91	0xbe899f8f	-0.26879546
92	0x3caf87db	0.021427086
93	0xbe77dc3d	-0.24205108
94	0x3e119bfb	0.14219658
95	0xbdc2d02f	-0.09512364
96	0x3d80a0a0	0.06280637
97	0x3dd58b69	0.10426981
98	0xbc61076e	-0.0137346815
99	0xbe2523cd	-0.16126938
100	0x3e42fffb	0.19042961
101	0x3d264ca2	0.040600426
102	0xbda56c50	-0.080772996
103	0x3c7d9b75	0.015478958
104	0xbe206fb9	-0.15667619
105	0x3de0a1f0	0.10968387
106	0x3c79045a	0.015198791
107	0xbe824483	-0.25442895
108	0xbca1b157	-0.019737883
109	0xbd3c9697	-0.04604205
110	0xbe1cd2ee	-0.15314838
111	0x3d86bd8a	0.065791205
112	0xbc8f044f	-0.01745811
113	0xbdea057e	-0.11426829
114	0xbe09b6fa	-0.13448706
115	0x3df50624	0.11964062
116	0x3d8a84ec	0.06763634
117	0xbe05304f	-0.1300671
118	0xbe3f9b09	-0.18711485
119	0xbe7acb92	-0.24491718
120	0xbdf217fc	-0.11820981
121	0xbcf4f6c5	-0.029902825
122	0x3e354f85	0.17706116
123	0xbcd5812a	-0.026062567
124	0xbdd8de3f	-0.10589265
